checkpoint_critic_agent_0.pth (torch_old, 324044 bytes, 9 tensors)

fc1.weight f4 [256, 52]
000000 44 aa b0 3b 27 3c ce 3f 54 5a db 3b ae 3b 68 3f
       0.005391391 1.6112107 0.0066941176 0.90716064
000010 31 62 03 3e 18 d2 09 bf 86 c2 d1 bb 4e 02 6a 3f
       0.12830426 -0.538362 -0.006401363 0.91409767
000020 be 70 6e 3e ec ad 16 40 b6 2a 31 3d 40 8e 9b 3e
       0.23285195 2.3543653 0.043253623 0.30381966
000030 28 2e bf 3d e1 4e 04 bf 35 d7 9e bc 28 4e ab 3e
       0.093349755 -0.5168286 -0.019389728 0.33458066
000040 ed f6 7b 3e 41 93 f0 3f 65 36 fb 3d 75 41 75 bf
       0.24605913 1.8794938 0.12266234 -0.95803005
000050 b7 c6 16 3e 00 c7 03 3f 1e 76 91 3d 6d b3 88 bf
       0.14724241 0.51475525 0.07102607 -1.0679756
000060 b1 e6 2d be 92 17 a8 3e 8a 53 67 3c 90 a5 bf 3d
       -0.16982533 0.32830483 0.014119038 0.093577504
000070 29 d7 51 bd 22 73 07 bf a7 00 56 3d 2c 0a a9 3d
       -0.051230583 -0.52910054 0.052246716 0.08253893
000080 fc 79 ed 3d b7 b3 d4 3e fc a7 3c 3c 0b 38 96 3c
       0.11595532 0.41543362 0.01151466 0.01833727
000090 2a cf 9b bd 89 5b 0b bf 45 d2 4b bd ad d1 22 bc
       -0.07607873 -0.54436547 -0.049761076 -0.009937686
0000a0 95 94 2f 3e 0e db bf 3e 04 ca 4b 3c be 7c 2d 3e
       0.17146523 0.37471813 0.012438301 0.16942117
0000b0 62 70 47 bd 72 38 fc 3e 52 aa 84 3c d0 89 75 3e
       -0.04869116 0.49261814 0.016194496 0.23978353
0000c0 8d 9d 85 3f dc 10 a0 3f 84 7c 33 be 2c 48 7e 3e
       1.0438706 1.2505145 -0.17527968 0.24832219
0000d0 4b b7 bf 3e ba 1b 38 be e4 c7 17 3d 9c 2f 9b 3c
       0.3744453 -0.17979327 0.037055865 0.0189436
0000e0 14 bd c6 3d a0 15 1e bf b9 b6 54 3c 2e 4b 75 3c
       0.097040325 -0.6175175 0.012983018 0.0149715375
0000f0 ae e0 c3 3e fd 3c 04 bf 8e 5a c7 bd 12 0a da bd
       0.38257354 -0.5165556 -0.09734069 -0.10646452
000100 7b ab 7f 3e 0c 80 23 bf 94 cb a9 bd 2b 32 9c bd
       0.24967758 -0.6386726 -0.082907826 -0.07626756
000110 2d 4c c5 3e 5c 04 e1 be 0f 8c 46 be 95 d0 ba bd
       0.3853468 -0.43948638 -0.19389366 -0.09121815
000120 9a 77 6b 3e cb e2 fb be 0d 9a 45 be b7 b8 01 be
       0.22994843 -0.49196467 -0.19297047 -0.1266812
000130 ef 46 90 bd 6f fa 47 3e 46 f6 57 bd 15 d7 af 3e
       -0.070447795 0.19529127 -0.0527251 0.34343782
000140 d6 df ca bd 8e 19 2d bf f6 25 78 bd 45 c3 a9 3e
       -0.099059746 -0.6761712 -0.060583077 0.3315679
000150 f4 91 b0 bd fa 3b 97 3e ca c1 95 3d 1c 2a 4e 3e
       -0.08621588 0.29537946 0.07312353 0.20133251
000160 bc 6d 8a be 4a 0a 18 bf 9c 59 f4 3c db a9 31 3e
       -0.27036846 -0.593907 0.029827885 0.17349951
000170 82 e8 80 3d b2 2f 96 bd 0f 35 dc 3d ff 73 8f bf
       0.06294347 -0.07333316 0.107523076 -1.1207274
000180 ac 02 69 be bd ef d3 be 45 0d fe 3d b6 6e 93 bf
       -0.22754925 -0.41393843 0.12404875 -1.1518161
000190 48 3a 3e bf 44 16 33 3f 45 28 58 be e9 07 c6 3e
       -0.7430768 0.6995585 -0.21109112 0.3867791
0001a0 2e 16 24 3f dd 2a 95 bf fa 5d 1b bd 92 1c 87 3e
       0.64096344 -1.1653706 -0.03793142 0.26388985
0001b0 20 34 20 bf 70 0e 48 bf 2a 64 97 bb f0 48 8f 3e
       -0.62579536 -0.7814703 -0.004620095 0.27985334
0001c0 d1 e0 2e 3f 65 3d 8f bf 5b 59 19 3b 44 91 99 3e
       0.6831179 -1.1190611 0.0023399207 0.2999364
0001d0 04 76 07 bf 9d e9 fb be d4 18 20 bc a2 2b a8 3e
       -0.5291445 -0.4920167 -0.0097715445 0.3284579
0001e0 4f 53 33 3f eb f0 76 bf 44 72 83 3d a3 ba 6e bd
       0.70048994 -0.9646136 0.06418279 -0.05828346
0001f0 f3 5c e2 be 84 aa 4b 3e d1 02 a9 3d 70 58 a3 bd
       -0.4421154 0.19889265 0.0825249 -0.079758525
000200 f6 cc 77 3e 8a 2e a8 be 93 43 08 bd 3e af 32 be
       0.2419928 -0.32848006 -0.03326757 -0.17449662
000210 aa 3b 23 3f 72 6c 4d bf a7 89 92 3a d4 8d a4 bd
       0.63762915 -0.802436 0.001117994 -0.08034864
000220 d4 a6 3e 3e 4e ea e3 be 6f 7b aa 3c 3f 81 b4 bd
       0.18618327 -0.44514698 0.02081081 -0.08813714
000230 30 5c 12 3f ec 77 f7 be 7c 68 3a bd 67 53 1a be
       0.57171917 -0.4833368 -0.0455098 -0.15070878
000240 c1 51 97 3e d7 5c 22 bf 6e 0f 3c 3d 68 7f 9c be
       0.2955456 -0.6342291 0.045913152 -0.30565953
000250 bf 31 e7 3e 10 b6 23 3e 82 87 8c bc 0e ee 6d be
       0.4515514 0.1598742 -0.017154459 -0.23235342
000260 ba bb b3 3f 35 84 b0 3e 60 5d 71 bf 8e da 26 3f
       1.4041665 0.34475866 -0.94283104 0.6517724
000270 ad 32 db 3e ae 52 e0 3e 49 ea 8c 3b a5 db b4 bd
       0.428121 0.4381308 0.00430039 -0.08830956
000280 c4 85 19 3e 07 d9 40 bf f3 d5 14 bd d5 d7 8f bd
       0.14992434 -0.7533116 -0.03633685 -0.070235886
000290 5a 92 97 3e 43 67 b3 3e a7 d3 b9 bd ca 01 02 bf
       0.29603845 0.3503972 -0.090735726 -0.5078398
0002a0 e5 da 4e 3e 81 d3 63 bf 1d 47 42 be b1 2f e1 be
       0.20200689 -0.88994604 -0.1897244 -0.43981698
0002b0 42 43 da 3e 40 a3 bf 3e 46 e9 52 3e 85 6a 91 3c
       0.4262944 0.37429237 0.20596799 0.017750988
0002c0 82 0b b8 3c 57 a5 7d bf b8 98 3d 3e 9f dc 80 bd
       0.022466425 -0.99080414 0.18515289 -0.0629208
0002d0 12 57 59 3d 0b bc 1d 3f 5e 98 cf bd 3a fa fe 3d
       0.053061552 0.61615056 -0.101364836 0.12450071
0002e0 40 e5 09 be 57 60 50 bf 9c fd 2d be 7f af 2a 3d
       -0.13466358 -0.81397 -0.16991276 0.041671272
0002f0 e6 d3 13 bc 86 b9 bb 3e cb 22 60 3e b7 9b 48 be
       -0.0090226885 0.3666498 0.21888272 -0.1959065
000300 0c a3 dd bd 0d 1d 56 bf 21 6d 37 3e e9 d9 c9 bd
       -0.10822114 -0.8363808 0.17912723 -0.09856016
000310 78 bf 68 3e 3a a2 8d 3e 8b b1 1a 3e 39 1d 7b be
       0.2272929 0.27662832 0.1510679 -0.24522866
000320 8c 0e 5e 3c 45 af 86 bf 2b 50 21 3e ea 3b 31 be
       0.013553273 -1.0522238 0.15753238 -0.17308012
000330 f0 74 f2 be 06 42 46 3f 21 09 da 3e 53 80 ff 3d
       -0.4735484 0.77444494 0.4258509 0.12475648
000340 f3 50 85 3b 21 27 30 3e 1e 84 29 3e db 5f b7 3d
       0.004068488 0.17202426 0.16554305 0.0895383
000350 41 09 a3 3e 4b 7b 45 be 6e c6 e7 3d bd 62 c2 3c
       0.31842998 -0.19285314 0.11317144 0.023728723
000360 e2 a2 3c be 77 f4 b0 be 9a 9d 77 be cb cd c8 be
       -0.1842151 -0.34561512 -0.24181214 -0.39219508
000370 fa e5 2e 3e 62 93 58 be 7f ac 83 be 1b 0e 9d be
       0.17079917 -0.21149972 -0.25717542 -0.30674824
000380 90 2c a8 bc eb 11 08 bf cf a4 13 3e 04 4d 6a be
       -0.020529062 -0.5315234 0.14418338 -0.22880942
000390 22 cf d8 3d 2b 17 32 bf 4f 14 8f 3d dc f7 3d be
       0.105863824 -0.695666 0.069862954 -0.18551582
0003a0 ca 7f 1f 3e 7d 72 f7 be d3 64 87 bd fb 54 44 bf
       0.15576091 -0.48329535 -0.066110276 -0.7669217
0003b0 e7 92 a1 be 69 b3 62 be 7f ef d2 bd 71 ca 2e bf
       -0.3155739 -0.22138752 -0.102995865 -0.6827765
0003c0 28 e6 9d 3e 85 94 24 bf f0 73 39 3c e6 5a 3e bf
       0.30839658 -0.6428912 0.011319146 -0.7435745
0003d0 8a 73 48 be 5c 82 17 be 98 3a 5c 3c d6 1c 3e bf
       -0.19575325 -0.14795822 0.013441704 -0.7426275
0003e0 2c d5 23 3f 52 b9 26 bf a7 68 8d 3e 9c 5d 56 3e
       0.6399715 -0.65126526 0.27618906 0.20934147
0003f0 e4 cc 09 be e5 86 23 bf 50 00 72 3e d0 09 64 3e
       -0.13457066 -0.6387771 0.23632932 0.22269368

fc1.bias f4 [256]
000000 22 13 26 be 57 7f ef be c7 03 f1 be c5 52 b4 bd
       -0.16218236 -0.4677684 -0.47073194 -0.088048495
000010 26 50 f6 be c3 26 0a bf 9d a4 2d bf 56 7a d9 bf
       -0.48108023 -0.53965396 -0.67829305 -1.6990459
000020 34 98 15 bf 53 80 03 bf 68 73 d3 be b7 3c 12 bf
       -0.5843537 -0.5136768 -0.41298985 -0.57123893
000030 a3 d4 7f be a8 11 1d be 80 97 1d bf 31 91 91 be
       -0.24983458 -0.15338767 -0.61559296 -0.28431085
000040 f3 00 b6 be b6 ce ce be a7 15 51 bf e2 4e 1b bf
       -0.355476 -0.40392083 -0.81673664 -0.6066724
000050 a2 06 95 bd 7e 5d dd 3d b0 56 69 bf 1e 66 59 be
       -0.07276656 0.10808848 -0.911479 -0.21230361
000060 91 1c 99 bf a7 9f 16 bf 10 08 23 bf 74 c7 5d bf
       -1.1961843 -0.5883736 -0.6368418 -0.86632466
000070 d6 bd 86 be ab 7f c9 be a9 68 e6 be 7b 2c ac be
       -0.26316708 -0.39355215 -0.45001724 -0.33627686
000080 9a a6 8c be 8d 8b eb be 52 96 77 be 1f 91 e1 be
       -0.27470857 -0.46004906 -0.24178436 -0.4405603
000090 ea f8 72 bf 2a 7e 35 bf 60 e9 81 be 43 20 8e be
       -0.9491106 -0.70895636 -0.25373363 -0.2775899
0000a0 e4 02 3b be ca 2f cd 3d 59 61 20 be bf 35 55 bf
       -0.18262821 0.10018881 -0.15662135 -0.83285135
0000b0 bc 73 ea 3d 5d 7f f9 be 05 aa 01 bf 03 57 de be
       0.11447856 -0.48729983 -0.50650054 -0.4342576
0000c0 82 b0 70 be d8 d5 d5 be ac 94 aa be 8f c8 9c be
       -0.23504832 -0.41764712 -0.33316553 -0.30621764
0000d0 29 84 6a 3d 97 ff 12 be f9 5b 61 3d 7b bd 13 3e
       0.057254944 -0.14355312 0.055019353 0.1442775
0000e0 dc 56 0a bf cd d2 25 bf e2 71 63 bf 49 d6 15 bf
       -0.54038787 -0.6477478 -0.88845646 -0.585301
0000f0 9f 77 63 bf a1 d6 04 bf e3 1f 4b be c4 72 b3 be
       -0.888544 -0.5189 -0.19836383 -0.35048497
000100 ad e7 20 be be 4f 1d bf 15 39 a7 be 6c 54 ad be
       -0.15713377 -0.614498 -0.32660738 -0.3385347
000110 b3 8a b0 be ad 57 a2 be 75 97 21 bf e9 01 a4 be
       -0.3448082 -0.31707516 -0.6312173 -0.32032707
000120 b2 67 e9 be 05 e5 9f 3d 41 3f 23 bf 41 64 87 be
       -0.45586926 0.07807354 -0.6376839 -0.26443675
000130 28 a8 bc be 27 31 0a bf eb 91 88 be e3 b7 f4 bd
       -0.36847043 -0.5398125 -0.26673827 -0.11949136
000140 40 2e af be d3 de a3 3d 44 de b0 be 9c 1a e8 bd
       -0.34214973 0.08001485 -0.34544575 -0.113332
000150 3b af df be d6 7a a3 bf 60 e2 bc be b1 a5 b2 3e
       -0.43688378 -1.2771862 -0.3689146 0.34892038
000160 c9 fb a7 bd bb c6 14 be bc 82 2b bf 22 f6 2a bf
       -0.08202321 -0.14528935 -0.6699636 -0.6678182
000170 f9 4d a9 be 1a 87 06 3e e5 37 a4 bd f1 35 75 be
       -0.330673 0.13137475 -0.080184735 -0.23946358
000180 77 71 96 be 67 5b e4 be f7 64 52 bf 7f 39 0b be
       -0.29383442 -0.44600984 -0.8218531 -0.13596152
000190 2a 0e 56 bf 3d a2 02 bf 8e f9 55 be c8 4c 39 bf
       -0.8361536 -0.51028806 -0.20895979 -0.72382784
0001a0 53 ec 15 bf 99 45 ee be 86 9d e7 bd f8 22 fe bc
       -0.5856373 -0.46537474 -0.11309342 -0.031022534
0001b0 62 b3 1b bf 73 5b 9e be af 87 ed be 9d 03 a5 be
       -0.6082059 -0.30929145 -0.4639258 -0.3222932
0001c0 0f 9f 69 be 92 5c e9 be dc 1c 0e bf f3 5c 66 be
       -0.22814582 -0.45578438 -0.55512786 -0.22496395
0001d0 82 f3 f2 be 9e 97 cd be 48 5a 55 be 54 4f b9 3d
       -0.47451407 -0.40154737 -0.20835221 0.09048334
0001e0 30 69 21 be e4 29 3a bc 1f 5b 5b be 68 78 48 be
       -0.15762782 -0.011362527 -0.21421479 -0.19577181
0001f0 3a b0 4b be 7a 96 32 bf 7d 1b 1b bf 0b db c7 be
       -0.19891444 -0.6976086 -0.6058882 -0.39034304
000200 7f 02 9f be 42 e0 0a bf 73 c9 00 bf 23 b9 ab be
       -0.31056592 -0.5424844 -0.5030739 -0.33539686
000210 a8 08 e0 be 7e 80 01 bf 6f 03 d4 bd 11 02 66 bf
       -0.43756604 -0.5058669 -0.103522174 -0.89846903
000220 f3 68 35 bf 6e 62 15 bf 79 ed a0 3d 83 d5 04 bf
       -0.70863265 -0.58353317 0.07857794 -0.51888293
000230 d8 d0 0d bf b6 12 8a bf d1 53 b9 be 2e 4e 41 be
       -0.55396795 -1.078696 -0.3619676 -0.1887748
000240 95 f7 a7 be ed 3b 9f be 1f 7d 27 3e bb 42 37 be
       -0.32806078 -0.31100407 0.16356324 -0.1789655
000250 b1 fc d6 be 61 88 ba be a9 72 1d bf 37 85 58 bf
       -0.41989663 -0.36432174 -0.6150308 -0.8457827
000260 9a 70 2a be a3 48 56 be 91 9e 0e bf 7c 2d e2 bd
       -0.16644517 -0.20926146 -0.55710703 -0.11043832
000270 b0 d8 80 be 40 9d 79 be ba d9 ac be d2 fd c0 be
       -0.2516532 -0.24376392 -0.33759862 -0.3769365
000280 98 7b 1f bf 58 b2 0b bf e2 cb 5e be 26 72 06 bf
       -0.62297964 -0.54569006 -0.21757463 -0.52517927
000290 61 cc a3 be 93 8d f8 be 07 b5 1b bf 8b c3 8e be
       -0.31991866 -0.48545513 -0.608231 -0.27883562
0002a0 18 fd 09 bd 57 48 bc bc ea 5e e3 bd e8 23 8c be
       -0.033688635 -0.022983713 -0.11102088 -0.27371144
0002b0 20 f7 11 bf f6 f7 27 be 8f ee 07 bf b7 22 d2 bb
       -0.5701771 -0.16403183 -0.53098387 -0.0064128297
0002c0 57 b8 26 be e4 f5 27 bf 9c 65 82 be 91 c1 36 bf
       -0.16281258 -0.65609574 -0.25468147 -0.7138911
0002d0 99 c4 aa be e1 ca 23 bf 13 eb a4 3e fd 80 ea bf
       -0.33353117 -0.63981444 0.32210597 -1.8320614
0002e0 95 2e e8 bd 39 d9 36 bf 33 7d 4f be 46 f2 6b be
       -0.1133701 -0.71425205 -0.20262603 -0.23041639
0002f0 c3 df 81 be ce d1 20 bf 8a e6 a2 be 99 38 95 bf
       -0.2536603 -0.62820137 -0.31816512 -1.1657897
000300 17 15 85 be 8a 91 2f be b6 8d bb be 89 3c c3 3d
       -0.25992653 -0.17145362 -0.36631554 0.095330305
000310 c1 09 1a be cd e0 1b bd 4b 6c 76 be b7 2b 81 be
       -0.15042783 -0.038056184 -0.24064748 -0.25228664
000320 9e 68 3c bf b6 2c 8a be a7 5f 87 be 40 a8 59 bf
       -0.73597133 -0.26987237 -0.26440164 -0.85022354
000330 7d 4c 95 be cc 93 ac 3e d4 4c 86 3d 1f 1e 3f be
       -0.29159918 0.3370651 0.065576226 -0.18663834
000340 5b 3d eb 3c 58 3c 2b bf 5f d9 a7 bd 8a 2e e6 be
       0.02871578 -0.6688895 -0.08195757 -0.4495738
000350 98 3d 79 3c db 67 6b be b3 56 bc be 8b 29 45 be
       0.015212439 -0.22988836 -0.36784896 -0.19254129
000360 87 f7 1d be 3d 91 ca be df 7c 97 be 1d 78 93 3d
       -0.15426455 -0.39563933 -0.29587457 0.07200644
000370 6e 6b 42 bf ad 4f 3f bf f3 8b d4 be e3 52 0c bf
       -0.75945175 -0.7473095 -0.41513023 -0.54813975
000380 1d 96 4a bd 83 57 d2 bd 6a 25 26 bf db b7 b6 be
       -0.049459565 -0.10270598 -0.6490084 -0.35687146
000390 86 02 8a bd 92 62 b5 bf 96 0a 16 bf e0 d5 26 bf
       -0.067387626 -1.4170706 -0.586099 -0.651701
0003a0 14 c0 a2 be 92 a6 b5 bd d8 b2 fe be 22 39 bd be
       -0.3178717 -0.088696614 -0.49745822 -0.3695765
0003b0 82 32 3b be 42 84 bf be b3 81 1b bf 72 2a 03 be
       -0.18280986 -0.37405592 -0.6074478 -0.1280916
0003c0 39 9f b2 be 2a 4b 6e bf 42 33 c0 be 58 e8 1f be
       -0.34887102 -0.9308344 -0.37539107 -0.15615976
0003d0 dd 46 0c be aa 33 c1 be da c1 50 bf 97 2b 49 bc
       -0.13698907 -0.3773473 -0.81545794 -0.012278459
0003e0 20 a0 97 bf 48 9c 00 bf ed ad 4d bf a8 d5 44 be
       -1.1845741 -0.50238466 -0.80343515 -0.19222128
0003f0 23 34 8a be 8c a2 09 bf 4a f7 00 bf e2 ed 1c bf
       -0.26992902 -0.5376365 -0.50377333 -0.6130048

fc2.weight f4 [256, 256]
000000 de 22 9d be fe 9b f8 bc f8 7b a0 bd bf 09 ef bd
       -0.30690664 -0.03034782 -0.07836145 -0.11671781
000010 ff 52 8c bd 51 ff bc 3d 56 c3 c8 bd 10 35 8a 3d
       -0.06851768 0.09228385 -0.098028824 0.06748402
000020 2c c3 da bc 5f 54 fa bb d8 31 2f bd a4 b1 85 3d
       -0.026704393 -0.0076394523 -0.042772144 0.06528023
000030 87 25 7e bc b9 08 ce bb 5a 66 d1 bd f5 1c eb 3d
       -0.015511877 -0.006287661 -0.102246 0.114801325
000040 43 e9 d4 3d c0 07 01 be fe fb 01 be 64 97 ff bb
       0.10396054 -0.12600613 -0.12693784 -0.0078000296
000050 2d aa b3 bd a5 e1 f7 ba fc 98 3e bc 1a 4a 92 3c
       -0.08772693 -0.0018911852 -0.011633154 0.0178576
000060 30 6e 80 bd b2 bd 15 bd 9c 59 03 be 8e 6c 91 3c
       -0.062710166 -0.03655786 -0.12827152 0.017751958
000070 4f 16 39 3e c6 12 12 bd 15 43 61 bc 5f 23 44 3d
       0.18074916 -0.035662435 -0.013748904 0.047885295
000080 16 c3 4a be 9d fe 0c bd 9b 58 16 be e1 bf 85 be
       -0.19800982 -0.034422506 -0.14682238 -0.26122954
000090 8a a8 ba bd f3 85 b0 bc ec 20 46 bd 9c 80 f0 bd
       -0.091141775 -0.021548247 -0.04837124 -0.1174328
0000a0 ca 70 c2 3d bc 1b 35 bc 8a 27 79 bd e0 c4 47 3d
       0.09494169 -0.011053976 -0.060828723 0.04877174
0000b0 73 d2 42 bd 0f 5b 99 be e5 85 99 bc c9 70 4b 3e
       -0.04756398 -0.29952285 -0.018740604 0.19867243
0000c0 bf 41 36 3e 66 26 5e 3d f4 f6 5d 3e 61 62 7b bd
       0.17798518 0.05423584 0.21676236 -0.06137312
0000d0 b3 9a 4a bc ae 91 4e be 55 18 0f 3e 05 4d 87 be
       -0.012365985 -0.2017276 0.13974126 -0.2642595
0000e0 4e b2 dd 3c 37 22 9a 3d 4a e7 a1 3d 8c 5e 1b be
       0.027062561 0.07526057 0.07905443 -0.15172786
0000f0 22 02 93 bd 9d e4 c9 3c 2b c0 a0 bd 13 ec ae 3b
       -0.07178141 0.024645144 -0.07849153 0.005338201
000100 c6 c7 49 3e f4 04 f7 bc 77 15 d7 3b 81 3e 8b bd
       0.19705114 -0.030153729 0.006563838 -0.06799031
000110 c8 79 18 3e 5f 75 6e be d3 19 55 be 6f 00 8b 3c
       0.14890206 -0.23286961 -0.20810632 0.01696798
000120 0f a3 82 3d ac 99 f3 3d ad 55 1f bd 30 cf 49 bd
       0.06378757 0.11894545 -0.038900066 -0.049269855
000130 09 8f 46 bc c7 ed 09 3e 7d 6d d2 bd fe d1 a1 bd
       -0.012119063 0.13469611 -0.102747895 -0.07901381
000140 40 16 b2 bb 47 34 d5 3b 8c 77 95 bd c7 ec b4 3a
       -0.0054347813 0.006506476 -0.072981924 0.0013803475
000150 44 58 19 ba 9c 60 9e bd 42 79 d2 3c ce 97 af bd
       -0.00058496394 -0.077332705 0.025692586 -0.08573876
000160 51 39 a1 3d 12 25 1b be 21 3f 24 be b8 8b 02 3e
       0.0787226 -0.1515086 -0.16039707 0.12748611
000170 b5 03 1d bd de 37 d1 bc f3 96 47 be 07 3c 58 be
       -0.038333613 -0.025539335 -0.19491176 -0.21116649
000180 ed 01 87 3d 60 2d 03 be 3f ea 76 be 0a 18 0d 3c
       0.06592164 -0.12810278 -0.24112795 0.008611688
000190 53 3c f8 bc 71 dc 74 bd 9b 3d 35 3b 0e ef 30 3d
       -0.030302202 -0.05978054 0.0027655128 0.04319673
0001a0 b9 04 85 3d c8 dc 8d bb 83 b4 59 bb d0 34 b9 be
       0.064950414 -0.0043292977 -0.0033219166 -0.36173105
0001b0 bc d2 c1 3b 5e 26 c8 3d 56 c8 8c 3c cb a2 d7 3d
       0.005915014 0.09772943 0.017185371 0.10529097
0001c0 c5 3e 66 3d ea 75 e1 bd b0 e5 21 3d 78 81 3a bd
       0.056212205 -0.110088184 0.039525688 -0.045533627
0001d0 3f 33 53 be b1 ac 13 3e bc ed 93 bd 93 29 8b bc
       -0.20625018 0.14421345 -0.072230786 -0.016987598
0001e0 14 a4 f3 bc 66 40 99 3d aa 27 89 bd ec 13 e0 bd
       -0.029741324 0.07482986 -0.066970184 -0.109413
0001f0 49 e9 41 be be fc f2 bc bc 19 32 bc 1e b2 4a be
       -0.18936647 -0.029661532 -0.010870393 -0.19794509
000200 1e 10 0c be c4 58 5d be 79 c3 06 bd 97 93 04 3e
       -0.13678023 -0.21615893 -0.03290126 0.12946926
000210 d9 d7 e6 bd 47 dc 67 bd 21 4d 99 bd 7d 6f 72 be
       -0.112716384 -0.056606557 -0.07485414 -0.23675342
000220 19 d5 0e 3d 7d 2e 37 bc 7f a5 e4 3d fc c7 1a be
       0.034871195 -0.011180517 0.111643784 -0.1511535
000230 55 5a 9d bd 70 d7 96 bc f3 ed 4c bd 2e 32 9c 3e
       -0.07683245 -0.018413275 -0.050031614 0.30507034
000240 6f ef 96 bd 59 6a 7e 3b 3b e4 d9 3d e5 95 01 3d
       -0.07369887 0.0038820712 0.10639235 0.03163709
000250 b0 12 13 be 39 f5 9f bd f4 ac db bd c8 b4 14 be
       -0.14362597 -0.078104444 -0.107263476 -0.14522088
000260 8e d7 e9 3b 2e 08 73 be 6b d3 dc 3c 41 2c 79 be
       0.007136292 -0.23733589 0.02695628 -0.24333288
000270 1e 74 27 3d 28 18 58 be 41 f6 1e be 29 99 8c 3e
       0.040882222 -0.21102965 -0.15523626 0.27460602
000280 80 dc a4 3d 51 30 6a bd 87 92 ad bc b2 46 17 3e
       0.080498695 -0.057174984 -0.021188034 0.14773062
000290 34 70 57 be db c8 35 3e 4b a4 85 bd aa 8a 39 be
       -0.21038896 0.17752402 -0.06525477 -0.18119302
0002a0 b4 52 01 3e e5 2e 43 be e1 b8 80 3d 65 90 31 3e
       0.12629205 -0.19060858 0.06285263 0.17340238
0002b0 73 ea ad bd 6f 14 01 bd 43 fc 3e bd d4 c2 9a bc
       -0.08491983 -0.031513628 -0.046627294 -0.01889173
0002c0 85 3b 28 3e ce 60 d6 bd 1a e6 15 be 65 2d 38 be
       0.16428955 -0.10467683 -0.14638558 -0.17986067
0002d0 6b c6 9f bd 9d 5f 6f 3d d2 d7 55 bd 38 99 27 3e
       -0.07801517 0.058440793 -0.052207775 0.16367042
0002e0 e2 2a fd bd f5 11 1f bd 0b 78 14 be 6c 9a 3d 3d
       -0.12361695 -0.038835485 -0.14498918 0.046289846
0002f0 e2 87 69 3d 83 0b 02 bc f6 7d 52 be 21 89 ab 3b
       0.057014354 -0.007937315 -0.20555863 0.005234853
000300 96 4b 9f bd 21 fc c1 bd 3c 9a 81 3d 8e 0b 52 be
       -0.07778089 -0.09471918 0.06328246 -0.2051222
000310 11 ca 5f bd 5f d9 74 3d fc b0 df bc 63 b4 f8 3d
       -0.054636065 0.059777614 -0.027306072 0.12143781
000320 34 ed 8c 3e 0e d6 17 bc 30 40 19 be 44 7c fd 3d
       0.27524722 -0.009267343 -0.14965892 0.123772174
000330 4d 04 55 3c 6f be 10 be 9c 78 16 bc 21 d1 05 be
       0.013001514 -0.14135145 -0.009184029 -0.13068058
000340 14 22 ed bc df 4d bf 3c 5d 24 38 bd 5f dc 38 be
       -0.028946914 0.023352562 -0.044956554 -0.18052815
000350 92 4e d8 3d b5 98 4a be d4 27 06 bd 38 64 ca 3d
       0.10561861 -0.19784816 -0.032752827 0.098823965
000360 51 48 a1 bd 81 d8 cb 3c b0 a9 29 bd 02 85 03 be
       -0.078751214 0.02488351 -0.041421592 -0.12843707
000370 3b 88 48 3e 28 dd 4b 3e db b2 27 bd 01 c3 67 bc
       0.19583218 0.19908583 -0.040942054 -0.014145614
000380 47 9d 05 bd b6 f5 85 3d 1c 40 8e bd 55 e9 8b bd
       -0.032620694 0.06541006 -0.06945822 -0.06831614
000390 3e 04 de bd 51 5f 49 be b6 14 42 3d c3 c4 46 3d
       -0.10840653 -0.19665267 0.047383033 0.04852749
0003a0 ab bb 3d be c5 05 62 3d 30 7a 2d be 3f 79 d3 be
       -0.18528621 0.055181284 -0.16941142 -0.4130344
0003b0 c2 7f 75 3b d5 01 0e 3e 2a 51 eb 3d 81 ca 17 be
       0.0037460183 0.13867886 0.1149009 -0.14823343
0003c0 75 9b 83 3d 02 6b 33 bc c1 9e 1c be ca 25 f8 bd
       0.064261355 -0.010950806 -0.15294935 -0.12116583
0003d0 c3 d0 9d bd b3 02 c8 be ae 5a 44 3e 5d 7c 24 3d
       -0.07705834 -0.3906456 0.19175217 0.040157665
0003e0 03 1a fd bd 7c 44 99 be 87 c8 20 3e 14 63 33 3e
       -0.12358477 -0.29935062 0.15701495 0.17518264
0003f0 d4 fa 35 3c 8f d5 0f bd 1e 29 2f 3b fa 38 ed bd
       0.011107165 -0.035115775 0.0026727389 -0.11583133

fc2.bias f4 [256]
000000 53 1f 4a be 92 f3 55 be 15 ba 18 be f8 e8 50 be
       -0.19738512 -0.20893696 -0.14914735 -0.2040137
000010 93 da 1e be 5e 93 f5 bd b1 11 28 be 52 66 19 be
       -0.15513067 -0.11990999 -0.16412999 -0.14980438
000020 86 cd 07 3e c9 79 f4 bd be fa 23 be 55 2d 14 be
       0.13261995 -0.11937291 -0.1601362 -0.14470418
000030 7b 3b 10 be 82 45 00 be 1a 80 33 be cc b0 cd bd
       -0.1408519 -0.12526515 -0.17529336 -0.10043487
000040 b2 c0 1b be 34 a8 f6 bd c4 2b ee bd 48 5d e9 bd
       -0.15210226 -0.12043801 -0.116294414 -0.11394745
000050 1e 24 44 be 43 bf 31 be 76 bb fc bd 76 19 cc bd
       -0.19154403 -0.17358117 -0.12340443 -0.09965794
000060 a2 21 89 be 63 56 54 be 27 a9 7f be 1a 12 3a be
       -0.26783472 -0.20736079 -0.2496687 -0.18170968
000070 76 81 61 be 71 c9 31 be af 0b 47 be 17 08 46 be
       -0.22022042 -0.17362 -0.1943805 -0.19339024
000080 a9 4b a9 bd cb 1e be bd c7 e5 0c be d3 b1 1a be
       -0.08266384 -0.09283217 -0.13759528 -0.15106897
000090 8f 1d 1f be b2 36 4e be 76 fe 2b be be f2 90 bc
       -0.1553862 -0.20138052 -0.16796288 -0.017693873
0000a0 6e 3f 4c be b0 6c a8 bd 9e 0e 9a be df 3e 2e be
       -0.19946072 -0.082238555 -0.30089277 -0.17016171
0000b0 fd ca 46 be 8a 86 07 be 55 b7 53 be 8b b1 6c be
       -0.19413371 -0.13234916 -0.20675404 -0.23114602
0000c0 01 f3 22 be c5 5d 47 be 1a 62 52 be 5e 42 1c be
       -0.15913011 -0.19469364 -0.20545235 -0.15259692
0000d0 03 d4 3a be 79 1e 36 be 27 14 0c be 5b 57 8a be
       -0.18244939 -0.17785062 -0.13679563 -0.27019772
0000e0 65 54 f5 bd a2 3a d6 bd 76 0c 3b be 01 a3 68 be
       -0.119789876 -0.10460402 -0.18266472 -0.22718431
0000f0 8c b6 2e be e6 7a 95 3d 30 79 06 be 13 02 fd bd
       -0.17061824 0.07298832 -0.13132167 -0.12353911
000100 1c e2 85 be 1a 1a a5 be 83 53 d3 bd 8c 5b ac bd
       -0.2614907 -0.32246476 -0.10318663 -0.08415899
000110 db e9 ff bd bf 52 75 be 46 2e 3f be d7 e3 cb bd
       -0.12495776 -0.23957346 -0.18669996 -0.099555664
000120 09 e3 12 be 1b cd a6 bd 5e 74 02 be 8a 57 0d be
       -0.1434442 -0.081445895 -0.12739703 -0.13802925
000130 d1 97 1e be fa 04 68 be 7d 37 0c be 1f 14 58 be
       -0.15487601 -0.22658148 -0.13693042 -0.21101426
000140 43 06 2b be 4f 67 03 be e2 23 52 be 43 7a 4c be
       -0.16701607 -0.12832378 -0.205215 -0.19968514
000150 9e ac 28 be 1a 89 1c be 62 a1 05 be bd df 8b be
       -0.16472098 -0.15286675 -0.13049844 -0.27319136
000160 8e f7 66 be 07 32 18 be b9 9e 00 be 40 81 4f be
       -0.22555372 -0.14862834 -0.12560548 -0.20264149
000170 4b fd 46 be bb 4b 81 be 13 30 9b be 7f ba 05 be
       -0.19432561 -0.2525309 -0.30310115 -0.13059424
000180 b1 63 5e be b5 79 1c be 01 72 26 be df 06 8b be
       -0.21717717 -0.15280803 -0.16254427 -0.2715368
000190 42 31 23 be cf 4f 07 be e6 2a 79 be 52 e0 db bd
       -0.15936759 -0.13214038 -0.2433277 -0.10736145
0001a0 b4 a7 89 be a6 0b 3c be 9e 26 1e be 08 da 9f be
       -0.2688576 -0.18363819 -0.15444419 -0.31221032
0001b0 cd 39 03 be ff 1b a0 bd 4c cd 6e be f3 07 3b be
       -0.12815018 -0.0781784 -0.23320502 -0.18264751
0001c0 fe 20 36 be 83 28 6b bc b2 94 96 bd e7 e8 54 be
       -0.17786023 -0.01435292 -0.0735258 -0.2079197
0001d0 6a 5b af bd 5c b1 50 be 0f 28 09 be 88 10 9f bd
       -0.08562358 -0.20380157 -0.13394187 -0.07766825
0001e0 48 25 2a be 93 7e 63 be 0c e5 23 be 83 9d 10 be
       -0.16615784 -0.22216253 -0.16005343 -0.14122586
0001f0 46 85 e9 bd 9d 46 92 be 75 99 5f be 24 ef 61 be
       -0.11402373 -0.285695 -0.21835883 -0.22063881
000200 87 5e 3d be 72 ce b2 bd 01 61 53 be b8 97 e3 bd
       -0.1849309 -0.087307826 -0.20642473 -0.111129224
000210 62 52 02 be 21 d0 6c be 35 37 43 be 92 ae 4b be
       -0.12726739 -0.2312627 -0.19064029 -0.19890812
000220 ba 8c 8b be 90 66 03 be 7e cb f8 bd b1 75 c2 bd
       -0.27255803 -0.12832093 -0.12148188 -0.09495104
000230 8c 70 43 be 18 b3 4a be 5f d2 14 be ab fe 74 be
       -0.19085902 -0.19794881 -0.14533375 -0.23925273
000240 4b fc 55 be 9b 60 ae bd 94 80 69 be ef a7 0d be
       -0.20897023 -0.0851452 -0.22802955 -0.13833593
000250 56 ad 07 be e8 1a 25 be 58 40 01 be d6 5b 26 be
       -0.13249716 -0.16123545 -0.12622201 -0.1624597
000260 a1 85 cb bd 2a a5 9a be 19 f5 31 be f0 b3 39 be
       -0.09937597 -0.30204135 -0.17378654 -0.18135047
000270 e7 69 ac bd ef 46 97 be 71 2a 44 be f1 bd 43 be
       -0.08418637 -0.29546306 -0.19156815 -0.19115426
000280 dc 23 8e be ac 43 01 be c9 f7 9e bd 3e 29 2b be
       -0.27761734 -0.12623471 -0.07762105 -0.16714951
000290 3c 63 23 be 17 eb fe bd ae a0 62 be 5e 66 4f be
       -0.15955824 -0.124471836 -0.22131607 -0.20253894
0002a0 c9 60 4a be 11 e5 95 be 2b f2 18 be 34 47 29 be
       -0.19763483 -0.29276326 -0.1493613 -0.16531068
0002b0 d5 47 16 bd 22 eb 97 bd 66 10 24 be 95 0f 19 be
       -0.036689598 -0.07417895 -0.1602188 -0.1494735
0002c0 ef c1 02 be a9 0c 93 bd 88 9b 2e be 67 1f 5f bd
       -0.12769292 -0.07180149 -0.17051518 -0.054473307
0002d0 98 fd f4 bd cd 1f 55 be 93 9f 82 be 0b 95 ad bd
       -0.11962432 -0.20812912 -0.2551237 -0.08475693
0002e0 d8 2b 41 be 87 fc cd bd f2 6e 45 be 55 5c 79 be
       -0.18864381 -0.100579314 -0.19280604 -0.24351628
0002f0 1c 5b 1a be 85 12 7c be 96 3d 4f be b5 e6 81 be
       -0.15073818 -0.2461644 -0.20238337 -0.25371328
000300 00 a5 19 be d2 f5 6a be 37 48 c3 bd 75 d1 ad bd
       -0.15004349 -0.22945336 -0.09535258 -0.084872164
000310 6f 2f 42 be f2 d9 ca bd ed 38 99 be 87 fd 3e be
       -0.18963407 -0.09904851 -0.29926243 -0.186514
000320 30 32 8b be eb e6 46 be cc f6 37 be bd 03 7d be
       -0.27186728 -0.19424026 -0.1796524 -0.24708457
000330 a8 0b b0 be a2 d1 35 be ec d8 67 be 2e ba f3 bd
       -0.34383893 -0.1775575 -0.22641343 -0.11900745
000340 ca ae 23 be 4c 6f 92 be a5 82 0b be dc 74 6c be
       -0.15984645 -0.28600538 -0.13624056 -0.23091453
000350 10 6c c2 bd 15 ee 99 be 11 e1 81 be aa 24 11 be
       -0.094932675 -0.30064455 -0.25367025 -0.14174142
000360 36 48 1d be d1 7a 2e be 93 7e ec bd 5c f8 80 be
       -0.15359578 -0.17039038 -0.115475796 -0.25189483
000370 05 ae e2 bd 03 a6 92 be b8 e3 0b be d4 44 7d be
       -0.11068348 -0.28642282 -0.13661087 -0.24733287
000380 cb b7 b1 bd f2 a5 32 be 8f c1 7b be 60 0f 08 be
       -0.08677634 -0.17446116 -0.24585555 -0.13287115
000390 19 f1 ee bc 29 ac 2f be c8 ad 26 be 0b b2 3b be
       -0.029167699 -0.17155518 -0.1627723 -0.18329637
0003a0 c5 a2 d8 bd 53 73 16 be 82 09 2a be 3f 9c 10 be
       -0.10577921 -0.1469243 -0.1660519 -0.14122103
0003b0 f0 04 ba be 73 53 86 be ed 01 5e be 7b 3a 5f be
       -0.36331892 -0.26235542 -0.21680422 -0.21799652
0003c0 d9 bf 41 be ad 1a 1c be 9b 9f fc bd c4 59 07 be
       -0.1892084 -0.15244551 -0.1233513 -0.13217837
0003d0 06 4d 07 be c8 16 2a be 6d a8 55 be 27 7d 80 be
       -0.13212976 -0.16610253 -0.2086503 -0.25095484
0003e0 6e 7c e0 bd 57 ad 01 be 9f 04 5b be 7d cf a1 3c
       -0.10961233 -0.1266378 -0.21388482 0.019752258
0003f0 62 49 d8 bd 12 2a 58 bd cd e1 42 be 0c 39 ef bd
       -0.10560872 -0.052774496 -0.19031449 -0.11680803

fc3.weight f4 [1, 256]
000000 57 9d 9e 3c ab 5a a6 bc b4 be a5 3c d1 18 f5 bb
       0.019362135 -0.020306906 0.020232536 -0.007479765
000010 23 3e d8 bc 03 34 8f 3c 05 1d e1 3b 87 8d 44 3c
       -0.026396817 0.017480856 0.0068699145 0.011996633
000020 b5 27 ce 3c 73 97 a6 3c cd a9 1c bc 87 f9 1b 3a
       0.025165418 0.020335888 -0.009561968 0.0005949963
000030 73 0e 41 3b 06 d7 f7 bb 25 06 8e bc 29 ec 53 3b
       0.0029458075 -0.0075634746 -0.017336914 0.0032336807
000040 9b c8 8f bc 7c 0a a4 ba b5 2a 8b ba a1 ed de 3c
       -0.01755171 -0.0012515332 -0.0010617586 0.02721292
000050 74 eb 77 3c cc e5 06 bc 2d 6e 50 bd d1 82 c2 3b
       0.01513182 -0.008233499 -0.05088632 0.0059360047
000060 75 26 f2 ba 5a 7d da bc 8d 7a c0 bc cb 05 c7 bc
       -0.0018474596 -0.0266711 -0.023495937 -0.024294754
000070 ba 11 bc bc af 5d 29 bc 49 d4 37 3b db 84 8e 3c
       -0.022957671 -0.010337277 0.0028050116 0.017397335
000080 62 23 69 3c 49 dc be 3c b3 62 d2 bc 3b 88 e4 3b
       0.014229627 0.0232984 -0.02568183 0.0069742477
000090 48 45 d3 bb fe c4 05 3c dd 8c 8e 3c c0 d3 e1 3c
       -0.006447468 0.008164642 0.017401153 0.02756679
0000a0 4b 4b ac bc 90 ca a2 bc fb 92 d9 3c b2 34 ed bb
       -0.021031996 -0.01987198 0.026559344 -0.007238948
0000b0 51 63 47 3c ba 1f f1 3b 20 3c 56 bd 2a 37 cd 3b
       0.012169675 0.0073585184 -0.052303433 0.0062626796
0000c0 41 08 e3 3c 39 c0 1b 3b 6d 5c a0 bc de 67 f2 3c
       0.027713897 0.0023765697 -0.019575322 0.029590543
0000d0 32 30 2a bb 5d 54 a4 3b 8e aa 02 3c df cb 6a bd
       -0.0025968668 0.0050149397 0.007975234 -0.057323333
0000e0 e3 58 fc bc e7 1e a6 bc a5 45 b5 bc d7 e7 01 3b
       -0.030804103 -0.020278407 -0.022127936 0.0019822025
0000f0 f1 5a 04 3b a8 f3 2d bd 58 4c 6c 3b 0e fe b0 ba
       0.0020195807 -0.042468697 0.0036056247 -0.0013503449
000100 34 63 c9 3c b1 87 ea bb ff 88 f4 bc fc 80 b9 3c
       0.024583437 -0.007157289 -0.029850481 0.022644512
000110 e5 3e 5b 3c 9f 47 e9 bc 59 85 94 3b 9e 87 ab 3a
       0.013381694 -0.028476534 0.004532498 0.0013086682
000120 b3 c2 11 3c 44 83 15 bc 60 ee e7 3c e0 03 cd 3c
       0.008896518 -0.009125534 0.028311908 0.025026262
000130 bc 0f 96 bb e7 dd b0 bc 4e 1d bf bc 02 9e 82 bb
       -0.0045795124 -0.021590186 -0.023329403 -0.003986121
000140 52 1f dc bc 21 0f b5 bb 37 cc da bc 06 6c 5d 3c
       -0.026870403 -0.005525485 -0.026708705 0.013514524
000150 d0 ae b1 3c e4 86 e0 bc 73 25 f0 3b 93 0e aa 3c
       0.021689802 -0.02740807 0.007328683 0.020758903
000160 a9 5d 12 bc 68 05 37 3c 82 6a c1 3a 26 ae 98 bc
       -0.008933463 0.011170723 0.0014756473 -0.018637728
000170 0f 77 1b 3c 1d f7 b1 bb 1f 93 37 3c d7 e6 a6 bb
       0.009488835 -0.0054310695 0.01120451 -0.005093436
000180 17 0f 4a 3b 7f 1d 90 3c bd 78 40 bc 91 2d 31 bc
       0.0030831748 0.01759219 -0.011747536 -0.0108140865
000190 47 73 41 bd 22 41 7e 3c 1f 7f 4f 3c 34 27 94 3c
       -0.047229078 0.015518459 0.012664585 0.0180851
0001a0 5e e7 01 bc 59 a5 7b bc b1 dc bf bd 42 c6 fc bc
       -0.007928697 -0.015359246 -0.093682654 -0.030856255
0001b0 fb 1e 4e bc 31 00 98 3b 83 ee aa 3c c7 ca 8c 3c
       -0.0125806285 0.0046386947 0.020865684 0.017186536
0001c0 e8 d9 40 bb 6e bd 12 3d 22 e3 e5 bc 64 aa 2c 3d
       -0.0029426757 0.035825185 -0.028062407 0.042154685
0001d0 66 5c f3 3c 38 5d 51 bc f6 0f 23 3c 77 d2 70 bc
       0.029707145 -0.012778573 0.009952536 -0.014698616
0001e0 e8 45 50 bc d8 de 1a 3c 02 68 89 3c 1a be 67 bc
       -0.012711979 0.009452544 0.016773228 -0.014144445
0001f0 77 73 71 bc cb b6 fe bc 39 9e 06 3c c8 c1 46 bb
       -0.014737002 -0.031093022 0.008216434 -0.0030327905
000200 13 04 3b bc 29 d3 87 bc 3d 21 6e ba 8c 1b bd 3a
       -0.011414546 -0.016580181 -0.00090839324 0.0014427765
000210 09 5c d1 bd a0 ec b4 3d 13 96 4e 3d 00 87 7f bb
       -0.102226324 0.08834195 0.05043609 -0.0038990378
000220 15 a0 53 3c 2f a2 18 3d a3 1f a7 bb 39 a7 42 3c
       0.0129165845 0.037264045 -0.005100207 0.011880689
000230 c0 3d f6 3b 6e 63 06 bb 01 16 9a 3c 3e b9 84 3e
       0.0075146854 -0.0020506042 0.01880932 0.2592258
000240 8a 4f 0b 3b a7 b5 1b 3c 7c 38 64 bc 75 7b 5c bc
       0.0021257126 0.0095037585 -0.013929483 -0.013457169
000250 e6 26 b4 3c 32 3a d0 bc 62 8b 1c 3c 60 3c a8 3b
       0.021991204 -0.025418375 0.009554716 0.0051341504
000260 90 0a ff bb c7 45 a3 3b a5 e0 eb bc e7 fd 8d bb
       -0.0077832416 0.0049826833 -0.028793642 -0.004333246
000270 87 80 fe bb 39 d1 38 bc 15 0f 0a 3c d5 56 66 bb
       -0.0077667865 -0.011280351 0.008426447 -0.003514697
000280 5d bc 2e 3a a8 df a4 bc 80 b9 ce 3c f7 33 22 3b
       0.00066656416 -0.020126179 0.025234938 0.0024750212
000290 71 05 c4 3b 35 7b cc 3b 66 06 ab 3c 6c 1d b1 bc
       0.005982094 0.0062402734 0.020877074 -0.021620475
0002a0 6c ec 85 3c 87 8b 9f 3c 20 86 de bc 80 e2 12 bc
       0.016348086 0.019475712 -0.027163565 -0.008965135
0002b0 c7 78 77 3c e4 43 9d bb 33 97 6d bc 7b 1b 77 bc
       0.015104479 -0.004799353 -0.014501381 -0.015082235
0002c0 da 90 2b 3c 09 10 2c bc 56 ae 31 bc 53 cb 12 bc
       0.010471547 -0.01050187 -0.010844788 -0.008959609
0002d0 d4 72 99 3b 3e e0 73 3c 14 7f 82 3c 4a 90 e1 3c
       0.004682878 0.0148850065 0.015929736 0.027534623
0002e0 b9 c9 8e 3c c4 9a d2 bc f7 6c ce 3b 9a ce a3 3c
       0.017430173 -0.025708564 0.0062996107 0.019995976
0002f0 02 d5 1c bd 76 d6 83 bc 22 76 c2 3c 59 6d 0b bc
       -0.038289078 -0.016093474 0.02373797 -0.008509957
000300 71 d1 eb 3c 24 ac d9 3b cc b5 13 3c bb 75 6c 3d
       0.028786393 0.006642835 0.009015512 0.057729464
000310 1e 62 6c bc f5 f1 25 bc 83 fd e5 bc 80 41 03 3d
       -0.01442769 -0.010128488 -0.028074985 0.032044888
000320 44 5a a2 bd aa 60 9f 3b 95 7a 90 3b a6 3f 2c bc
       -0.07927373 0.004863818 0.004409144 -0.010513222
000330 7f 9f b9 3b 87 96 68 3b b8 21 96 3c ca cd 97 3d
       0.0056647654 0.0035490112 0.018326625 0.07412298
000340 2d a5 8a 3c ce 63 c5 3a aa 9f 44 3c 96 49 7d bc
       0.016924465 0.0015059651 0.0120009575 -0.015459439
000350 2f f6 87 3c 42 52 42 3c be ae d9 ba 46 16 87 3c
       0.016596882 0.011860432 -0.0016607863 0.016490113
000360 55 d9 5d 3c 40 ae e7 bb d5 68 a6 bb 0a df cd 3a
       0.0135405855 -0.0070703328 -0.005078415 0.001570673
000370 85 f7 70 3c d4 62 11 3b b0 b3 fc 3c 0e e4 a1 3c
       0.014707451 0.002218415 0.0308474 0.019762065
000380 15 40 9b 3c 1b 16 a3 bc f2 a3 8d 3b 13 4a b2 3b
       0.018951455 -0.019908002 0.0043225223 0.0054409592
000390 52 b0 12 3d 77 59 75 bc 41 42 d1 3c 05 99 53 3d
       0.035812683 -0.014974943 0.025544288 0.051659603
0003a0 d3 a8 8b 3c a3 2e 8b bc 2f 3a 5d bc 41 a9 33 3c
       0.017048275 -0.016990012 -0.013502642 0.010965646
0003b0 01 cb cd bc 21 b0 4c bc d9 19 a1 3c 6e 37 76 bd
       -0.025121214 -0.012493164 0.019665645 -0.060111456
0003c0 a6 fb 2d 3c 76 62 07 3d 75 88 6f bc 9a cb a7 bb
       0.01061908 0.033052884 -0.014619936 -0.0051207067
0003d0 6e 0f c3 b8 56 5d 6c 3c cb c8 2b bd f8 50 0b bc
       -9.3011986e-05 0.01442655 -0.041939538 -0.008503191
0003e0 2c f4 51 bd 65 8e e7 bb 16 2b 59 bc 2a 22 1d 3d
       -0.05125825 -0.0070665353 -0.013254901 0.03836266
0003f0 20 65 9d bc 3d cd 8f bd 1f 8e 2f 3b e3 20 36 3b
       -0.01921326 -0.07021568 0.0026787592 0.0027790598

bn1.weight f4 [256]
000000 00 26 56 3e d8 d8 6d 3e d8 d8 94 3e 25 4d d1 3d
       0.20912933 0.2322725 0.2907169 0.10219792
000010 56 b3 56 3e 01 d8 ec 3d d4 96 14 3e 1e 30 2d 3f
       0.20966849 0.11564637 0.14510661 0.67651546
000020 f8 f5 bc 3d cc 5d c2 3d ee 59 91 3d bd 9d dd 3d
       0.09226602 0.094905466 0.07097231 0.10821102
000030 66 2f 34 3e 30 8f b5 3d f6 e3 27 3d ee e6 32 3e
       0.17596206 0.088652015 0.040988885 0.17470905
000040 d9 71 44 be db 16 60 3e bd a6 80 3e eb 0d e3 3d
       -0.19184054 0.21883719 0.2512721 0.11086639
000050 09 17 b5 3e b7 92 55 3e 86 93 5d 3e 64 20 74 3e
       0.35369137 0.20856749 0.21638307 0.23840481
000060 85 25 3f 3e 85 66 e4 3e 71 9a d0 3e 11 cf b6 3e
       0.18666656 0.44609466 0.4074283 0.35704854
000070 ba 98 1e 3e a6 4f c0 3d c6 db 62 3d 3e 95 a1 be
       0.15487948 0.09390192 0.055385374 -0.31559175
000080 85 52 5a 3e 57 79 b4 3d 47 4a 28 3e 77 42 6e 3d
       0.21320541 0.08812206 0.16434585 0.058168855
000090 88 5a 86 3e 93 b3 1e 3e 71 e4 e8 3e de 3e 4b 3e
       0.26240945 0.1549819 0.45486787 0.198482
0000a0 f8 a6 54 3e 38 36 ec 3e 96 12 9d 3e 23 f6 c1 3e
       0.20766819 0.46135116 0.30678242 0.378831
0000b0 3e 9b f0 3d e0 fd 36 3e 2f 54 ce 3d ae c6 3a bc
       0.1174836 0.17870283 0.100746505 -0.011399908
0000c0 9a 6b 18 3e d8 e4 bf 3e 3a f0 99 3e 7d 8b 42 3e
       0.14884797 0.3747928 0.3006609 0.18998523
0000d0 b0 ab 9e 3e 6d 07 ee 3d f8 2f 3c 3f 29 be f2 3d
       0.30990362 0.1162251 0.73510695 0.118526764
0000e0 67 b2 fa 3e 24 69 94 3e 20 05 7a 3e f7 b6 b3 3d
       0.48964235 0.28986466 0.24416018 0.08775132
0000f0 27 45 8c 3e 80 35 a5 3d 3a 0b 95 3e 98 27 89 3e
       0.2739651 0.08066845 0.29110128 0.2678802
000100 a7 fb 7d be a4 5b e5 bc 5f 57 1b be 84 3a 61 3e
       -0.24803029 -0.0279978 -0.15170048 0.21994978
000110 68 a7 4d 3c 3f 68 2f 3e 45 48 42 3e 67 98 ae bd
       0.01255212 0.1712961 0.18972881 -0.08525162
000120 5e 3a f1 3d 2d 64 45 3e 60 6c ca 3d 7b a5 13 3d
       0.11778711 0.19276495 0.09883952 0.036046486
000130 d6 1d 3d 3e e9 4a 3f 3e 98 e1 37 be 93 13 15 3f
       0.18468413 0.1868092 -0.17957151 0.5823299
000140 4a d2 b3 3e 52 dd 03 3f f1 28 3f 3e 7e d4 8a 3e
       0.35121375 0.51509583 0.18667962 0.27115244
000150 d9 11 01 3f e3 a3 87 3e aa 1a 00 3e 22 9f aa 3e
       0.5041786 0.26492223 0.12510172 0.33324534
000160 51 ef 7b 3e 37 e4 be 3e da c1 89 3d c2 f4 63 3e
       0.2460301 0.3728349 0.067264274 0.22261336
000170 58 f4 31 3e 87 c4 93 3e e1 7a 93 3e 04 ce 09 3e
       0.17378366 0.28860876 0.28804687 0.13457495
000180 f4 62 70 bd 71 c3 64 3e ab 7f 0c 3e 5c a9 91 3d
       -0.05868812 0.2234018 0.13720576 0.07112381
000190 bf 7b 1a bd 2a a6 3b 3e 89 fb 1b 3e f0 4c 02 3e
       -0.03771567 0.18325105 0.15232672 0.12724662
0001a0 ae c9 63 3d 8f a9 72 3d bf 3d 7a 3e ad fc 68 3d
       0.05561226 0.059243735 0.24437617 0.056881595
0001b0 ee 65 4f 3e e4 6c 56 3e b5 d4 d7 3d 5f 88 2b 3e
       0.20253727 0.20939976 0.105386175 0.1675124
0001c0 4a c1 3d bd 5a 5f b2 3d 7d 1c 53 3e 7f 30 ef 3e
       -0.046326913 0.08709593 0.20616336 0.46716687
0001d0 1c a4 a4 3d 6c 3c 3c 3e 68 cc a8 3e 88 7e 35 3f
       0.08039114 0.18382424 0.3296845 0.70896196
0001e0 81 7c d8 3d 75 fc 36 3e 75 39 c8 3d b0 d4 cc 3d
       0.10570622 0.17869742 0.09776584 0.100015044
0001f0 c0 e4 f3 3d aa e9 f8 3e b7 d6 1b 3d 6c 4e b8 3c
       0.11908865 0.48615772 0.038046565 0.022498332
000200 d2 62 c8 3d 2b 6e 9c 3e a2 4c 9b 3d 16 0d 10 3d
       0.097844735 0.305528 0.07582976 0.03516873
000210 5a e3 a7 3d 9c a2 ce 3e 21 16 18 3e 20 68 0b 3e
       0.08197661 0.40358436 0.14852192 0.1361394
000220 09 69 98 3d 89 a6 7c 3d a6 a9 af 3e c5 03 52 3e
       0.07441909 0.061682258 0.3430912 0.2050925
000230 f0 e9 9b 3d 23 f2 cc 3e 3c b7 d5 3d 30 35 bf 3d
       0.076129794 0.40028486 0.1043534 0.093363166
000240 6d 49 83 3e bc 1f 61 3e f2 22 5f 3f 4d 4c 46 3e
       0.25641957 0.21984762 0.871627 0.19365044
000250 b4 30 af 3e 9d 0e 45 3e aa 5a 15 3e dc ec d8 3d
       0.34216845 0.19243856 0.14585367 0.10592052
000260 d5 0c 5d 3e ed 72 fd 3d 22 df 32 3d 55 e3 aa 3e
       0.21586926 0.12375436 0.043669827 0.33376566
000270 b3 b1 9c bd 56 85 36 3e d7 a6 80 3e e5 d2 8b 3d
       -0.07651081 0.17824301 0.2512729 0.06827334
000280 8e 21 1f 3e 21 8a 6f 3e d4 04 f3 3d a1 60 29 3e
       0.15540144 0.23392536 0.11866155 0.16540767
000290 e2 9a 0d 3f 45 f0 fb 3d b1 e6 05 3e 78 f3 9f 3f
       0.5531446 0.12301687 0.13076283 1.2496176
0002a0 b0 99 19 3f 6b 58 a6 bd be f1 a6 3e 14 00 fa 3d
       0.60000134 -0.08122333 0.3260631 0.12207046
0002b0 69 d4 f8 3d bf 6a 4c 3e fc e6 ba bd 89 85 37 3e
       0.12149889 0.19962595 -0.09126088 0.17922033
0002c0 42 c4 4d 3e 7e 7f bd 3e fd c3 6d 3e 8d cd 42 be
       0.20094398 0.3701133 0.23219295 -0.19023724
0002d0 f8 92 19 3e 9f 4d d0 3d c0 4b c4 3d ac 7e 9a 3e
       0.1499747 0.10171055 0.09584761 0.30174768
0002e0 9a c7 d6 3e 6e c9 a9 3e 81 2e 53 3e 97 4c 90 3e
       0.4194916 0.3316149 0.20623209 0.28183433
0002f0 79 97 55 3e ef 83 e1 3d 9f 76 77 3e 19 e6 b5 3e
       0.20858563 0.110114925 0.24166344 0.35527113
000300 f7 31 4a 3e a2 54 fc 3d 69 f2 91 3d 64 34 fb 3d
       0.19745623 0.1232083 0.07126314 0.12265852
000310 f9 06 6a be 05 75 80 3e 18 0b 51 3e c9 ee 2b be
       -0.22854222 0.2508928 0.20414388 -0.16790308
000320 49 73 2d 3e 11 4c 18 3e 4d 31 4a 3e 83 3d 9e 3d
       0.16938509 0.14872767 0.1974537 0.07726576
000330 a8 c5 f0 3e 51 44 b2 3e d5 30 d5 3d 69 36 26 3f
       0.470258 0.34817746 0.104097046 0.64926773
000340 b6 bd 89 3c 7e 47 3a 3e d3 66 e1 3e 41 26 6f 3d
       0.016814094 0.18191335 0.4402376 0.05838609
000350 d5 6f 50 3f 58 66 00 3e d3 a6 48 3e f1 50 f8 3d
       0.8142064 0.12539041 0.19594888 0.12124813
000360 b2 16 db 3d f8 0e c2 3d 22 e1 00 3e 0e 66 de 3d
       0.10697688 0.09475511 0.12585881 0.10859309
000370 aa b6 57 3e 10 f1 9b 3e 5b bc 87 3d 5d 71 be 3d
       0.21065775 0.30457354 0.06627723 0.09298966
000380 a9 10 40 3e 5a 9c fc 3e 18 68 16 3e a2 03 4e 3e
       0.18756355 0.49338037 0.14688146 0.20118573
000390 1d b4 d8 3e 61 a1 07 3f 39 62 59 3e 34 5f 46 3e
       0.42324916 0.5298062 0.21228875 0.19372255
0003a0 f3 03 f4 3e 47 be f1 3d df 09 09 3f 6b 65 82 3f
       0.47659263 0.11803871 0.5353069 1.01872
0003b0 bf ef 05 3e 8b e8 8a 3d dd a8 a6 3e c7 3e 90 3e
       0.13079737 0.06782635 0.32550707 0.28172895
0003c0 8c 9c e7 bd f5 72 02 3e 8c d0 08 3e e0 5f e6 3d
       -0.11309156 0.12739165 0.13360804 0.112487555
0003d0 7d ef d6 3d f9 46 dd 3d 24 c9 7b 3e e4 cd 58 3e
       0.104948975 0.108045526 0.24588448 0.21172291
0003e0 e1 ef a8 3e 09 9b a9 3e 2d 35 cb 3d 9e 33 0a 3e
       0.32995513 0.33126095 0.09922252 0.13496253
0003f0 76 8b 06 3e b7 66 d9 3d 6c 45 64 3e db e7 d0 3d
       0.13139138 0.106152944 0.22292107 0.10200473

bn1.bias f4 [256]
000000 9a 7a 09 3e 48 0d 49 3d a9 fe 98 3d cb e5 ea 3c
       0.13425675 0.04908493 0.074704476 0.028674027
000010 28 98 a7 3d ef 21 7c bb 52 35 e2 3c 22 10 55 3a
       0.081833184 -0.0038472374 0.027613316 0.0008127709
000020 5e 10 aa 3c 78 bf 1e 3b f3 b6 96 3b e7 e8 37 3d
       0.020759758 0.002422301 0.004599446 0.044899847
000030 ad 5b f6 3d b0 bb 2c 3c d8 4b 41 b9 76 28 97 3d
       0.120292045 0.010542795 -0.00018434168 0.07380764
000040 c3 9e 0b bd d1 f7 d9 3c b6 f0 8c 3d 3f 00 e8 3c
       -0.034086954 0.026607426 0.068818495 0.02832043
000050 80 32 8c 3e 83 25 1e 3e 7d 0c 8e 3d 59 e1 a1 3d
       0.27382278 0.15443997 0.06935976 0.0790431
000060 3a bd 90 3d da 59 8e 3d f6 69 77 3e 4d 50 59 3e
       0.07067342 0.069507316 0.24161515 0.21222039
000070 39 3d ca bc 36 d2 95 3c c3 72 d2 3b 46 b1 ad bd
       -0.024687396 0.018288713 0.006422372 -0.08481078
000080 c2 e4 8d 3d 9d 24 81 3c d0 b9 01 3e a7 96 26 3e
       0.06928398 0.015764529 0.12668538 0.16268407
000090 ad b7 8e 3d cf 1e ab 3d 57 fd f9 3d 5a 06 50 3d
       0.06968627 0.08355486 0.12206524 0.050787307
0000a0 13 77 45 3d 1f 4b 1a 3e a9 9f 14 3e 43 60 a2 3d
       0.04820926 0.15067719 0.1451403 0.07928517
0000b0 bd bf d1 3c 73 f3 02 3e d4 07 3a 3c d8 3f c1 b9
       0.025604123 0.12788181 0.011354405 -0.00036859396
0000c0 e7 37 29 be 9f 3d dc 3d 25 c9 f9 bd ce 9c 81 3d
       -0.16525231 0.10753941 -0.121965684 0.06328736
0000d0 e5 72 4c 3e 6d 6c 68 3d 02 eb 7c bd d3 ea bc 3d
       0.19965704 0.056744028 -0.06174756 0.09224477
0000e0 9d 79 a1 3e 7b a9 bd 3d 19 25 47 bd f5 57 63 3c
       0.31538096 0.092608415 -0.048619363 0.013875951
0000f0 45 1a 1c 3d c1 7a 88 3c 3a d5 e3 3d 5c 37 e2 3d
       0.03811099 0.016660096 0.11124654 0.11045715
000100 0e 1e 87 bd c2 0d bb 3b de 39 c5 bc 71 f6 88 3d
       -0.06597529 0.005708427 -0.024075445 0.0668763
000110 1f 5f 86 3c 03 ae 56 3d f7 50 84 3d f0 2d 95 bc
       0.01640278 0.052412044 0.06460755 -0.018210381
000120 ae 26 15 3c d5 65 31 3d 08 7a 8f 3d 00 9d f6 37
       0.00910346 0.043310005 0.070056975 2.9398594e-05
000130 c6 f7 36 3d 49 34 6e 3c 44 dd 0f bc 45 36 80 3d
       0.04466989 0.014538833 -0.008780781 0.06260351
000140 52 4c e6 3d ac c5 10 3e 8b 66 1d bd 9e a3 bd 3d
       0.11245026 0.14137906 -0.03842787 0.09259723
000150 c5 53 a8 3e e5 97 8e 3d 7b 08 04 3d c6 69 f3 3d
       0.3287641 0.06962565 0.03223465 0.11885409
000160 19 f9 9e ba fb 93 80 3e 45 bd 17 3c cc 76 83 3d
       -0.001212868 0.251129 0.009261434 0.06419143
000170 36 b2 1e 3d e0 91 06 3d 2c ba ba 3d 21 1f a3 3d
       0.038744174 0.03285396 0.09117541 0.07964922
000180 39 ba a4 bc 44 d0 00 3d ca 01 d4 3c 80 2f 5a 3b
       -0.02010833 0.031448618 0.02587976 0.0033292472
000190 ed 5d 8f 3c 3c 5c ac 3d ca 5f 3c 3d a7 79 6a 3c
       0.017500842 0.0841603 0.04598979 0.014311231
0001a0 1c 25 4c 3b 1d 55 20 3b 4a da d6 3d 59 6d 9c 3d
       0.0031150049 0.0024464794 0.10490854 0.07638044
0001b0 20 aa 22 3d e0 e7 3b 3d ea bf a4 3c c5 cf 82 3d
       0.039713025 0.04587543 0.020111043 0.06387285
0001c0 cf 9a 47 bc 05 e5 54 3d 29 d5 2f 3d 77 b2 74 3e
       -0.012182905 0.051976223 0.042927895 0.23896204
0001d0 e7 a3 85 3c 80 9a 96 3d 7f ad 2f 3d 25 c5 b3 3e
       0.016313506 0.07353687 0.04289007 0.35111347
0001e0 67 25 28 3d 16 9a 5f 3d ac af 97 3c 8c 2e 08 3c
       0.041051295 0.054590307 0.018516384 0.008311879
0001f0 b6 b5 34 3d 65 51 58 3e ab de 56 3a 36 7e 44 3b
       0.044118606 0.211248 0.0008196632 0.0029982454
000200 eb 31 0b 3d 8e d6 00 3d a6 1c f2 3a a5 7d d8 3b
       0.033983152 0.031454615 0.0018471673 0.006606775
000210 50 98 a8 3c 71 50 8d 3e 36 f6 72 3d d5 59 f8 3b
       0.02058044 0.27600434 0.059316836 0.007579068
000220 0c e6 ca 3b 03 28 0d 3c 80 85 db 3d 20 96 16 3d
       0.0061919745 0.008615497 0.107188225 0.036764264
000230 d8 d3 f0 3c d8 2a ee 3d 9f a7 86 3c 5f 05 49 be
       0.02939789 0.116292655 0.01643735 -0.19630955
000240 cf b1 21 3e 34 46 a4 3d f2 fe be 3e 18 dd 02 3d
       0.15790485 0.08021203 0.37303883 0.031949133
000250 64 8d 20 3e c8 d0 c5 3d 69 3b c3 3c 5a a9 0d 3d
       0.15678936 0.096589625 0.02383204 0.034585334
000260 0d d9 b2 3d 27 2f 14 3e 83 e1 4d 3b ba 83 ce 3b
       0.087328054 0.14471112 0.0031414933 0.006302324
000270 e6 23 8d bc 96 79 c5 3d d1 8c 0c 3e af 32 e5 bd
       -0.017229032 0.09642331 0.13725592 -0.11191308
000280 8b 93 55 3d 5e 76 e7 3b 84 42 10 3d e6 ab 47 3d
       0.05214266 0.007063671 0.035219684 0.04874792
000290 1e ca dd 3e ec 57 4d 3d 03 73 98 3c 1d 9b 6f 3e
       0.43318266 0.050132677 0.01860953 0.23399015
0002a0 ed f4 1d 3e 48 e3 b3 bc 53 e0 e2 3d 56 ed c6 3c
       0.15425463 -0.021958962 0.11077943 0.024283092
0002b0 c5 d5 27 3d b0 53 40 3d f8 91 75 bc ab 28 c0 3d
       0.04097535 0.04695481 -0.014988415 0.09382757
0002c0 1f 06 8a 3d ee 7c c9 3d 55 cf 7b 3d 09 07 13 3e
       0.06739449 0.098382816 0.061477024 0.14358152
0002d0 11 b8 f1 3c b4 21 ac b9 81 00 43 3d 33 03 fe bd
       0.029506715 -0.00032831507 0.047607902 -0.12402954
0002e0 89 4f 96 3d 1c cb af 3d 07 8c 54 3e 08 a6 cb 3d
       0.07339389 0.08583662 0.20756541 0.09943777
0002f0 aa eb 58 3d 94 ad 4b 3d 8f 36 61 3d 46 b4 44 3d
       0.05295912 0.049726084 0.05498367 0.048023485
000300 5e ab a0 3d 0b 5b 0b 3d ce 9b b3 3b 81 66 28 3d
       0.07845186 0.034022372 0.00548122 0.04111338
000310 47 75 cf bc de fe 8d 3d d8 31 71 3d de 74 24 bd
       -0.025324477 0.06933378 0.058885425 -0.040150516
000320 e7 9a 38 3d 17 ea 95 3d 52 58 e3 3c 6e 08 19 3c
       0.0450696 0.0732004 0.027752075 0.009340389
000330 8d f9 78 3e c5 38 40 3e cf ed 06 3d 91 84 bc 3e
       0.24313946 0.18771656 0.032941636 0.3681989
000340 19 c1 31 3b 53 1a 03 bd 9c fc 83 3d 9a 85 0d 3d
       0.0027123152 -0.032007527 0.06444666 0.03455124
000350 7a 67 a8 3c 56 a8 43 3d 96 fc 43 3d d7 79 04 3d
       0.020557154 0.04776796 0.047848307 0.032342758
000360 39 ad 0e 3d da 3b 8f 3c 9c 94 b0 3c ab 51 e6 3c
       0.034833167 0.017484594 0.021555237 0.028115114
000370 a0 fe 8b 3d 21 03 e1 3d be b9 32 3d 22 e9 f1 3c
       0.06835675 0.10986925 0.04363417 0.029530112
000380 fc 79 9f 3d 44 93 99 3d c9 d5 b0 3d 6c 2e d1 3d
       0.077869385 0.07498792 0.08634526 0.102139324
000390 34 38 b6 3e 9b 75 48 3e fc f7 33 3d b9 4a 81 3d
       0.35589755 0.19576113 0.04393767 0.0631308
0003a0 9c df e4 3d f3 c2 70 3c 80 da ce 3d db da 9e 3e
       0.111754626 0.014694917 0.10100269 0.31026348
0003b0 ca 03 45 3d b7 69 92 ba d0 35 0e 3e 88 0f 6a 3d
       0.048099317 -0.0011170421 0.13887715 0.057143718
0003c0 c1 0a fe bc e7 10 cd 3d 41 89 60 3d 16 04 40 3d
       -0.031010987 0.100129895 0.054818396 0.046878897
0003d0 89 42 a1 3b 48 52 d1 3d d0 45 1b bb 86 8d 65 bd
       0.0049212617 0.10220772 -0.0023692735 -0.05604317
0003e0 c1 46 75 3e 94 17 7c 3d 23 89 ee 3c fb 4d 87 bc
       0.23952772 0.061545923 0.029118126 -0.016516676
0003f0 05 4e 0a 3d 94 60 4b 3d 6c a1 e0 3d fa 47 03 3d
       0.03376581 0.04965265 0.10968289 0.032051064
