checkpoint_actor_agent_1.pth (torch_old, 296395 bytes, 10 tensors)

fc1.weight f4 [256, 24]
-0.0061400966 0.026489401 -0.031780742 -0.00017723584 0.014698147 -0.096019275 0.0046006315 -0.03360006
-0.04342739 -0.022758607 0.00017859026 -0.008272234 0.07546352 -0.03733865 0.008758268 0.014407756
-0.10152946 -0.07500472 -0.011545119 0.016242448 0.12162668 0.08868259 0.038214408 0.019362576
0.038178932 -0.044533644 0.007480038 -0.008951135 0.020610372 0.042864505 -0.079278104 0.07431711
-0.004496632 0.04463706 0.019754423 0.062443547 0.016949726 0.10567322 0.017043678 0.114564955
-0.05413599 0.07705838 0.010501837 0.12927407 0.015735256 0.048754618 0.037596654 0.11877084
0.024829214 0.023749452 -0.01067106 0.08568667 0.076020055 0.02608606 0.03258359 0.023362612
0.038013827 0.021170331 0.01968842 0.004766968 0.16736165 0.042793296 -0.016218644 -0.006160184
0.010249608 -0.012385157 -0.03756728 -0.03684455 0.2024232 -0.0116579905 0.014698159 -0.0011780321
0.020535577 0.124844864 -0.0075629856 -0.004498676 0.009714922 0.11709747 -0.006199933 0.0830563
0.04265899 0.07543 0.04227237 -0.027221981 -0.050795965 0.055478904 -0.022522796 0.045998573
0.12909706 0.17513256 0.014919896 0.04530221 0.03569329 0.1618528 -0.030779233 0.011597179
0.119592175 0.010541945 -0.031021073 0.017881757 0.06073714 -0.078690946 0.008135411 -0.004829323
0.14130108 0.023337081 0.01884331 0.047127534 -0.025604261 -0.15949816 -0.037076455 0.022368697
0.05135661 0.091421135 0.006238503 -0.011445752 -0.023993889 -0.05729486 -0.009273969 -0.031662576
0.054138824 -0.09017451 -0.032075975 -0.0014432415 -0.009167396 0.117331356 0.030505167 0.030923033
0.072592065 0.03434199 -0.0025633548 0.09179328 0.093511276 0.057968996 0.0017496523 0.03507487
0.09587954 0.082112275 0.04533377 0.10582485 0.10092643 0.021582909 -0.025718642 0.03633619
0.043041773 -0.0025443297 -0.034242757 -0.017191442 0.032070085 -0.060300335 0.026860336 -0.03538641
0.027811838 -0.0002206529 0.007204194 0.01194768 0.07865535 -0.18533118 -0.0017533889 -0.029277356
0.092192985 0.07703042 0.040553607 0.03347674 0.010406418 -0.19254261 -0.043254778 -0.017638069
-0.014548249 0.03964703 0.031202503 -0.00017961793 -0.036805607 0.051004846 0.044436797 -0.06673894
0.025321629 -0.016874617 0.04160973 -0.048058856 -0.046347138 0.039196655 -0.00573471 -0.041371394
-0.00059324707 -0.014078525 -0.006422049 -0.010460789 -0.046804443 -0.027538005 0.09857714 0.0462305
-0.06923221 -0.071574695 0.010394284 -0.016463203 0.022264898 -0.01394566 0.109003566 0.012121917
-0.029446201 -0.05070723 -0.0045803776 0.00962978 0.022536045 -0.035095405 0.061035253 0.0005320122
0.030646153 0.0022365546 0.028822206 0.073212914 0.015704915 0.020245155 0.018067662 0.07761384
0.054079086 0.0014933109 0.0132722 -0.0119090155 0.0762396 0.00051957625 -0.0370163 0.011536101
0.093770556 -0.07204647 0.010848734 0.05426722 0.021196391 -0.060184997 -0.031759176 -0.030881021
0.11856375 0.010415318 0.015580632 0.020948518 -0.070155375 -0.027992463 -0.02436511 -0.012694151
-0.021698564 0.059205145 0.01904736 -0.018806882 -0.02634049 0.02167836 0.012461021 0.007601219
-0.085954234 0.05945745 -0.031315327 -0.064705536 -0.0721224 -0.099802874 0.050344322 -0.08496819
00000000: dd32 c9bb 4d00 d93c 862c 02bd 62d8 39b9
00000010: 7fd0 703c c1a5 c4bd e5c0 963b 37a0 09bd
00000020: ebe0 31bd 4270 babc f543 3b39 4488 07bc
00000030: 9e8c 9a3d 6af0 18bd d77e 0f3c 820e 6c3c
00000040: adee cfbd 139c 99bd bd27 3dbc e20e 853c
00000050: 6917 f93d 389f b53d b686 1c3d 449e 9e3c
00000060: 8361 1c3d e968 36bd 1b1b f53b c8a7 12bc
00000070: 15d7 a83c b192 2f3d 8f5c a2bd 9233 983d
00000080: 7c58 93bb 5ad5 363d 07d4 a13c cec4 7f3d
00000090: 27da 8a3c 336b d83d 2f9f 8b3c 08a1 ea3d
000000a0: b3bd 5dbd c9d0 9d3d e60f 2c3c 6c60 043e
000000b0: 39e7 803c ecb2 473d f3fe 193d 203e f33d
000000c0: a366 cb3c 368e c23c abd5 2ebc 7e7c af3d
000000d0: 67b0 9b3d 6fb2 d53c 5f76 053d f362 bf3c
000000e0: 63b4 1b3d 676d ad3c 9c49 a13c 3a34 9c3b
000000f0: da60 2b3e 0648 2f3d f6dc 84bc 5edb c9bb
00000100: f9ed 273c 1deb 4abc 26e0 19bd 50ea 16bd
00000110: 0748 4f3e 2801 3fbc 8cd0 703c 3368 9aba
00000120: 3a3a a83c aaae ff3d ecd2 f7bb a169 93bb
00000130: 562b 1f3c ccd0 ef3d cf28 cbbb 6c19 aa3d
00000140: 31bb 2e3d 0b7b 9a3d cb25 2d3d a200 dfbc
00000150: 6e0f 50bd d93d 633d ba81 b8bc 0069 3c3d
00000160: 0532 043e f355 333e 9472 743c cf8e 393d
00000170: 2133 123d bebc 253e bb24 fcbc 1802 3e3c
00000180: beec f43d 1fb8 2c3c e81f febc c37c 923c
00000190: 82c7 783d b828 a1bd 634a 053c 4c3f 9ebb
000001a0: 3bb1 103e 682d bf3c 495d 9a3c cd08 413d
000001b0: 07c0 d1bc 7c53 23be 7bdd 17bd 8f3e b73c
000001c0: 4f5b 523d 013b bb3d 5b6c cc3b f786 3bbc
000001d0: d58e c4bc 04ae 6abd d8f1 17bc 9eb0 01bd
000001e0: acc0 5d3d 6aad b8bd 1962 03bd 262b bdba
000001f0: d932 16bc 6c4b f03d f9e5 f93c 4d52 fd3c
00000200: 26ab 943d 30aa 0c3d f5fd 27bb 1dfe bb3d
00000210: d782 bf3d e670 6d3d 9754 e53a abaa 0f3d
00000220: 7e5c c43d 7b2a a83d e7af 393d b3ba d83d
00000230: 84b2 ce3d a4ce b03c e7af d2bc 42d5 143d
00000240: 924c 303d c5be 26bb 2242 0cbd 11d5 8cbc
00000250: ec5b 033d 7cfd 76bd 350a dc3c 57f1 10bd
00000260: a7d5 e33c 105f 67b9 2911 ec3b 34c0 433c
00000270: 0e16 a13d 75c7 3dbe f8d1 e5ba 11d7 efbc
00000280: adcf bc3d 20c2 9d3d 8a1b 263d e81e 093d
00000290: ae7f 2a3c e429 45be ec2b 31bd b67d 90bc
000002a0: c75b 6ebc ed64 223d 649c ff3c d257 3cb9
000002b0: 7ac1 16bd 75ea 503d 5c03 363d 6dae 88bd
000002c0: 4e6f cf3c a33c 8abc f76e 2a3d 5dd9 44bd
000002d0: 7fd6 3dbd ac8c 203d 3cea bbbb 0d75 29bd
000002e0: 2384 1bba 9da9 66bc 0d70 d2bb bb63 2bbc
000002f0: 04b6 3fbd 6297 e1bc d0e2 c93d 315c 3d3d
00000300: 9ec9 8dbd c195 92bd c94c 2a3c d7dd 86bc
00000310: e064 b63c 567c 64bc 433d df3d 019b 463c
00000320: 2939 f1bc 62b2 4fbd fe16 96bb 3ac6 1d3c
00000330: 839d b83c 33c0 0fbd 1a00 7a3d bc76 0b3a
00000340: a40d fb3c 2993 123b 8c1c ec3c a7f0 953d
00000350: 98a7 803c 2bd9 a53c a202 943c 01f4 9e3d
00000360: 0882 5d3d 33bb c33a a473 593c 081e 43bc
00000370: 8223 9c3d 2c34 083a 679e 17bd ea01 3d3c
00000380: c70a c03d 1a8d 93bd e3be 313c 4e47 5e3d
00000390: 0ea4 ad3c 8b84 76bd e915 02bd 32fa fcbc
000003a0: 8dd1 f23d 03a5 2a3c e845 7f3c 3a9c ab3c
000003b0: 9fad 8fbd 7350 e5bc 5799 c7bc 21fb 4fbc
000003c0: 30c1 b1bc 1881 723d 3609 9c3c e410 9abc
000003d0: 03c8 d7bc d196 b13c 4f29 4c3c a613 f93b
000003e0: c608 b0bd a889 733d 8044 00bd 5684 84bd
000003f0: e9b4 93bd 7365 ccbd d935 4e3d cd03 aebd

fc1.bias f4 [256]
-0.032361574 0.15396838 0.04655842 0.04144909 -0.12274724 -0.29877615 -0.24332751 -0.011559297
-0.16329369 -0.17571893 0.10037198 -0.13995022 0.028471643 -0.28842217 0.05923071 0.118566155
0.00566305 -0.08144618 -0.16340905 -0.23276897 0.07535348 -0.23886377 -0.024837913 -0.23221187
-0.06990431 -0.2732046 0.06410397 -0.0143299755 -0.23926722 -0.13987507 -0.16931276 -0.18462706
-0.21549821 -0.04149252 -0.20081088 0.0036199966 -0.17835791 0.10683928 -0.25318983 0.09846078
-0.16377912 -0.27708104 -0.09271211 -0.110886335 -0.07836396 -0.21769129 -0.050714288 -0.20157626
0.1658225 0.014457081 -0.05276311 0.12458049 -0.09180334 -0.23396997 0.059222095 -0.11486543
0.12680748 -0.059946343 -0.2055406 0.24810217 0.030371742 0.0071343193 -0.06542877 -0.23457082
0.028964307 -0.17987098 -0.13812266 0.13930336 -0.23349997 -0.067743935 -0.022055523 -0.26183116
-0.28026798 -0.14397925 -0.12160957 0.096469365 0.1265198 0.045533903 0.14582124 -0.042685825
-0.15877894 -0.18739207 -0.23441374 -0.3031906 0.01276047 -0.18550745 -0.13247713 0.029439254
-0.11455252 -0.05844813 -0.025607733 0.020533424 -0.12015787 0.15024035 -0.1844186 -0.20241453
0.15036134 -0.18354574 0.20236886 0.043806672 0.053877056 -0.11757244 -0.16249774 -0.018465172
-0.1620007 0.17651019 -0.008337289 -0.08967444 0.11272606 -0.12446768 -0.13127036 -0.2288361
-0.13870785 -0.2543323 -0.060605217 0.16957887 0.14467995 -0.206938 -0.18235785 0.05958645
-0.13361214 -0.042198736 0.06023459 0.22380188 0.10101792 -0.024852077 0.0061085857 0.046048753
0.08575982 -0.30775392 -0.23824202 0.11085478 -0.23306173 0.14122292 0.024955874 0.07864385
-0.011490295 -0.058740683 0.11231148 0.1236683 -0.07594305 -0.19638059 0.009355761 0.0024526387
0.027860733 -0.09264482 -0.11756452 -0.1670501 -0.025687793 0.20755413 -0.05297243 0.07127948
0.014651644 -0.12706026 0.12451875 -0.11665619 0.08354821 -0.1368692 -0.050297715 0.16618021
-0.07270099 0.035795134 0.00547951 -0.037789833 0.0060119173 0.12746269 0.008416156 0.046132885
0.0238854 0.07014811 -0.10683622 -0.263875 -0.23448464 -0.21150972 -0.1693377 -0.17196189
0.028213145 0.14752148 -0.21021056 -0.0036484732 -0.1463934 0.09952481 0.07540588 0.10826186
0.23169468 -0.23822019 -0.22949466 -0.06285418 -0.09642978 0.19834149 0.16680698 -0.007892118
-0.1261408 -0.17517595 0.18958938 -0.25686622 -0.16847394 0.09034266 0.019926263 -0.049582742
-0.106743455 -0.10746123 -0.08018466 -0.14126755 0.14839913 0.05058812 -0.19359882 -0.04674008
-0.018035924 -0.16232246 -0.029895134 -0.2032774 0.0681497 -0.12357374 -0.15204266 -0.23697963
-0.0391754 0.066180244 -0.12548813 -0.1519714 -0.16093643 0.0024431848 0.19814181 -0.12552328
-0.02450437 -0.26498365 -0.07345552 -0.108678475 -0.0883122 -0.12608562 0.119383425 0.09431394
-0.08800479 -0.010799786 -0.04111032 0.037596617 -0.17383167 0.012054271 -0.025483334 -0.04258924
-0.24274358 -0.26363903 0.058434874 -0.07807792 -0.10469197 0.19070141 -0.09790445 -0.15755881
-0.13437344 -0.12905085 -0.09849368 -0.21051773 0.03489166 0.13987422 -0.2773701 0.12446251
00000000: 928d 04bd e3a9 1d3e 0bb4 3e3d 85c6 293d
00000010: e862 fbbd 30f9 98be d92a 79be 3563 3dbc
00000020: 7636 27be aaef 33be d38f cd3d 1c4f 0fbe
00000030: 5d3d e93c 12ac 93be e79b 723d d0d2 f23d
00000040: 1b91 b93b 41cd a6bd b454 27be fd5a 6ebe
00000050: ed52 9a3d b498 74be e178 cbbc f3c8 6dbe
00000060: fe29 8fbd 79e1 8bbe f148 833d 46c8 6abc
00000070: 7702 75be 693b 0fbe 5360 2dbe e00e 3dbe
00000080: 90ab 5cbe 10f4 29bd 5ea1 4dbe 773d 6d3b
00000090: 75a3 36be 8dce da3d 19a2 81be cea5 c93d
000000a0: b7b5 27be 91dd 8dbe d9df bdbd 6018 e3bd
000000b0: 497d a0bd 77ea 5ebe c9b9 4fbd 026a 4ebe
000000c0: 60cd 293e 65dd 6c3c 211e 58bd 0e24 ff3d
000000d0: 6403 bcbd d395 6fbe de92 723d 913e ebbd
000000e0: d2d9 013e 4c8a 75bd 3c79 52be 7f0e 7e3e
000000f0: 29ce f83c 02c7 e93b 85ff 85bd 5533 70be
00000100: 8e46 ed3c 1930 38be 0770 0dbe 8aa5 0e3e
00000110: 9e1a 6fbe 55bd 8abd c9ad b4bc bc0e 86be
00000120: 497f 8fbe 4c6f 13be 700e f9bd bb91 c53d
00000130: 688e 013e c281 3a3d 2a52 153e 55d7 2ebd
00000140: f296 22be b5e3 3fbe 280a 70be cc3b 9bbe
00000150: 4a11 513c aaf5 3dbe 16a8 07be 972a f13c
00000160: 839a eabd 4e67 6fbd 4fc7 d1bc b635 a83c
00000170: 5415 f6bd 9bd8 193e 3bd8 3cbe c145 4fbe
00000180: 53f8 193e 6af3 3bbe c839 4f3e a06e 333d
00000190: 30ae 5c3d d2c9 f0bd cf65 26be 4644 97bc
000001a0: 83e3 25be 16bf 343e 2099 08bc 3ca7 b7bd
000001b0: ecdc e63d e9e8 febd bd6b 06be 0354 6abe
000001c0: 6e09 0ebe d837 82be 2d3d 78bd 15a6 2d3e
000001d0: fb26 143e 8ee7 53be 04bc 3abe ec10 743d
000001e0: 9fd1 08be 95d8 2cbd 8cb8 763d 522c 653e
000001f0: 7ce2 ce3d 9596 cbbc 882a c83b 9e9d 3c3d
00000200: d8a2 af3d ec91 9dbe b7f5 73be d507 e33d
00000210: bca7 6ebe be9c 103e 4370 cc3c 0710 a13d
00000220: ca41 3cbc 129a 70bd 9003 e63d ce45 fd3d
00000230: 0888 9bbd fe17 49be e848 193c 73bc 203b
00000240: 313c e43c 91bc bdbd abc5 f0bd 2e0f 2bbe
00000250: 356f d2bc 1289 543e 9ef9 58bd fafa 913d
00000260: 730d 703c 161c 02be b003 ff3d 71e9 eebd
00000270: 531b ab3d 7127 0cbe fa04 4ebd 252b 2a3e
00000280: 42e4 94bd eb9d 123d 768d b33b 83c9 1abd
00000290: 9eff c43b 9485 023e ebe3 093c d6f5 3c3d
000002a0: 50ab c33c d0a9 8f3d f3cc dabd a01a 87be
000002b0: be1c 70be 0196 58be dd66 2dbe c716 30be
000002c0: 411f e73c df0f 173e 7041 57be 391b 6fbb
000002d0: 27e8 15be aad3 cb3d 666e 9a3d 65b8 dd3d
000002e0: 5f41 6d3e feef 73be a600 6bbe b1b9 80bd
000002f0: fa7c c5bd 081a 4b3e 73cf 2a3e f14d 01bc
00000300: 0e2b 01be 5361 33be b823 423e f883 83be
00000310: 6f84 2cbe 9305 b93d 673c a33c 4617 4bbd
00000320: 509c dabd a214 dcbd db37 a4bd 71a8 10be
00000330: f1f5 173e 7d35 4f3d c53e 46be 8772 3fbd
00000340: 13c0 93bc dc37 26be a4e6 f4bc f327 50be
00000350: 1292 8b3d 3b14 fdbd 12b1 1bbe caaa 72be
00000360: 6276 20bd 8289 873d f67f 00be 649e 1bbe
00000370: 85cc 24be d71d 203b b0e5 4a3e 2d89 00be
00000380: 63bd c8bc f0ab 87be d96f 96bd d292 debd
00000390: 07dd b4bd 971c 01be 4c7f f43d ab27 c13d
000003a0: db3b b4bd 96f1 30bc 4b63 28bd e9fe 193d
000003b0: ee00 32be 477f 453c 6dc2 d0bc 0e72 2ebd
000003c0: c691 78be b2fb 86be 6859 6f3d 51e7 9fbd
000003d0: be68 d6bd 3b47 433e 2182 c8bd 1957 21be
000003e0: 3199 09be e825 04be 0eb7 c9bd f691 57be
000003f0: 8fea 0e3d 303b 0f3e 7403 8ebe 33e6 fe3d

fc2.weight f4 [256, 256]
0.047616057 0.038767934 -0.13263635 0.04171192 -0.055017356 -0.1945986 -0.1078616 0.040811263
-0.06975513 -0.06807712 -0.15891555 0.075729385 0.06800351 -0.12739347 -0.06572289 -0.10033724
0.062300272 -0.047859713 -0.028559657 0.22857785 0.0130398655 0.003985865 -0.10487846 -0.05174055
-0.06825907 -0.03895453 -0.10459395 0.001174903 -0.13511583 -0.020946344 0.051496014 0.08032334
0.031302344 0.10522069 -0.20718211 0.01938825 0.05161647 -0.045548305 -0.145125 -0.0067630853
0.06367807 -0.024694609 0.038100794 -0.05105263 0.03986363 0.10111048 -0.016193204 0.0062534553
-0.09205015 -0.046919595 -0.10811782 -0.0338156 0.10861877 -0.11994651 -0.0425667 0.004396225
0.021960914 -0.10954667 -0.090969525 -0.07469944 0.015018522 0.11241802 -0.04817592 0.07992454
0.09041441 -0.057904564 0.08522495 -0.12559001 -0.11261371 0.17266612 -0.11960212 0.11435372
0.009893049 -0.113163285 0.09535937 -0.29354376 0.105850846 -0.119562894 0.03249945 -0.15184827
-0.08707826 -0.09866859 -0.038476504 -0.075932 -0.015524871 -0.043872837 0.09593239 0.07485247
0.035882544 -0.07482887 -0.22953995 -0.025313433 -0.055155154 0.09211143 -0.013914562 -0.034586143
-0.02216424 -0.08005651 -0.08825837 -0.038408674 -0.00015994087 -0.17355664 -0.18851447 0.025780568
-0.071088225 0.08507915 0.072833516 0.0044777184 -0.036553495 -0.07637215 -0.03452872 0.034801766
0.13884327 -0.06880579 -0.03777596 -0.02027478 -0.04294643 -0.11555154 0.0140022775 0.018237237
-0.14691663 0.014897006 0.18784988 -0.19109382 -0.018968169 -0.051036377 -0.010465712 0.01207786
0.05856182 0.05285292 -0.038233873 -0.03469018 0.005079117 0.019253463 -0.17974508 -0.06275132
0.008364343 -0.17380935 0.087826155 0.026342407 0.09243711 0.019394603 -0.007929781 -0.045226492
-0.0789208 -0.036703333 -0.078511804 0.017813548 0.08321089 -0.106363766 -0.08723014 -0.17766714
0.02982763 -0.07194725 0.14295512 -0.07442095 -0.045916993 0.040047415 0.08318443 0.017843938
0.0744115 -0.05145445 -0.121563435 0.07122219 -0.07444936 0.14258593 -0.09551451 -0.056557853
-0.24171577 0.01258887 -0.00949792 0.031925183 -0.06519008 -0.042786706 -0.1651951 -0.16315992
-0.029060617 0.029608037 0.025412416 0.008346398 -0.07324474 0.120140456 -0.08453906 0.016594805
0.06524064 -0.047280185 0.09323605 0.07067295 -0.094190225 -0.14102918 -0.042969026 0.06732379
0.030687502 0.051657695 -0.11503002 -0.1121852 0.023427868 -0.021676233 -0.015527614 -0.1158844
0.0112202475 0.02273919 -0.059685405 0.16349572 -0.03459906 -0.12751824 0.04582851 0.06796105
0.11371466 0.106157035 -0.07693204 -0.0044113616 -0.020493513 -0.12340138 0.0018402092 0.25663292
-0.06255705 0.10277847 -0.047662526 -0.15623827 -0.042825468 -0.06770987 0.04312658 -0.15314165
-0.07360396 -0.11486213 -0.10959704 -0.14228408 -0.27505153 -0.19036177 0.08470983 -0.18186454
-0.09311677 0.120480254 -0.09389898 -0.0041538053 -0.02013592 0.0860647 0.15379208 -0.021181056
-0.0043645003 -0.18220401 -0.0059338706 -0.056941386 -0.06943494 -0.15436123 0.16872731 -0.0718978
-0.027084703 0.008011213 0.17241184 0.24184744 0.25871697 -0.02812031 0.09960683 0.14832252
00000000: 0e09 433d 20cb 1e3d d3d1 07be 1eda 2a3d
00000010: e159 61bd db44 47be 8be6 dcbd b629 273d
00000020: c7db 8ebd 046c 8bbd c2ba 22be 0218 9b3d
00000030: 6d45 8b3d 6f73 02be b999 86bd 9c7d cdbd
00000040: 922e 7f3d 8c08 44bd f1f5 e9bc 5010 6a3e
00000050: 29a5 553c dc9b 823b 85ca d6bd e6ed 53bd
00000060: 69cb 8bbd c98e 1fbd 5a35 d6bd 34ff 993a
00000070: ce5b 0abe ab97 abbc 7ced 523d 9080 a43d
00000080: e336 003d f27d d73d 8c27 54be 1bd4 9e3c
00000090: cb6b 533d dc90 3abd a69b 14be df9c ddbb
000000a0: a669 823d 594c cabc 940f 1c3d 901c 51bd
000000b0: 0c48 233d 0313 cf3d 9ca7 84bc c9e9 cc3b
000000c0: ca84 bcbd c32e 40bd e06c ddbd 3a82 0abd
000000d0: 8573 de3d 84a6 f5bd 6c5a 2ebd 350e 903b
000000e0: 60e7 b33c 015a e0bd 3b4e babd 05fc 98bd
000000f0: 3f10 763c 6b3b e63d 1d54 45bd 7aaf a33d
00000100: 312b b93d 562d 6dbd 6b8a ae3d ab9a 00be
00000110: 04a2 e6bd 63cf 303e f5f1 f4bd 4832 ea3d
00000120: 7416 223c 27c2 e7bd c64b c33d 5e4b 96be
00000130: 54c8 d83d 64dd f4bd 251e 053d 1d7e 1bbe
00000140: 1656 b2bd c212 cabd 8a99 1dbd 3d82 9bbd
00000150: 075c 7ebc 01b4 33bd 3378 c43d 404c 993d
00000160: 93f9 123d e13f 99bd 850c 6bbe 1e5e cfbc
00000170: 5fea 61bd eba4 bc3d e7f9 63bc 33aa 0dbd
00000180: c891 b5bc abf4 a3bd cec0 b4bd 6a52 1dbd
00000190: cdb5 27b9 d5b8 31be f009 41be c531 d33c
000001a0: b496 91bd fa3d ae3d bd29 953d d3b9 923b
000001b0: 1eb9 15bd 0069 9cbd fd6d 0dbd 4c8c 0e3d
000001c0: ee2c 0e3e 0dea 8cbd f7ba 1abd 4c17 a6bc
000001d0: 99e8 2fbd 49a6 ecbd cf69 653c 4266 953c
000001e0: 5071 16be 9212 743c b85b 403e 19ae 43be
000001f0: 2263 9bbc 850b 51bd 6178 2bbc 37e2 453c
00000200: 85de 6f3d 4e7c 583d 1f9b 1cbd 4a17 0ebd
00000210: b96e a63b 70b9 9d3c 180f 38be c483 80bd
00000220: 990a 093c 14fb 31be 33de b33d 08cc d73c
00000230: ab4f bd3d 6ee1 9e3c eaeb 01bc 6a3f 39bd
00000240: 3aa1 a1bd 3c56 16bd ccca a0bd b8ed 913c
00000250: 796a aa3d 3fd5 d9bd b7a5 b2bd 60ee 35be
00000260: 1359 f43c 1459 93bd d462 123e 036a 98bd
00000270: 7513 3cbd c208 243d 995c aa3d 732d 923c
00000280: 0e65 983d e7c1 52bd 40f6 f8bd f1dc 913d
00000290: e878 98bd 0c02 123e 1d9d c3bd 35a9 67bd
000002a0: 5784 77be 8c41 4e3c 2a9d 1bbc fbc3 023d
000002b0: 6082 85bd 1d41 2fbd e728 29be 6513 27be
000002c0: 8810 eebc 8e8c f23c b32d d03c 55bf 083c
000002d0: 5701 96bd 330c f63d d122 adbd d4f1 873c
000002e0: e29c 853d dea8 41bd 8bf2 be3d fbbc 903d
000002f0: cee6 c0bd f469 10be 4a00 30bd 0ee1 893d
00000300: 5b64 fb3c 0597 533d dc94 ebbd 5bc1 e5bd
00000310: cdeb bf3c 5b92 b1bc 8967 7ebc cd54 edbd
00000320: 21d5 373c 8a47 ba3c af78 74bd 6c6b 273e
00000330: beb7 0dbd 2494 02be adb6 3b3d 2a2f 8b3d
00000340: 3be3 e83d dc68 d93d 8c8e 9dbd 2f8d 90bb
00000350: 03e2 a7bc ddb9 fcbd 2d33 f13a 6465 833e
00000360: e91d 80bd 857d d23d c839 43bd edfc 1fbe
00000370: c269 2fbd 79ab 8abd 7fa5 303d 2ad1 1cbe
00000380: acbd 96bd d63c ebbd 6a74 e0bd ebb2 11be
00000390: 8ed3 8cbe 32ee 42be 597c ad3d b33a 3abe
000003a0: 01b4 bebd 5abe f63d 1c4e c0bd a51c 88bb
000003b0: 16f4 a4bc b042 b03d ac7b 1d3e e583 adbc
000003c0: 1504 8fbb b093 3abe ea70 c2bb 5f3b 69bd
000003d0: e833 8ebd df10 1ebe dac6 2c3e 273f 93bd
000003e0: bde0 ddbc 7641 033c bb8c 303e dba6 773e
000003f0: 8d76 843e 905c e6bc aafe cb3d dce1 173e

fc2.bias f4 [256]
0.15354285 0.11918281 0.04763378 0.10623148 0.035890605 0.039411925 0.074922316 0.06088739
0.056237254 -0.023578642 0.034321293 0.0969715 0.08334126 0.090817526 0.021443745 0.0071518733
0.06426519 0.042725615 0.061935857 0.13630371 0.050136853 0.123850614 0.008043422 0.09444086
0.13754164 0.0732875 0.050005656 0.007891047 0.06788102 0.0174465 0.17716397 0.0026181438
0.058060076 0.039569575 0.025220657 0.07210352 0.03809197 0.09029699 0.022854434 0.096464805
0.06661256 -0.013481422 0.08890129 0.05898899 0.008643801 0.13398507 0.11907841 0.10239906
0.0965122 0.077361114 0.03084922 0.046730928 0.011515899 0.019335479 0.09142422 0.122809075
0.0712831 0.007454505 0.09615537 0.057907242 0.049430944 0.09750722 0.06453276 0.0029991488
0.10048725 0.123854294 0.014052728 0.11692132 0.085871935 0.075604096 0.112124555 0.024476174
0.0070488276 0.028961515 -0.010382938 0.08615167 0.13435854 0.062436797 0.09667198 0.07571942
-0.018477058 0.042812973 0.006773972 0.0116200615 0.060859088 0.07326186 0.061800316 0.12232024
0.036636822 0.05738415 -0.015596341 0.06822249 0.066362314 0.11420765 0.01597398 0.037984986
-0.024535378 0.11730992 0.050226443 0.012080961 0.056904532 0.053804737 0.062582 0.03434915
0.015801542 0.024010474 0.009126582 0.044382166 0.10750474 -0.027442815 0.0333051 0.096763834
0.071301214 -0.0028652735 0.0105936555 0.042787172 0.14025563 0.051996265 0.15284838 0.05556035
0.146595 0.069475904 0.059424113 0.09274995 0.06323601 0.0028343124 0.10458922 0.04471276
0.07256115 -0.009131854 -0.03324423 0.055367228 0.052533954 0.04321849 0.08072143 0.102202944
0.11908596 0.09644426 0.065706655 0.061230075 0.13787316 0.028235152 -0.026786387 0.02326276
0.011519911 0.04504918 0.06995726 -0.001447797 0.049036037 0.09124988 0.12682906 0.019660156
0.07457325 -0.01974126 0.094858855 0.03770292 0.02462748 0.07352557 0.12667403 0.048730697
0.14436634 0.13418359 -0.01575057 0.019691255 0.009220637 0.050808 0.13029023 0.06649047
0.11560735 0.08541711 0.061029118 0.07723644 0.056770433 0.07329608 -0.016040076 0.018338911
-0.034296468 0.05948199 0.08723096 0.05885214 0.08176738 0.15458827 0.11747849 0.13514556
0.1732961 0.06883049 0.02182921 0.021238493 0.04814641 0.007770904 -0.02083114 0.08459292
0.03135945 -0.010303898 0.1085753 0.041112002 0.110552065 0.03734478 0.0736137 0.088393226
0.103250764 0.07147142 0.111648254 0.11794958 0.061269935 0.0060307616 0.1128231 0.12864675
-1.7693295e-05 0.105828814 0.0762614 -0.018545195 -0.013970266 -0.023165947 0.069089495 0.060502414
0.03943415 -0.076089285 0.12674999 -0.019350626 0.005960005 0.04326286 0.120889515 0.05240439
0.041395076 0.033721507 0.070477605 0.03633082 0.060780313 0.056155358 0.09327579 0.037033416
0.037109267 0.04062505 0.1190127 0.033406496 -0.0038642704 0.052588936 0.12423854 0.049099065
0.01363489 0.07013111 0.06323236 0.079137616 0.10608222 0.07269564 0.010308991 0.17004177
0.043768484 0.06295961 0.06894862 0.047302704 -0.027352303 0.081312485 0.09963006 0.07936553
00000000: 563a 1d3e 1e16 f43d a31b 433d e48f d93d
00000010: 0702 133d 666e 213d df70 993d 0e65 793d
00000020: 0959 663d ff27 c1bc 7c94 0c3d fe98 c63d
00000030: d3ae aa3d 8afe b93d cbaa af3c 435a ea3b
00000040: 789d 833d 0e01 2f3d 74b0 7d3d 3393 0b3e
00000050: 4d5c 4d3d 64a5 fd3d 8fc8 033c 366a c13d
00000060: b7d7 0c3e c217 963d bbd2 4c3d 7349 013c
00000070: 3405 8b3d f6eb 8e3c 796a 353e 2a95 2b3b
00000080: 67d0 6d3d b513 223d 8d9b ce3c 03ab 933d
00000090: 5306 1c3d a1ed b83d 3939 bb3c 578f c53d
000000a0: 2a6c 883d 2fe1 5cbc e111 b63d 709e 713d
000000b0: bb9e 0d3c 6233 093e 62df f33d 99b6 d13d
000000c0: 30a8 c53d 816f 9e3d 81b7 fc3c ee68 3f3d
000000d0: 2ead 3c3c 7065 9e3c 9f3c bb3d 5383 fb3d
000000e0: e0fc 913d ec44 f43b 1bed c43d 2530 6d3d
000000f0: 1a78 4a3d deb1 c73d c029 843d 5e8d 443b
00000100: 42cc cd3d 52a7 fd3d 6a3d 663c 7274 ef3d
00000110: a0dd af3d 52d6 9a3d 8fa1 e53d 4282 c83c
00000120: daf9 e63b b340 ed3c 331d 2abc 4970 b03d
00000130: 4995 093e babd 7f3d f6fb c53d c912 9b3d
00000140: 335d 97bc a85c 2f3d 32f8 dd3b 1262 3e3c
00000150: 6147 793d 500a 963d 5422 7d3d 0983 fa3d
00000160: 7e10 163d a40b 6b3d cc87 7fbc 3cb8 8b3d
00000170: f7e8 873d b3e5 e93d dddb 823c 2596 1b3d
00000180: 6bfe c8bc 2f40 f03d 3eba 4d3d 39ef 453c
00000190: ba14 693d 5b62 5c3d fe2a 803d b2b1 0c3d
000001a0: 3c72 813c 9db1 c43c a987 153c 13ca 353d
000001b0: 722b dc3d c1cf e0bc ee6a 083d 1e2c c63d
000001c0: 5f06 923d 50c7 3bbb 0391 2d3c 9a41 2f3d
000001d0: 2c9f 0f3e 09fa 543d 4984 1c3e 4093 633d
000001e0: 001d 163e 6249 8e3d b366 733d b0f3 bd3d
000001f0: e281 813d dfbf 393b df32 d63d ba24 373d
00000200: f19a 943d c69d 15bc 1a2b 08bd bfc8 623d
00000210: d82d 573d df05 313d 4751 a53d c74f d13d
00000220: 57e3 f33d 9184 c53d 3691 863d 63cc 7a3d
00000230: 9f2e 0d3e 684d e73c 206f dbbc 8b91 be3c
00000240: 02be 3c3c 7d85 383d c045 8f3d 02c4 bdba
00000250: 03da 483d 38e1 ba3d 7adf 013e 560e a13c
00000260: dcb9 983d 6cb8 a1bc 5c45 c23d 616e 1a3d
00000270: 92bf c93c 9394 963d d6b6 013e d799 473d
00000280: c5d4 133e 6c67 093e 5707 81bc 8e4f a13c
00000290: 2812 173c 0d1c 503d cd6a 053e 282c 883d
000002a0: 8cc3 ec3d 2aef ae3d abf9 793d 232e 9e3d
000002b0: 1d88 683d 411c 963d 7a66 83bc 7c3b 963c
000002c0: 747a 0cbd 63a3 733d 25a6 b23d f10e 713d
000002d0: a875 a73d 634c 1e3e 9098 f03d 9963 0a3e
000002e0: 8874 313e 00f7 8c3d 2cd3 b23c 59fc ad3c
000002f0: 2c35 453d 11a3 fe3b 11a6 aabc 0e3f ad3d
00000300: c472 003d aed1 28bc ba5c de3d 0f65 283d
00000310: 1f69 e23d d7f6 183d c8c2 963d 8207 b53d
00000320: 2375 d33d 9c5f 923d d7a7 e43d 8d8f f13d
00000330: 2ff6 7a3d b29d c53b cc0f e73d f9bb 033e
00000340: 106c 94b7 c7bc d83d f02e 9c3d 18ec 97bc
00000350: 8be3 64bc 83c6 bdbc cb7e 8d3d 61d1 773d
00000360: b485 213d b3d4 9bbd c0ca 013e 3485 9ebc
00000370: 254c c33b 6634 313d ec94 f73d fca5 563d
00000380: e28d 293d 901f 0a3d 9056 903d a0cf 143d
00000390: c7f4 783d 2903 663d 6107 bf3d 5ab0 173d
000003a0: e3ff 173d 7466 263d eebc f33d 40d5 083d
000003b0: b33f 7dbb 7f67 573d c770 fe3d 1a1c 493d
000003c0: e064 5f3c e6a0 8f3d f87f 813d e712 a23d
000003d0: a341 d93d 74e1 943d 0be7 283c 6e1f 2e3e
000003e0: 9546 333d f8f0 803d ef34 8d3d 7bc0 413d
000003f0: f011 e0bc 2987 a63d d80a cc3d 658a a23d

fc3.weight f4 [2, 256]
0.05556704 0.32130733 -0.09250534 0.04568942 0.14901899 0.18766119 0.25134137 0.07817531
0.16291462 0.16581877 0.18935338 -0.15552475 -0.068422146 -0.21868749 -0.32658502 -0.16975203
-0.27062863 0.15832178 0.14976461 0.0015154709 -0.30269533 -0.12831238 0.2601021 -0.053111993
0.04506974 0.12789963 -0.29302692 -0.01339201 0.03856997 -0.031538248 -0.12792778 -0.07363904
-0.17554115 -0.23139696 -0.06410658 0.08730808 0.18522602 -0.21528043 0.13693336 -0.22246484
0.30130613 -0.23435657 -0.20305455 -0.30794492 -0.309196 -0.12539332 -0.11685203 -0.103791505
-0.11112002 0.20278977 -0.25421968 -0.18842302 -0.22104868 0.0413807 0.16652246 0.3208019
-0.1531418 -0.19491366 -0.03436799 -0.095952936 0.2491422 0.33977306 0.07466249 0.23847373
0.03010436 -0.16113572 0.11425261 -0.28930342 -0.1280687 0.18868609 0.30724886 0.2819239
-0.093756184 0.1820732 -0.08132284 -0.20905127 0.42531824 -0.1554515 -0.26553908 -0.1576165
0.2068696 -0.11992504 -0.18384506 -0.23276417 -0.3168693 -0.297925 -0.0922183 -0.182126
0.21310338 -0.15887314 0.19465874 -0.12661433 0.1192776 -0.08487147 0.19143467 0.26056492
0.08471797 -0.017068949 0.0036218467 -0.2158388 -0.25713104 0.14833082 0.37081182 0.04591001
-0.08619224 -0.17905736 0.21645649 -0.33456433 0.3154092 -0.36741152 0.2506073 -0.28560722
-0.29124016 0.12224761 0.061133582 -0.15727493 0.0022959684 -0.118303366 0.0941341 0.31630418
-0.045740753 0.27803975 -0.15383048 0.25450894 0.15693983 0.19902499 -0.28686538 -0.25470355
0.05346079 0.25001228 0.20551455 -0.044327226 -0.10151079 0.24877042 -0.13639909 0.18146132
-0.24913515 -0.2718997 -0.009446831 -0.15643765 0.29350176 0.007498453 0.07193282 0.18293391
-0.27806422 -0.15329616 -0.21792358 0.09214404 0.27000952 -0.19103965 -0.17758186 -0.23412012
0.32779887 0.24397887 0.35989654 0.14131837 -0.0016365476 -0.1021902 -0.06393376 0.15016763
0.28424102 0.29269436 0.14737143 -0.20148374 0.22744729 0.16938412 -0.0053456435 -0.0507259
-0.21011244 0.12532483 -0.05362558 -0.2411477 -0.07022632 0.05906398 0.076825455 0.1608872
-0.09345322 -0.1334405 0.12185358 -0.32198706 -0.2066273 -0.114172466 -0.24861634 0.27734223
0.3120362 -0.19253463 -0.34298033 -0.0688902 -0.2610731 -0.31202236 -0.02371553 -0.20868933
-0.068521515 -0.1848135 0.16881731 0.17396371 0.3608482 0.11910354 0.0026110061 0.111956045
0.2647743 -0.07570327 0.23062743 0.3032872 0.24164864 0.030729145 -0.038552083 -0.026716579
-0.0024459143 0.3588029 0.24282214 -0.33244815 -0.14451109 0.23136444 0.10585894 0.046251375
-0.14995243 0.037653513 -0.11173525 -0.047142856 -0.14971675 0.117430866 0.022242626 -0.26096508
-0.18255983 -0.08665054 -0.037224602 0.08314785 0.3533889 -0.23460498 0.14298274 0.1440274
0.28285554 0.10537345 0.2216351 0.23302008 0.20694585 0.26131263 -0.11639333 -0.111614764
-0.20800027 0.18629502 -0.13247891 -0.2686025 -0.1589123 0.08786478 0.17105198 -0.1547529
-0.24323475 0.005522617 0.32926708 0.12084033 -0.11302052 0.2652236 0.17851622 0.18756396
00000000: 449a 633d 6582 a43e 7173 bdbd d424 3b3d
00000010: 6f98 183e 412a 403e d1af 803e 601a a03d
00000020: 17d3 263e 65cc 293e dae5 413e e141 1fbe
00000030: e920 8cbd 9def 5fbe 2736 a7be 7ad3 2dbe
00000040: d68f 8abe 1b1f 223e e55b 193e c4a2 c63a
00000050: e2fa 9abe 5264 03be 1a2c 853e f68b 59bd
00000060: 0c9b 383d 1ff8 023e a007 96be 296a 5bbc
00000070: 8bfb 1d3d 402e 01bd 80ff 02be 11d0 96bd
00000080: 0fc1 33be 53f3 6cbe 504a 83bd 94ce b23d
00000090: e4ab 3d3e 7972 5cbe 4238 0c3e d3cd 63be
000000a0: cc44 9a3e 2bfb 6fbe 88ed 4fbe f5aa 9dbe
000000b0: f04e 9ebe 1b67 00be 1e50 efbd a490 d4bd
000000c0: e592 e3bd 1fa8 4f3e 1529 82be f7f1 40be
000000d0: 965a 62be cf7e 293d dd84 2a3e 2640 a43e
000000e0: 34d1 1cbe 7297 47be 73c5 0cbd f982 c4bd
000000f0: 221f 7f3e bcf6 ad3e a6e8 983d 7532 743e
00000100: 6b9d f63c c300 25be 46fd e93d 941f 94be
00000110: 7124 03be ed36 413e b94f 9d3e 5458 903e
00000120: 3e03 c0bd 6671 3a3e 978c a6bd 8911 56be
00000130: 50c3 d93e ae2e 1fbe bdf4 87be 3866 21be
00000140: a0d5 533e 429b f5bd e141 3cbe bb59 6ebe
00000150: b13c a2be a089 98be f3dc bcbd 3d7f 3abe
00000160: c637 5a3e a4af 22be 9f54 473e 30a7 01be
00000170: d047 f43d 18d1 adbd 7307 443e c468 853e
00000180: 9d80 ad3d 2ed4 8bbc 815c 6d3b d904 5dbe
00000190: aea6 83be 09e4 173e 0cdb bd3e 220c 3c3d
000001a0: 8f85 b0bd d05a 37be c5a6 5d3e 044c abbe
000001b0: 517d a13e 5d1d bcbe 9a4f 803e 1c3b 92be
000001c0: 6e1d 95be f45c fa3d 3567 7a3d ae0c 21be
000001d0: f577 163b 0949 f2bd 61c9 c03d 9ff2 a13e
000001e0: a85a 3bbd 3a5b 8e3e bd85 1dbe ff4e 823e
000001f0: d6b4 203e 35cd 4b3e 05e0 92be 8168 82be
00000200: b4f9 5a3d 9c01 803e 6872 523e 7790 35bd
00000210: e4e4 cfbd acbd 7e3e 34ac 0bbe ffd0 393e
00000220: 491d 7fbe 7036 8bbe e2c6 1abc 3131 20be
00000230: dd45 963e 95b5 f53b 8451 933d 0753 3b3e
00000240: 6f5e 8ebe abf9 1cbe 5c27 5fbe 04b6 bc3d
00000250: b03e 8a3e e69f 43be 05d8 35be 2fbd 6fbe
00000260: 41d5 a73e 99d5 793e 5c44 b83e c3b5 103e
00000270: 6d81 d6ba 1849 d1bd b4ef 82bd 8bc5 193e
00000280: 0a88 913e 09dc 953e 89e8 163e c151 4ebe
00000290: f1e7 683e 0873 2d3e 822a afbb f6c5 4fbd
000002a0: b727 57be 2755 003e 7fa6 5bbd 6cef 76be
000002b0: d1d2 8fbd 12ed 713d aa56 9d3d 9dbf 243e
000002c0: 6764 bfbd a0a4 08be 5f8e f93d 7ddb a4be
000002d0: 1b96 53be 41d3 e9bd 4895 7ebe cdff 8d3e
000002e0: 35c3 9f3e cc27 45be 1e9b afbe 4e16 8dbd
000002f0: 60ab 85be 65c1 9fbe 1247 c2bc a8b2 55be
00000300: 0255 8cbd c03f 3dbe 72de 2c3e 8b23 323e
00000310: 18c1 b83e 8fec f33d 6a1d 2b3b 3649 e53d
00000320: 7f90 873e 510a 9bbd 9929 6c3e 7648 9b3e
00000330: be72 773e b0bb fb3c cae8 1dbd badc dabc
00000340: a24b 20bb 04b5 b73e 5ea6 783e a536 aabe
00000350: b7fa 13be cdea 6c3e 92cc d83d 1572 3d3d
00000360: 218d 19be 923a 1a3d 73d5 e4bd de18 41bd
00000370: 594f 19be 987f f03d 2b36 b63c 379d 85be
00000380: f7f0 3abe d775 b1bd d378 18bd 6c49 aa3d
00000390: 64ef b43e 4a3c 70be 116a 123e eb7b 133e
000003a0: 71d2 903e 09ce d73d 50f4 623e d19c 6e3e
000003b0: 9de9 533e c5ca 853e a05f eebd 4896 e4bd
000003c0: 06fe 54be 1fc4 3e3e 8da8 07be 4486 89be
000003d0: e8b9 22be 73f2 b33d 4028 2f3e 8b77 1ebe
000003e0: 8812 79be 12f7 b43b b295 a83e 237b f73d
000003f0: 4d77 e7bd 63cb 873e f5cc 363e c410 403e

fc3.bias f4 [2]
-0.0017244219 -0.031708956
00000000: ff05 e2ba 40e1 01bd

bn.weight f4 [256]
1.0716352 0.52501154 0.81305015 1.0375401 0.84101564 0.44695926 1.0961661 0.16300997
0.50193775 0.9721634 0.55460966 0.6401365 0.39899057 0.42447737 0.61066407 0.2916641
0.57615215 0.85885763 0.23281056 0.44734946 0.5340306 0.61623645 0.20285152 0.8172971
0.74573916 0.36710036 0.96316516 0.8888589 0.83519053 0.4035614 0.76563895 0.28267053
0.6946517 0.19492733 1.0010989 1.1297728 1.0427445 0.76109445 0.63492733 0.19037792
0.6264039 0.3806593 0.995082 0.26534003 1.0369356 0.9381513 0.57055706 0.21061425
0.45672673 0.88284683 0.40501627 0.51337844 0.9472084 0.975785 0.9669963 0.43512487
0.5397778 0.91876626 0.7483968 0.243221 0.7082195 0.67041445 0.24696195 0.27753907
0.8943638 0.4335218 0.37111542 0.6551371 0.59004015 0.1772229 1.0109185 0.5425303
0.87579596 1.0072776 0.39694414 0.5886868 0.8338219 0.5979519 0.7460414 0.4500714
0.28463575 0.41547126 0.33786392 0.4750951 0.8971353 0.5703481 0.72013944 0.3067132
0.2904971 0.80393994 0.448235 0.91414165 0.21245466 0.29752687 0.31849265 0.63876176
0.24939089 0.70291317 0.87504435 0.21808171 1.0866206 1.027371 0.6147166 0.4649778
0.5509921 0.38100633 0.7859651 0.9127051 0.9182726 1.0611717 0.5163761 0.8620038
0.26263827 0.33897176 0.9998711 0.41615495 0.44769043 0.40440843 0.9624878 1.0698682
1.2030665 0.75708836 1.002023 0.91699475 0.45800623 0.8576571 0.909469 0.8729758
0.16965286 0.4899835 0.27304152 0.46700984 1.0130517 0.9856933 0.67311394 0.851698
0.88742197 1.0629318 0.21366338 0.8097317 0.8013965 0.63113624 0.2842841 0.4608596
0.5314158 0.4167066 0.3686129 0.65907204 1.1321875 0.52632225 0.29637268 0.48119608
0.26393116 0.2721858 0.35617143 0.3945554 0.85144013 0.8394289 0.6827368 0.64358634
0.4706761 0.69042957 0.18656354 0.8185358 0.264506 0.6940667 0.61790216 0.25189084
0.8125957 0.25507283 0.70459217 1.0668114 0.5259947 0.845743 0.8860933 1.0669615
0.7178252 1.0723761 0.98369867 0.91154635 0.33168086 0.48345166 0.52135193 0.7859754
0.2822234 0.82011694 0.37189466 0.360224 0.39318958 0.31617376 1.2107316 0.26353204
0.91304773 0.611539 1.1461743 0.8126266 0.8249259 0.37407476 1.050428 0.97450846
-0.29509005 0.56030774 0.46644697 0.7280488 0.99833775 1.0052539 1.022531 0.47970682
0.90529585 0.22906217 0.6792252 0.77098376 1.0412394 1.1381419 0.86222625 0.6246351
0.90662885 0.5660415 0.48217276 0.60066545 0.7453936 0.8098401 0.36504632 0.8405298
0.8967165 0.7996772 1.1591101 0.5859909 0.9974124 1.1579891 0.8128089 1.0055543
0.5862582 1.1117129 0.64815277 0.7227023 0.7192332 0.2669724 0.44858176 0.728009
0.4367618 0.4901624 0.94001603 0.6671496 0.43890795 0.6790685 0.4307272 1.180171
0.33102533 0.8682192 0.46994922 0.6263126 0.37720835 0.8477765 0.21998073 0.26358867
00000000: 582b 893f 2867 063f 0e24 503f 1dce 843f
00000010: cd4c 573f d8d7 e43e 2c4f 8c3f 16ec 263e
00000020: fe7e 003f b3df 783f e6fa 0d3f fcdf 233f
00000030: 7e48 cc3e 1955 d93e 7b54 1c3f ff54 953e
00000040: b57e 133f 18de 5b3f e465 6e3e fd0a e53e
00000050: 3bb6 083f acc1 1d3f 4fb8 4f3e 623a 513f
00000060: c3e8 3e3f 94f4 bb3e fe91 763f 428c 633f
00000070: 0ccf 553f 9a9f ce3e ea00 443f 31ba 903e
00000080: b2d4 313f 089b 473e 0224 803f 659c 903f
00000090: a778 853f 16d7 423f 998a 223f 6ef2 423e
000000a0: 025c 203f c7e5 c23e b2bd 7e3f a6da 873e
000000b0: 4eba 843f af2a 703f 0710 123f 43ab 573e
000000c0: 16d8 e93e 4002 623f 4b5e cf3e c56c 033f
000000d0: 407c 723f 0ccd 793f 128d 773f b0c8 de3e
000000e0: e12e 0a3f 4434 6b3f ef96 3f3f ed0e 793e
000000f0: e04d 353f 48a0 2b3f 98e3 7c3e 9a19 8e3e
00000100: 07f5 643f 92f6 dd3e d702 be3e 11b7 273f
00000110: df0c 173f eb79 353e c765 813f 44e3 0a3f
00000120: 2a34 603f 79ee 803f 433c cb3e 2eb4 163f
00000130: 5a75 553f 6013 193f 92fc 3e3f c26f e63e
00000140: c7bb 913e a6b8 d43e 80fc ac3e aa3f f33e
00000150: a9aa 653f 5502 123f 0f5b 383f 8309 9d3e
00000160: 09bc 943e 02cf 4d3f 0f7f e53e 3005 6a3f
00000170: b78d 593e 7155 983e 7811 a33e e485 233f
00000180: 5360 7f3e 1ef2 333f e802 603f d050 5f3e
00000190: 6216 8b3f e580 833f 115e 1d3f 9211 ee3e
000001a0: d10d 0d3f 4313 c33e 0235 493f 0ba7 693f
000001b0: ea13 6b3f 79d4 873f 3931 043f 48ac 5c3f
000001c0: 8678 863e b58d ad3e 8df7 7f3f 4312 d53e
000001d0: ae37 e53e 9f0e cf3e 9a65 763f 71f1 883f
000001e0: 15fe 993f 8bd0 413f 4a42 803f 2bc0 6a3f
000001f0: cb7f ea3e 6a8f 5b3f f6d2 683f 587b 5f3f
00000200: 7bb9 2d3e 1edf fa3e 19cc 8b3e ea1b ef3e
00000210: aeab 813f 6556 7c3f 3251 2c3f e108 5a3f
00000220: 162e 633f 260e 883f 93ca 5a3e 944a 4f3f
00000230: 5228 4d3f 2592 213f b08d 913e caf5 eb3e
00000240: de0a 083f 915a d53e d4ba bc3e f2b8 283f
00000250: 85eb 903f 0ebd 063f 29be 973e 555f f63e
00000260: fc21 873e f05b 8b3e 1a5c b63e 2a03 ca3e
00000270: fbf7 593f d0e4 563f d7c7 2e3f 13c2 243f
00000280: 75fc f03e febf 303f 830a 3f3e 908b 513f
00000290: 556d 873e 5bae 313f d62e 1e3f d6f7 803e
000002a0: 4606 503f e898 823e 2760 343f 478d 883f
000002b0: 97a7 063f 9d82 583f 03d7 623f 3292 883f
000002c0: 64c3 373f 9f43 893f add3 7b3f 1a5b 693f
000002d0: 13d2 a93e fa86 f73e 5277 053f af35 493f
000002e0: 967f 903e 2ff3 513f fa68 be3e 486f b83e
000002f0: 2550 c93e 87e1 a13e 41f9 9a3f aced 863e
00000300: 7fbd 693f d28d 1c3f d7b5 923f 4c08 503f
00000310: 582e 533f ba86 bf3e 6d74 863f 6379 793f
00000320: 0b16 97be 5470 0f3f 23d2 ee3e 6861 3a3f
00000330: 1093 7f3f 29ac 803f 4ce2 823f 229c f53e
00000340: 78c1 673f 468f 6a3e b4e1 2d3f 315f 453f
00000350: 5547 853f a2ae 913f dcba 5c3f 16e8 1f3f
00000360: d418 683f 19e8 103f 59df f63e 36c5 193f
00000370: 1dd2 3e3f ae51 4f3f 5ae7 ba3e f62c 573f
00000380: 368f 653f a5b7 4c3f b85d 943f 8003 163f
00000390: 6b56 7f3f fd38 943f 3e14 503f 01b6 803f
000003a0: 0415 163f 9c4c 8e3f 57ed 253f 0503 393f
000003b0: ab1f 383f 9bb0 883e 82ac e53e cc5e 3a3f
000003c0: 3e9f df3e 91f6 fa3e e4a4 703f 51ca 2a3f
000003d0: 8bb8 e03e 6fd7 2d3f 4788 dc3e d80f 973f
000003e0: 277c a93e 9d43 5e3f 2f9d f03e 0656 203f
000003f0: 7421 c13e e107 593f a142 613e 18f5 863e

bn.bias f4 [256]
-0.03728841 0.058362737 -0.023936357 0.0046230615 0.016552154 0.036382888 -0.0617984 0.093675084
-0.051609255 -0.042241465 -0.03393998 -0.012359324 0.076459534 7.7409226e-05 -0.04551386 0.04871805
0.00021835676 -0.007899725 -0.03808079 -0.03052773 -0.0028547244 -0.037582878 -0.059434433 0.024373434
-0.0234254 -0.0686146 -0.011621098 0.04813713 -0.03786823 -0.021623164 0.023244645 0.015827704
0.02342275 -0.04849429 -0.052316234 0.023894845 -0.034787234 0.015719661 -0.034417372 -0.05075746
0.048390195 -0.044907793 0.041451115 0.046907187 -0.029313724 0.005546738 0.00053899834 0.071285285
-0.023693789 -0.030977463 -0.074714474 0.012844224 0.06667995 -0.03469111 -0.0092742555 0.01484272
-0.0029958945 -0.0380138 -0.044103555 -0.022577742 -0.016560867 0.0009681523 0.07041683 0.082056254
0.036637083 0.0030837336 -0.04267886 0.020553749 -0.049163725 0.11548893 0.020648805 -0.044371396
-0.006676768 -0.08749636 0.05005258 -0.04649553 0.03463315 -0.07041272 -0.0008099042 -0.051393688
-0.0062885857 -0.025055299 -0.004514731 -0.042474486 -0.042320117 -0.041516837 -0.022619141 0.033007648
-0.023840519 0.010172487 -0.043121696 -0.036512684 0.017403908 -0.07258544 -0.11041047 0.008147397
-0.047016554 -0.061997864 -0.05316576 -0.05121725 -0.012004282 -0.050065093 -0.02861829 -0.018777454
0.019575417 -0.009622293 -0.009779521 -0.043544177 0.015732996 -0.030851737 -0.01789368 0.0174709
0.054550912 -0.0028849698 -0.031639483 0.014124469 -0.044088703 -0.033285715 0.042335894 0.04302307
-0.009144779 -0.027271286 0.037434004 -0.012239782 0.015385552 0.026144903 0.0070766704 -0.0080902465
0.14413255 -0.05848583 -0.029494064 -0.043948535 -0.025671277 0.02581926 -0.0026134453 0.025219196
-0.0048796134 -0.049463924 0.11589845 -0.009740343 -0.034963723 -0.06610228 0.041618567 -0.05342207
-0.06306304 -0.041097585 0.022127083 -0.040938944 0.042673893 0.004756814 -0.054284297 -0.062870696
-0.07381163 0.08668115 -0.011431705 0.10094327 0.0057335403 0.051811345 -0.012357061 0.046272762
-0.005192559 -0.0051892446 -0.067803435 -0.014222401 -0.011117829 0.074084535 0.00529651 -0.048805267
-0.010146366 -0.015617611 0.0040443023 0.0022175084 -0.02260538 -0.038460497 0.011106998 -0.003607611
0.027582265 0.03239609 -0.026513694 0.0058554616 -0.052523576 -0.03208189 -0.016215846 -0.03530564
0.0077223014 -0.031166863 0.051978264 -0.030502696 -0.019252677 -0.028716508 -0.033285566 0.06910733
-0.009632126 0.012845312 -0.04259741 0.0010131777 0.011216975 -0.096213974 -0.026701916 -0.010156252
0.11750395 0.0016534042 -0.044891465 -0.015330742 -0.0010903968 0.011986067 -0.018968675 0.021041775
-0.014567566 0.036657255 0.010076964 0.049289886 -0.024683604 0.05648105 0.010354365 -0.03584753
-0.03813899 -0.018223872 -0.015693171 -0.058534652 0.0029513703 0.049346082 0.033161577 -0.072062895
0.001089821 0.023682509 0.07530223 -0.024071785 -0.04863989 -0.023405716 -0.022708459 -0.01348855
-0.016781097 -0.0093928855 -0.035403907 0.0051558074 0.022849564 0.11704711 0.016339866 -0.003013143
-0.062222306 -0.007831804 0.055646624 -0.018137125 0.02001255 0.0373152 0.0032587382 -0.023793045
-0.0045891474 -0.03841326 0.059365954 -0.005346725 0.049947765 -0.012448786 0.14493766 0.08253944
00000000: bbbb 18bd c40d 6f3d 2e16 c4bc 0d7d 973b
00000010: 6298 873c 3906 153d 5220 7dbd b9d8 bf3d
00000020: 3a64 53bd 6305 2dbd a604 0bbd c37e 4abc
00000030: d196 9c3d c356 a238 be6c 3abd 948c 473d
00000040: b2f6 6439 d96d 01bc 9afa 1bbd 4a15 fabc
00000050: 5416 3bbb 81f0 19bd 8571 73bd ccaa c73c
00000060: a0e6 bfbc d085 8cbd 6b66 3ebc 702b 453d
00000070: b81b 1bbd 1023 b1bc 8e6b be3c 1aa9 813c
00000080: 11e1 bf3c f3a1 46bd 8c49 56bd 1fbf c33c
00000090: 0f7d 0ebd 85c6 803c 3bf9 0cbd 0ee7 4fbd
000000a0: cc34 463d 3cf1 37bd a5c8 293d c021 403d
000000b0: 5623 f0bc 69c1 b53b 914b 0d3a 05fe 913d
000000c0: 7a19 c2bc 73c4 fdbc e703 99bd 9570 523c
000000d0: 7f8f 883d 4418 0ebd 0cf3 17bc e12e 733c
000000e0: c556 44bb 5cb4 1bbd eea5 34bd f5f4 b8bc
000000f0: a8aa 87bc 9acb 7d3a b336 903d 1c0d a83d
00000100: c410 163d 7718 4a3b 07d0 2ebd 5660 a83c
00000110: e75f 49bd 7685 ec3d af27 a93c c8be 35bd
00000120: cac8 dabb 4b31 b3bd ef03 4d3d 1972 3ebd
00000130: 7ddb 0d3d 8b34 90bd c04f 54ba 3082 52bd
00000140: 7b10 cebb c540 cdbc 4ff0 93bb baf9 2dbd
00000150: dc57 2dbd 8f0d 2abd c74b b9bc 0733 073d
00000160: 314d c3bc 81aa 263c 60a0 30bd 538e 15bd
00000170: a492 8e3c ada7 94bd e21e e2bd a97c 053c
00000180: 6e94 40bd 79f1 7dbd 57c4 59bd 2ec9 51bd
00000190: 9cad 44bc 0e11 4dbd e770 eabc 2dd3 99bc
000001a0: a05c a03c d2a6 1dbc 493a 20bc 615b 32bd
000001b0: 7ce2 803c c8bc fcbc c495 92bc 221f 8f3c
000001c0: c770 5f3d c311 3dbb 6798 01bd 516a 673c
000001d0: 5b96 34bd 9a56 08bd 6768 2d3d f538 303d
000001e0: fcd3 15bc 0868 dfbc 6654 193d 5e89 48bc
000001f0: af13 7c3c d62d d63c 6ae3 e73b f48c 04bc
00000200: 7c97 133e d68e 6fbd 899d f1bc 6103 34bd
00000210: 924c d2bc ea82 d33c 5646 2bbb 7d98 ce3c
00000220: 2ae5 9fbb af9a 4abd 2b5c ed3d f695 1fbc
00000230: 1f36 0fbd a260 87bd 3b78 2a3d 1ad1 5abd
00000240: 3227 81bd f155 28bd db43 b53c 98af 27bd
00000250: d2ca 2e3d 0cdf 9b3b 3659 5ebd 5ac2 80bd
00000260: 8d2a 97bd e385 b13d 0c4c 3bbc 58bb ce3d
00000270: 6ce0 bb3b 2238 543d 4575 4abc 8288 3d3d
00000280: 5826 aabb 8a0a aabb 87dc 8abd 1305 69bc
00000290: 8e27 36bc a2b9 973d 598e ad3b 08e8 47bd
000002a0: f23c 26bc 02e1 7fbc 1186 843b 9e53 113b
000002b0: eb2e b9bc c188 1dbd 20fa 353c ab6d 6cbb
000002c0: 34f4 e13c c3b1 043d 3f33 d9bc 2cdf bf3b
000002d0: f622 57bd 4d68 03bd 18d7 84bc a69c 10bd
000002e0: 5c0b fd3b a651 ffbc 29e7 543d cae0 f9bc
000002f0: cab7 9dbc e23e ebbc 7256 08bd 2588 8d3d
00000300: 11d0 1dbc 2575 523c 9f7a 2ebd 9acc 843a
00000310: 67c7 373c d50b c5bd fabd dabc 6966 26bc
00000320: e9a5 f03d 0ab7 d83a 1de0 37bd cb2d 7bbc
00000330: a5eb 8eba 3561 443c 3264 9bbc cd5f ac3c
00000340: cdac 6ebc eb25 163d da19 253c 31e4 493d
00000350: 4535 cabc ac58 673d 5ba5 293c dcd4 12bd
00000360: a137 1cbd 3b4a 95bc f78e 80bc 08c2 6fbd
00000370: c76b 413b 1e1f 4a3d 6fd4 073d b695 93bd
00000380: 53d8 8e3a d201 c23c 0e38 9a3d 3132 c5bc
00000390: 9f3a 47bd 58bd bfbc 1707 babc 14ff 5cbc
000003a0: 8378 89bc 9ee4 19bc b003 11bd 0cf2 a83b
000003b0: 022f bb3c 65b6 ef3d 2fdb 853c 2778 45bb
000003c0: d1dc 7ebd f850 00bc b7ed 633d 4f94 94bc
000003d0: 5cf1 a33c d3d7 183d 8e90 553b a2e9 c2bc
000003e0: 8f60 96bb 3957 1dbd b729 733d 9533 afbb
000003f0: 0796 4c3d fef5 4bbc 8a6a 143e 700a a93d

bn.running_mean f4 [256]
1.2617182 1.6489475 1.2616681 0.5160856 6e-45 0.37544695 0.0018535793 2.5711884
2.8581798 6e-45 0.49549454 0.042363748 0.8191243 0.58710074 1.6641355 0.9097512
1.9688709 0.38741964 1.0153117 0.65392166 1.5728773 0.0012336867 1.9249859 6.512285e-07
0.9747536 1.1995128 0.5944289 1.5198852 0.7449129 0.1949841 2.674504 2.5913472e-05
0.009387703 0.0010646242 0.027406193 0.039115086 0.39088196 0.2410241 0.124933176 1.4894823
0.12138975 0.013129928 6e-45 0.6413094 0.28815 0.007273983 0.90342224 0.669154
0.599429 0.019207692 0.87877756 3.0671473 0.47700956 0.43126613 0.34163463 6e-45
0.53141505 0.047936924 0.14065397 2.6786563 0.41561022 0.056411415 0.13658334 1.3474015
0.3615028 0.30157006 0.44165894 0.75877273 0.8743178 2.113781 0.5678998 0.94133425
2.064287 0.12063806 0.70843637 0.20693989 1.1652265 0.045873914 2.6505651 0.19765407
0.0010126721 0.0421559 0.06631457 0.013298323 0.5885013 0.0022279904 1.5002126 0.19616821
3.096057 0.098352194 6e-45 0.003802388 1.5153103 0.8769074 0.7873427 0.14842738
1.3935094 0.024120428 0.62911266 0.6468894 1.2149403 0.00043918454 0.06817918 4.127871e-08
0.48277235 1.1265377 6e-45 1.7107254 2.0165179 0.2289614 0.027937852 2.02142
0.65934056 0.14015909 0.16067535 2.6440911 5.2317905e-08 1.9999676 1.0423359 0.85673183
0.16451295 0.018729664 1.8119851 0.79223967 0.61281705 6e-45 0.5577984 1.4073114
1.7611023 0.16227351 0.281018 0.07859536 0.24890012 0.53802 0.3914973 0.111449756
0.0005480918 0.022895921 3.3848796 0.7604844 1.5351605 6e-45 0.046926606 0.46823862
0.10002369 0.14457361 1.350218 6e-45 0.48300275 0.97687066 0.7051811 0.18947849
0.17435125 0.37899473 0.00021662201 0.16532241 5.9097412e-05 0.16334888 0.42219976 2.431694
2.24422 0.53745884 6e-45 5.2910565e-08 1.8886306 1.2878463 1.370555 0.11592117
0.2118175 0.04070392 0.029532388 1.3776149 0.06290756 1.6499466 0.5026799 0.2498163
1.0295091 0.39201608 6e-45 1.293171 0.09775655 0.11714127 0.8324622 0.5827606
2.088644 0.31683105 8.446554e-07 2.040018 0.019562727 0.9612843 0.16384579 0.012524912
3.8476255e-08 0.30161855 0.55515164 0.16760042 0.35573158 0.03595235 0.114231475 0.15203282
6e-45 1.0637828 0.37679037 0.7451755 0.46567282 0.9082138 0.17678751 6e-45
0.15872031 2.1633804 0.021353595 0.27753586 0.00030239124 6e-45 0.4753576 0.1920568
0.087948665 0.48811963 0.56259644 0.009973942 0.88957894 0.23661321 3.1360295 0.19264135
6e-45 0.1411254 0.181705 5.584363e-05 0.65122175 0.036768917 0.3508097 0.036921673
0.31217462 1.7287709 0.016895667 0.84661275 1.2107373 0.33513197 6e-45 0.068632886
1.4506058 0.33997113 0.654956 2.3713625e-05 0.29181817 0.8747921 6e-45 0.07944743
6.46784e-05 6e-45 0.063525625 0.6870022 0.06052291 0.6121868 3.045647e-06 1.0637755
00000000: fb7f a13f b610 d33f 577e a13f 301e 043f
00000010: 0400 0000 953a c03e cdf3 f23a 5a8e 2440
00000020: 6bec 3640 0400 0000 76b1 fd3e 9c85 2d3d
00000030: 21b2 513f 3c4c 163f 6402 d53f 74e5 683f
00000040: f603 fc3f de5b c63e bcf5 813f 6967 273f
00000050: 0b54 c93f a8b3 a13a f065 f63f 15d0 2e35
00000060: 7489 793f a389 993f 7e2c 183f 998b c23f
00000070: 9db2 3e3f e9a9 473e 132b 2b40 c260 d937
00000080: e1ce 193c dc8a 8b3a f482 e03c 2437 203d
00000090: ae21 c83e 06cf 763e f7dc ff3d 5ba7 be3f
000000a0: 309b f83d e91e 573c 0400 0000 da2c 243f
000000b0: 6688 933e 985a ee3b ae46 673f ad4d 2b3f
000000c0: 2e74 193f 7359 9d3c 91f7 603f 244c 4440
000000d0: 993a f43e eace dc3e bcea ae3e 0400 0000
000000e0: d10a 083f 8259 443d 9807 103e 1b6f 2b40
000000f0: ddca d43e a80f 673d 81dc 0b3e a777 ac3f
00000100: e516 b93e 6467 9a3e 1f21 e23e ee3e 423f
00000110: 4bd3 5f3f 3048 0740 e261 113f 48fb 703f
00000120: 471d 0440 1611 f73d 165c 353f 0de8 533e
00000130: 2426 953f 49e6 3b3d dca2 2940 d465 4a3e
00000140: a3bb 843a aaab 2c3d efcf 873d 36e1 593c
00000150: 05a8 163f 7a03 123b f706 c03f 52e0 483e
00000160: cc25 4640 e06c c93d 0400 0000 7c31 793b
00000170: b0f5 c13f 017d 603f 4b8f 493f 59fd 173e
00000180: 845e b23f 3498 c53c 870d 213f 8b9a 253f
00000190: 2a83 9b3f 5a42 e639 87a1 8b3d 6c4a 3133
000001a0: f02d f73e 6332 903f 0400 0000 0df9 da3f
000001b0: a10e 0140 db74 6a3e ecdd e43c f25e 0140
000001c0: 8bca 283f dd85 0f3e 1488 243e ca38 2940
000001d0: 25b4 6033 f0fe ff3f 436b 853f c752 5b3f
000001e0: 1576 283e f46e 993c 21ef e73f 38d0 4a3f
000001f0: 94e1 1c3f 0400 0000 e0cb 0e3f c822 b43f
00000200: cd6b e13f 072b 263e 97e1 8f3e 9bf6 a03d
00000210: acdf 7e3e aebb 093f 5672 c83e c53f e43d
00000220: d1ad 0f3a 3a90 bb3c dea1 5840 1baf 423f
00000230: 2480 c43f 0400 0000 1d36 403d f9bc ef3e
00000240: 38d9 cc3d 1b0b 143e f2d3 ac3f 0400 0000
00000250: 234c f73e 3214 7a3f c086 343f a606 423e
00000260: 2289 323e 990b c23e 0725 6339 474a 293e
00000270: 5ddf 7738 ee44 273e 912a d83e e0a0 1b40
00000280: 4da1 0f40 e796 093f 0400 0000 c83f 6333
00000290: a6be f13f 26d8 a43f 596e af3f 1468 ed3d
000002a0: b0e6 583e 27b9 263d e8ed f13c af55 b03f
000002b0: aed5 803d 7331 d33f a1af 003f d8cf 7f3e
000002c0: f4c6 833f 55b6 c83e 0400 0000 a186 a53f
000002d0: 9634 c83d c3e7 ef3d 3e1c 553f cc2f 153f
000002e0: 58ac 0540 ae37 a23e 47bc 6235 a88f 0240
000002f0: 0342 a03c ba16 763f 31c7 273e 4a35 4d3c
00000300: 1741 2533 bf6d 9a3e 6b1e 0e3f 729f 2b3e
00000310: 7322 b63e c542 133d 31f2 e93d 7eae 1b3e
00000320: 0400 0000 092a 883f abea c03e d2c3 3e3f
00000330: ab6c ee3e b380 683f c907 353e 0400 0000
00000340: 9487 223e d374 0a40 bced ae3c 2e19 8e3e
00000350: 448a 9e39 0400 0000 1262 f33e 8aaa 443e
00000360: 6e1e b43d d1ea f93e 5206 103f bf69 233c
00000370: 72bb 633f bc4a 723e b5b4 4840 c643 453e
00000380: 0400 0000 2d83 103e e010 3a3e a439 6a38
00000390: 78b6 263f 019b 163d 549d b33e 2e3b 173d
000003a0: 5ad5 9f3e 5d48 dd3f c868 8a3c 9dbb 583f
000003b0: 71f9 9a3f 6b96 ab3e 0400 0000 668f 8c3d
000003c0: 73ad b93f b210 ae3e 32ab 273f 9fec c637
000003d0: 3169 953e 60f2 5f3f 0400 0000 56b5 a23d
000003e0: f4a3 8738 0400 0000 b919 823d 60df 2f3f
000003f0: dfe6 773d 46b8 1c3f d163 4c36 cc29 883f
