checkpoint_actor_agent_0.pth (torch_old, 296395 bytes, 10 tensors)

fc1.weight f4 [256, 24]
00000000: bab9 033d f2f3 413e d0c5 c3bc 377f 083d
00000010: a466 81bc e92f bcbd ad86 4c3c b3e0 cdb8
00000020: 8689 3b3d 2a04 193e a896 0cbc 6757 58bc
00000030: 0a27 303b 1b76 a4bd a88f 7db5 bb41 1b3c
00000040: c8dd c13d 4bb7 f43d 504f 02bd 3ee2 09bd
00000050: 9e39 993c 2bb1 66bd d402 933c 7634 fabc
00000060: 5bb4 b23d 7900 f83d 3e8f 063c b9ad 143c
00000070: 769e 683d 4851 61bd 04dd a0bd f01d bd3d
00000080: b6e0 533d d133 313e cd51 123b 611d ebbc
00000090: 5e84 7d3d 0cbc c03c 72ad fab9 09dd bf3c
000000a0: da8a e03c 6e17 1b3e 4e8e 9ebc db38 a4bd
000000b0: 183a 803d 6e38 8abd 85a2 fd3b c7bb b9bd
000000c0: ab65 6ebc 351e cd3d c122 90bc 6ae2 ea3c
000000d0: f3c4 873d e277 9abd 8134 d23c 2ad7 09bd
000000e0: 2ed8 d93c abe8 893d 36bb 403c 3a85 55bd
000000f0: 08f0 cf3d 6bb5 363c 6bc8 c5bc 9523 81bd
00000100: 8ea0 ef3c 7bd5 c1bb de6d 43bc e28b 18be
00000110: b7c9 4a3d b53f 073d f238 253d 290d e8bd
00000120: df0c e6bd 6a14 dd3b a1e5 323c cf48 f3bd
00000130: 2a1c ba3d 292d 1bbc 193b 493c 15e3 ffbc
00000140: 149d e0bd 89a7 4fbd 3b4c fe3c 90d9 bbbd
00000150: 1153 1bbd ddce 5cbd b840 0abd 9d8f 97bc
00000160: 3a8a beba 3395 4b3d 2b32 463d a9dc 5f3d
00000170: a53b 6fbc ab18 b93d f640 303b e59b ab3c
00000180: f211 e7bb c5fd 82bd 0468 a9bc f76e bdbb
00000190: e354 6e3d b462 a4bc f35c 973c 1068 e9bc
000001a0: 87fa 6a3d 829b 10bd 0773 023c 9fe2 033d
000001b0: 393c 5abd c4f6 babd 796f 44bd 6ccd f33b
000001c0: 3b01 353d 3cad 95bb 0596 4c3d 0329 c0bd
000001d0: a126 2fbd 36b1 dfbd c50b 0d3d 6b90 e9bd
000001e0: 7769 ae3b f03a ddbd 3670 0cbd 1f25 5abc
000001f0: 2b8f dfbd 6290 913d 45c9 e73c 5a12 9c3c
00000200: a4b7 023d 37e0 0abc 505b aa3c 7996 c53d
00000210: 30a0 8c3d 6351 c63c 90b0 cd3c f3db 223d
00000220: b9a1 823d c9d0 94bc cb4d d13d 5808 253d
00000230: 34ab 863d 85ea 3d3d fe25 ff3c 7b30 efbc
00000240: 7060 83bc 54ca a5bb 8334 0abd cef6 f33d
00000250: bfc2 7abd 930e a43d aa26 e03c 88b3 ce3d
00000260: 6bd7 81bd 2656 f13b 8c66 12bd fdcd 3d3d
00000270: 4104 3abd 0502 263d de16 37bd 8e93 a73b
00000280: ba34 793b 28ea d13d 3746 0b3d a8b4 92bb
00000290: 7739 b5bd b210 27bd 1f01 4cbd ddb4 63bd
000002a0: 123a 403c c4ca 2c3e 1a2d d2bc c3a7 673d
000002b0: e646 0ebd f328 a6bd 7285 4bbc 43e5 23bc
000002c0: e3f5 443d 43ba b63d 11e1 d53c 78b7 0c3d
000002d0: f075 52bc cc2d 4abd cff6 adbc cc1b 283d
000002e0: 853b c8ba d1bc b43d 6a29 97bd 24ed 37bd
000002f0: e0d9 903d 42e0 12be a37f ff3c ad1c 413c
00000300: 390e 23bd 4d50 9d3c eac4 33bd 386c 6fbc
00000310: 52bf c33c 8063 22be 5c22 603d edea 643c
00000320: 43a9 c3bc 93be 793c 5432 23bd cebe 1abb
00000330: c40d 0b3d 39d1 48be be22 d33c cec0 3bbc
00000340: f48f b43c c051 803d 19f8 943b fa29 06bb
00000350: ecdf 233d d8d8 58be 7271 cbbb 5b3e 1a3b
00000360: 0017 72bd 07c6 703d 7d79 da3c c325 dc3b
00000370: 4be6 733c 4217 fc3d 9f7c c1bc 1f19 f73c
00000380: 0c31 2b3d 8064 1e3b 00c2 d53c 0413 403d
00000390: d9d9 973d 0caa 6dbc 7f49 87bc aab1 1cbd
000003a0: e76d 853d 58cf af3d 1135 7a3c 4e37 033d
000003b0: f323 233e b0e6 cdbd a121 cabc cdb7 d2ba
000003c0: 273c 963d 4a4e df3c 48bd 36bc 2f5f 58bd
000003d0: 2512 2fbc 15e1 12bd 3a53 91bc 3468 d8bc
000003e0: a229 f0ba 9c13 ad3b 68a2 84bb 2c8d 2dbd
000003f0: 78a3 06bd 9431 68bd f6f2 9e3d ef45 80bd
0.032159545 0.18940714 -0.023898035 0.033324447 -0.015796013 -0.09188826 0.012483281 -9.817015e-05
0.04578545 0.14942995 -0.008580841 -0.013204432 0.0026878738 -0.08030339 -9.445889e-07 0.009476121
0.094661295 0.11949023 -0.03181392 -0.033663027 0.018704232 -0.056321304 0.017945684 -0.030542593
0.08725806 0.12109465 0.008212863 0.009074622 0.056791745 -0.055009156 -0.078546554 0.09234226
0.051727973 0.17304923 0.002232659 -0.028700532 0.061893813 0.023527168 -0.00047812943 0.023420827
0.02740996 0.15145656 -0.019354966 -0.08018657 0.062610805 -0.06749044 0.007740321 -0.09069019
-0.014550607 0.10015527 -0.017594697 0.028672416 0.06629362 -0.07542397 0.025659801 -0.033652462
0.02659234 0.06733831 0.011763385 -0.052129008 0.10153204 0.011151652 -0.024143418 -0.06305615
0.029251363 -0.0059153414 -0.01192805 -0.14897111 0.049508777 0.03301974 0.04033751 -0.11330635
-0.11232924 0.0067468183 0.010919006 -0.118791215 0.09087403 -0.009471216 0.012282156 -0.03123621
-0.1096746 -0.050696883 0.031042209 -0.09172356 -0.037921015 -0.053908218 -0.033753127 -0.018501097
-0.0014537044 0.049702834 0.048387688 0.054653797 -0.014601623 0.09037908 0.0026894188 0.02094836
-0.0070517 -0.06396059 -0.020679481 -0.0057810503 0.058186423 -0.020066597 0.018476939 -0.028492004
0.057367828 -0.035304554 0.007961995 0.032198545 -0.05328009 -0.09129098 -0.04795787 0.0074402597
0.044190627 -0.0045677703 0.049947757 -0.09382822 -0.04276145 -0.10922472 0.034435052 -0.11404499
0.005322631 -0.10802257 -0.0342867 -0.013314514 -0.10915979 0.07107617 0.028294215 0.01905172
0.031913415 -0.008476309 0.020795494 0.09647841 0.06866491 0.02420873 0.025108606 0.03976054
0.063785024 -0.018165963 0.10219916 0.04029116 0.06575623 0.046366233 0.031146046 -0.029197922
-0.016037196 -0.00505952 -0.033741485 0.11912309 -0.06122088 0.08010592 0.027362186 0.100928366
-0.06339916 0.007365006 -0.035742328 0.046339024 -0.045414213 0.04052927 -0.044699542 0.0051140254
0.0038025812 0.1024974 0.03400251 -0.0044771023 -0.08848851 -0.040787406 -0.049805757 -0.055592407
0.011732595 0.16874224 -0.025656272 0.056556474 -0.034735583 -0.08113279 -0.012421953 -0.010003391
0.04808606 0.08922245 0.026108297 0.034354657 -0.012845501 -0.04936008 -0.021235852 0.041042134
-0.0015276527 0.08825076 -0.07380946 -0.04490389 0.07072806 -0.1434336 0.031188792 0.011786622
-0.039808486 0.01920333 -0.043888964 -0.014613204 0.02389494 -0.15858269 0.054720268 0.013972026
-0.023884421 0.01524319 -0.03984292 -0.0023612264 0.033948675 -0.19611062 0.025773402 -0.011459542
0.022041298 0.062655926 0.004546177 -0.0020471797 0.04000847 -0.2117647 -0.006208592 0.0023535702
-0.059103966 0.058782604 0.026669258 0.0067183687 0.014886449 0.123091236 -0.023618994 0.030163346
0.04179482 0.002416879 0.026093483 0.046893135 0.07414598 -0.014505874 -0.016514538 -0.03825537
0.06515103 0.085844696 0.015271441 0.032035165 0.15931682 -0.10053766 -0.024674239 -0.0016076505
0.07335692 0.02725901 -0.011153527 -0.05282515 -0.010685478 -0.035859186 -0.01773988 -0.026416875
-0.0018322954 0.0052818786 -0.0040476806 -0.04237096 -0.03287074 -0.056687906 0.07761185 -0.06263339

fc1.bias f4 [256]
00000000: 6939 22be 2b33 093d d241 563c 0842 f23d
00000010: 91fa fcbd d642 61be 7d54 17be 4cd7 c7bc
00000020: 38cd 8bbe f0d1 63be 19b2 8b3d 13c1 20be
00000030: 4e0a 1d3d 0d74 72be b5f6 93bc b932 833e
00000040: a4fc 503d 1d97 67bd 2868 88be c70e bfbe
00000050: 5f1f 5cbd 72c5 30be a1d5 f3bd c5cf 6fbe
00000060: c8e4 e3bd 89d6 67be 2ee7 52bd d502 42bd
00000070: 884e 5cbe 76c9 e5bd 8f73 1ebe dc95 37be
00000080: b2ab 93bd e668 e93c 3840 94bd 1438 6a3d
00000090: 9ac9 43be 4f12 183e 0658 12be 9dfa 2b3d
000000a0: dc4e 00be 71e4 eebd c570 ecbd c443 7dbe
000000b0: 9736 0fbe 60b5 35be ccd6 c4bd 0281 73be
000000c0: e4c8 f43d f96e f2bc 7d0a 20be 17bd ed3d
000000d0: 26be dabd 4cba 1dbe 02f8 e8bb 81d3 65bd
000000e0: 9350 923d 8cf5 13be 14ee bebe 1164 3c3e
000000f0: 0e6b 533d a9cd 8f3a aa53 99bd df28 62be
00000100: b6d3 52bc 2e67 20bd c93f 48be 82a4 123e
00000110: aa0f 78be dcf7 19be 8ef6 dbbc 1fa5 4cbe
00000120: 64b4 79be cd02 12be 22fc 53be f72c b5bc
00000130: 3e3d c33d 4012 773e 78cb cd3c fd05 87bd
00000140: d58f 35be 3f43 21be c312 6fbe 8e65 86be
00000150: 6065 9e3d 253e 8fbd e6b6 6cbd 3735 653c
00000160: d73b 4fbe bccd 6c3d 7374 94bd 8d75 e4bc
00000170: 22be f5bd e810 d93b 37d6 5ebe b4a2 77be
00000180: 0092 093e f207 b4be 38cf c03d 799e 3fbc
00000190: 0544 67bd b654 37be 2d7c 9bbc dbb8 953d
000001a0: 4022 4fbe 3c8d c8bb 354a 833d 6654 21be
000001b0: 5aba 9b3d 38cb eabd 5620 17be 2580 85be
000001c0: 51ed 14be 6a4a 6bbe d4cf e5bd a8b9 c63c
000001d0: 8004 243e 5783 8cbe 9564 5bbe a3ce 9f3d
000001e0: babb d0bd d37f 0cbd 3146 5a3d 1fe3 4f3e
000001f0: f4f8 b1bc e242 c23d c586 18be f393 23bd
00000200: bfa7 79bd bd61 98be 8a11 37be cead 0a3d
00000210: 43e6 abbe 269f a23d 328b 223e d7b7 f23d
00000220: faf4 38bc d389 11bd e267 923c 3c2e a73d
00000230: 5930 bebc 47ba 48be aa61 b73d 6f4a 1fbd
00000240: b72f 183e 93ef 29be f377 65bd d0b5 0bbe
00000250: 92dc cebb c860 ec3d 4193 9a3d db6e 403e
00000260: 4c93 983d 8776 40be 5cea 213e cc1b 8e3b
00000270: e3bf d63d e2d1 23bc e830 29be 5d35 a13d
00000280: fabc 13be 5a18 f2bc df0a 3dbe fad0 ab3d
00000290: ea6c 3cbe 22ed 403e 10b0 0abe ba72 e93c
000002a0: f324 20bd 449b 0e3e 0f06 863c 31ce 82be
000002b0: a65f 8dbe 00be 83be ac52 5ebe e33a 49be
000002c0: 0705 bebd b9ef bc3d a5db d7bd 98c0 f9bc
000002d0: 118c 19be b8d1 92bd ae98 2a3e d43e b23d
000002e0: 9a90 d63d 8f78 a7be 1284 94be 844d 80be
000002f0: e084 2abc 1eb9 353e 3fb7 283e fa89 703d
00000300: 4dd1 d0bd 97d0 7ebe 2646 703e 93aa 05be
00000310: 8f05 d1bd f2c6 9c3d 9e93 963d 0419 993d
00000320: 21b9 47bc 8f69 dabd 5777 d5bd 5aff 04be
00000330: 4e2d f53d c60e 6c3e c8e9 17be 2af1 d43d
00000340: 0421 cbbd b261 84be e95c 40bd 8647 b1bd
00000350: af80 f53d d89f 663d 284e f9bd 4508 7fbe
00000360: 7f7b 5e3d 7c96 803d adc1 613d 3eaf 7ebd
00000370: 6aa7 f6bd f2a7 17bb fd06 fd3d ad4d 18be
00000380: a230 a8bd 7827 72be 4258 9ebd 7f99 11be
00000390: 7903 29bd 6137 b2bd 66d7 413e aacd 0b3e
000003a0: 9d31 00be 664f 05be 3102 0d3e 2a7f 50bd
000003b0: e861 81bd 08dc bbbc c00f 85bc 07b6 253e
000003c0: 2083 3cbe 0189 63be 1dae 933d 5d1b 23bd
000003d0: 4e89 ffbd 0c37 893d 8923 68bd 4459 34be
000003e0: 9259 203c 003e 21be 45b3 9fbd 03b2 81be
000003f0: 7f61 213e be6f ea3d 2dec 60be 04d8 e839
-0.15842213 0.033496063 0.013077216 0.11829001 -0.12352479 -0.21998152 -0.14778323 -0.024394654
-0.27305007 -0.22248054 0.06821079 -0.15698652 0.038339905 -0.23677082 -0.018061975 0.25624636
0.051022187 -0.056540597 -0.26641965 -0.37315962 -0.053740855 -0.1726282 -0.11905981 -0.23419102
-0.11127621 -0.22640432 -0.05149 -0.047365982 -0.21514332 -0.11220066 -0.1547377 -0.1792826
-0.07210483 0.028492402 -0.07238811 0.057182387 -0.19119874 0.14850734 -0.14291391 0.04198705
-0.12530082 -0.116646655 -0.115449466 -0.24732882 -0.13985668 -0.1774497 -0.09611282 -0.23779681
0.11952379 -0.029593932 -0.15629001 0.11608332 -0.10680799 -0.15403098 -0.007109643 -0.05610991
0.071442746 -0.14449137 -0.37291014 0.18397547 0.051615767 0.0010971326 -0.07486661 -0.22085904
-0.012867859 -0.0391609 -0.19555582 0.14320567 -0.24224725 -0.15035957 -0.026850965 -0.19984864
-0.2438522 -0.14258881 -0.2070165 -0.022116167 0.095331654 0.24128056 0.025121436 -0.06592939
-0.17730649 -0.15748309 -0.23347001 -0.26249355 0.077341795 -0.06994275 -0.057791613 0.013989738
-0.20237671 0.05781339 -0.072487734 -0.027888084 -0.119991556 0.00662433 -0.21761404 -0.2418316
0.13434601 -0.35162312 0.09414524 -0.011695498 -0.056461353 -0.17903408 -0.01898011 0.07310649
-0.20227909 -0.006120352 0.06410638 -0.15754852 0.07603903 -0.11464542 -0.14758429 -0.2607433
-0.14543654 -0.22977605 -0.11221281 0.02425845 0.16017342 -0.27443954 -0.21425088 0.07803085
-0.10192056 -0.03430159 0.053289596 0.20301484 -0.021725155 0.09485413 -0.1489516 -0.039936017
-0.06095099 -0.29762068 -0.17877784 0.03385716 -0.33574113 0.079405114 0.15873411 0.11851471
-0.011288876 -0.03553183 0.0178718 0.081631154 -0.023216413 -0.19602309 0.08954175 -0.038889345
0.14861952 -0.16595297 -0.056022596 -0.13643575 -0.006312915 0.11541897 0.07547618 0.18792288
0.0744997 -0.18795215 0.15812057 0.0043368097 0.10485818 -0.00999877 -0.16522563 0.07871506
-0.14427558 -0.029552627 -0.18461178 0.083894685 -0.18400922 0.18840459 -0.13543725 0.028497089
-0.039097738 0.13926417 0.01636031 -0.25547937 -0.27612036 -0.25730896 -0.21711224 -0.1965137
-0.09278303 0.09225411 -0.10539941 -0.030487344 -0.14994837 -0.07168907 0.16659805 0.0870339
0.10476799 -0.32709166 -0.29007012 -0.2505914 -0.010407656 0.17746398 0.16476153 0.058725335
-0.10196171 -0.24884258 0.2346426 -0.1305335 -0.10206138 0.07655133 0.073523745 0.074754745
-0.012190134 -0.10664665 -0.10423153 -0.12988034 0.11971532 0.2305251 -0.14835274 0.10397561
-0.099184066 -0.25855786 -0.046963606 -0.0865622 0.11987435 0.056304783 -0.1217311 -0.24905498
0.054316994 0.062787026 0.055116344 -0.062178843 -0.120436504 -0.0023140875 0.123548485 -0.14873381
-0.08212401 -0.23647869 -0.077316776 -0.1421871 -0.041263077 -0.08701969 0.18929824 0.13652673
-0.12518926 -0.1301857 0.13770367 -0.050902523 -0.06317502 -0.022932068 -0.016242862 0.16182719
-0.18409395 -0.22220232 0.07210944 -0.039821018 -0.12477361 0.066999525 -0.056674514 -0.17612177
0.00978698 -0.15746307 -0.07797865 -0.25331125 0.15759848 0.114470944 -0.21965094 0.00044411432

fc2.weight f4 [256, 256]
00000000: f68c 75bd f33e c13d 8458 933d a9f6 fa3d
00000010: 7ad1 ff3d da8a f13d 1c1a 89bd 9dff a1bb
00000020: 5e47 debd bfb3 5ebd b3c6 a4bd 826c 2fbd
00000030: 2a46 f6bd 41a0 1e3e eb3f b4bc 1f8e 0e3b
00000040: cb45 b23c 09a0 c53d 3b00 44be f26e 3a3e
00000050: 560a 0e39 557c bbbd 6c81 23be 9258 7dbd
00000060: 6449 b4bd 99a4 f53d 9404 ebba 1745 1dbe
00000070: 7860 39bb bb58 673c 02ef b23d 2b86 2c3e
00000080: e20d 95bd dfbf 35bd 7763 25bd 954a 263e
00000090: b315 d33d 71c0 12bd df92 debd 37e7 973b
000000a0: 50c1 c43c 97e8 5a3d 54d8 133d 8128 653e
000000b0: 1191 b23c 94db 2c3d c571 d63d df09 bebd
000000c0: 175a e13b 4d30 c13d b919 293d 4980 82bc
000000d0: 4c4c 8a3d 1748 d6bd 1f76 863d c742 b83d
000000e0: 6b77 bbbd 655f 7fbd 897f 84bd e6e1 87bc
000000f0: c036 2abd 222c c03c cbad 0abe 8e6e 56bd
00000100: ed5e 96bb 0950 7a3d 3e03 d03d a9e5 0fbe
00000110: d374 8bbd 7eca cdbd b6f9 e7bd f0d4 473d
00000120: e776 083d 3798 1d3d 2478 383e bf82 e73c
00000130: 91f3 3b3d 617a c2bd d95e 8b3d 7072 3dbd
00000140: c1ce 1d3e cd87 343d c782 043d 1f7c 14bd
00000150: 50a6 9a3d 9bda 553d 73fd 69bd 121c 213e
00000160: 8f65 6d3d 3783 b3bd f10f dfbd bdf3 14bd
00000170: e319 683d b428 27be 1b43 afbd 2b21 a03d
00000180: dd5d 463d d13f 923c 3a67 4bbc 5a46 86bd
00000190: a085 bd3d cbcb b93a c722 1bbd 5cee 203e
000001a0: a92d 17bb 7126 bdbb ae0d 05bd 9869 8ebc
000001b0: bb19 3cbe 2ada a5bc de82 ae3d 1d43 0c3e
000001c0: 247d 9b3d 4af0 033c 92d8 1dbe 9926 1f3c
000001d0: de7e 693d 60e8 7ab7 026b 8cbd e993 5d3d
000001e0: e484 763d e898 03be 7346 d43d 5f7f 76be
000001f0: 266f cbbd 23e0 8f3a 3f12 c53d 7baa 8abc
00000200: ce63 213e e82c d83d 53b3 e73d 7285 783d
00000210: 5038 60bc bb14 563d 8890 4cbe e8ee 63bd
00000220: 5ef0 4abb 4b13 213d 90e7 803d 2dc2 f73c
00000230: 4ff4 a7bc 3ddd 7bbd 6425 c5bd b4b2 f33d
00000240: c732 05be b529 863d 200f afbd e9aa 17ba
00000250: 1fcc 793c 6d48 05be 2e5c d2bc 2eb3 b8bd
00000260: 1f67 6b3d 4310 afbc d1a1 2a3d 5932 573d
00000270: e996 6fbd 868e cb3d 6c83 14be fbfd 9e3d
00000280: 5539 9abd 7d80 4bbd 0b7f 12bd f0e4 f83b
00000290: df30 853d ac0b 283d cfcd 3ebe be11 753d
000002a0: 3f74 66bd e900 1ebd 865f 583d a91e 5c3d
000002b0: 9a91 a43d 2e9c 67bd 55e4 ae3c 1025 5b3b
000002c0: 47e9 b03d da05 023d 8817 5ebd 11c4 a93d
000002d0: 97e4 0abd 72d7 363e 90b8 39bd cc8a 8bbd
000002e0: 5d17 903c 0289 453e c6b0 f0bd bc91 6b3e
000002f0: 8854 4a3d f23a 43be 7245 093d 538a a83d
00000300: e62a b03c 4842 f43d 2913 823d eaea 9ebc
00000310: 2e56 b93d 986e bebd 527d 633d 191a 5f3d
00000320: e0f9 3b3e 9b03 c6bd 72bd 26be 5033 d73c
00000330: d34b 91bd 17a6 d53d 2a1a b8bd 6264 0e3e
00000340: f906 52bd 7a97 04bd 2fe9 b03d 195b 00be
00000350: 7ffb 03be cf43 f2bb b599 c83d b2b5 83bc
00000360: 21a7 fb3d 7726 5fbd 9701 bd3c db16 bebd
00000370: 05d7 47bd aaa6 db3d 6c25 8f3d 6468 29bc
00000380: 720d 56bd 63ba 2fbe e4b9 a33d d8e5 76bd
00000390: 4b60 3ebc ba23 dbbd bdb2 723d d097 f4bd
000003a0: bff3 95bd 37eb 01be 82f7 263d 2360 b83c
000003b0: 4c61 14bc 1da2 42bd 5f0c 04bd 1761 973d
000003c0: 9d63 ed3c c439 a1bc 1b2c 5c3d b953 17bd
000003d0: 1b61 49be 9ff4 82bd 08e7 783c 97bf 543d
000003e0: 349a 5abd df19 a83d 59a7 373c 47a1 073e
000003f0: c559 10bd 01cd 3ebd 0fc0 6d3b 6a80 593e
-0.059948884 0.09435835 0.071946174 0.12254078 0.12491126 0.11794062 -0.06694433 -0.0049438016
-0.10853456 -0.054370638 -0.08045711 -0.04282809 -0.120251015 0.1549082 -0.022003135 0.0021752191
0.021761796 0.09649665 -0.19140713 0.18206385 0.00013546026 -0.09154574 -0.1596734 -0.061852045
-0.08803061 0.11994285 -0.0017930442 -0.15358387 -0.002828626 0.014120276 0.08736993 0.16848056
-0.072780386 -0.044372436 -0.04037806 0.16239388 0.10306873 -0.035828058 -0.10867857 0.0046357173
0.02401796 0.05344447 0.03609498 0.22378732 0.021797689 0.042201594 0.104709186 -0.092792265
0.0068771946 0.09433041 0.041284297 -0.015930312 0.06752834 -0.10462969 0.065654986 0.08997112
-0.091536365 -0.062346835 -0.06469638 -0.016587209 -0.04155612 0.023458544 -0.1354286 -0.052351527
-0.0045889528 0.061111484 0.101568684 -0.14052452 -0.06809392 -0.10048388 -0.113269255 0.048787057
0.03331652 0.03847524 0.1801458 0.028260587 0.04588658 -0.09495998 0.068052 -0.046251714
0.15410902 0.044074822 0.03235128 -0.036251184 0.07551253 0.05221043 -0.057126474 0.15733364
0.057958182 -0.087652616 -0.108917125 -0.03636526 0.056665312 -0.16324121 -0.08557721 0.07818826
0.04842936 0.017852696 -0.012414748 -0.06556387 0.092540026 0.0014175115 -0.037874963 0.15715927
-0.0023067987 -0.005772405 -0.03248375 -0.017384335 -0.1836919 -0.02024563 0.08521055 0.13697477
0.07592228 0.008052895 -0.15414646 0.009713792 0.057005756 -1.4955265e-05 -0.068563476 0.054096136
0.060185328 -0.12851298 0.103649996 -0.24072026 -0.09933309 0.0010976832 0.09622621 -0.016926995
0.15760729 0.1055544 0.113135 0.06067414 -0.013685301 0.052265864 -0.1997701 -0.05564776
-0.0030966024 0.03932504 0.06294167 0.030243957 -0.020502238 -0.061490286 -0.09626272 0.11899319
-0.13007651 0.06550924 -0.08547807 -0.00057856605 0.01524642 -0.1301591 -0.02567872 -0.09018551
0.05747139 -0.021370059 0.041658226 0.05253825 -0.05849353 0.099392936 -0.14503258 0.07763287
-0.075304665 -0.049683083 -0.03576569 0.007595651 0.06503462 0.041026756 -0.18633197 0.059831373
-0.056263205 -0.038575087 0.052825473 0.053740177 0.08035584 -0.05654543 0.021349112 0.003343884
0.08638244 0.03174386 -0.05422166 0.0828935 -0.033909407 0.17855623 -0.04534203 -0.06813583
0.017589265 0.19290546 -0.11752467 0.23004812 0.04939702 -0.19065455 0.033513494 0.08229508
0.02150483 0.11926705 0.06351311 -0.019399125 0.090496406 -0.09298438 0.055539437 0.054468248
0.18357038 -0.096686564 -0.16283205 0.026269585 -0.070945404 0.1043207 -0.089893654 0.1390548
-0.05127618 -0.03237102 0.08638226 -0.12534751 -0.12888907 -0.0073933373 0.09794942 -0.01607785
0.12287737 -0.054480042 0.023072047 -0.09281703 -0.048789043 0.10725148 0.069895595 -0.01033983
-0.052258916 -0.17160945 0.0799444 -0.06027779 -0.011619638 -0.10700174 0.05925249 -0.119430184
-0.073218815 -0.12687384 0.040763386 0.022506779 -0.0090564005 -0.047517885 -0.03223836 0.07391565
0.028978163 -0.019680865 0.053753 -0.03694508 -0.19665949 -0.06394314 0.015191801 0.051940527
-0.053369716 0.082080595 0.011209332 0.13245116 -0.03524186 -0.046582226 0.0036277806 0.21240392

fc2.bias f4 [256]
00000000: e56a 793e eda1 063e 0408 543d 6587 eb3c
00000010: 330e 403d c505 cc3d 974c cc3d a54b 80bd
00000020: 59aa 023e 8bc5 e1bc f1b0 ad3c 5e6d 9f3d
00000030: 14cb 153e ea04 f23d 7f32 3c3d 694e cfbc
00000040: 6c4f ce3d 894e 6f3d 17db 263d f521 0a3d
00000050: 58f5 323d fbea f93d 6adb b9bb cdff 423e
00000060: e6f3 c13d 87f3 bf3d e8ae 553c c8e9 19bc
00000070: 914f 8e3d 81ac 78bd 8d3b ecbc 73b0 9b3d
00000080: d1a6 a73d 11d7 e13d 433e b73a bdf5 973c
00000090: 76cc 053e 8fab 993d 5e49 39bd cf72 c63d
000000a0: 7298 2b3d 395b 333d 33c2 043e 71af f73c
000000b0: 6969 b8bd f920 2b3e e249 253e 2fdf 0a3d
000000c0: 769c 3b3d 3cec a53d ad07 183e 1c70 39bd
000000d0: 847e e53c d172 8bbc f3ee c63c 4c45 573d
000000e0: ab49 033e cf10 bb3d 78fd d33d c067 ae3c
000000f0: ad11 893c ca28 a43d b9bd ee3c 6ac8 183d
00000100: 74a0 833d d278 f03d bc32 b83d 0994 ce3d
00000110: c53e ed3b b6ef 213e 647b 213d 6f12 dd3d
00000120: 047e 40bc 0d38 7c3d 27e9 91bd 60c1 b63d
00000130: 2744 ca3d 3a40 493e b64b 923d 1767 7d3c
00000140: 4cbc 833d 8b63 873d 01dd 06bd 8a17 253d
00000150: 10c8 113e 1cb7 a83d a1f6 aabb 1d6a 993d
00000160: 08b8 713c 1f83 55bd 36fb 8abd fa95 0a3e
00000170: 6282 2bbb 3dc2 a83d d071 b53d 8962 9d3d
00000180: b682 2c3d fc70 3e3d 460d 09bc 1e51 883d
00000190: d486 e23d a916 aa3d 8692 453d 32e5 ca3c
000001a0: 1ea3 823d e617 6f3d 16fd 843b 9b25 453d
000001b0: 49de a33d bac0 3cbc dc08 bd3d 07a1 193a
000001c0: 70a3 193e a8e4 853b 8331 94bd 8773 853d
000001d0: 033c 6b3d 8aa6 1d3d 1279 1c3e cc4d 303e
000001e0: 6a8f 8e3d a1f0 b13d 5ab7 843d d0d7 6a3d
000001f0: a2bd 243e 23ab 84b9 2e78 a83c 37c4 fa3d
00000200: cc9a 103b 3f0b 593d 74d3 fabc 8491 803d
00000210: e3f1 563d a7d7 3b3c 58fa d13d 0296 673d
00000220: 3773 f43d 6190 223e 1b96 dc3d cd1e 283d
00000230: d83c 713d 3fb8 d73d 78eb d6bc 057c 823c
00000240: 09fc 043d 0c83 163d 11be 883c e40d ac3d
00000250: 5f81 013e 4598 cd3d 02ed 163e 7859 40bb
00000260: 08f5 713d 8303 81bd d2f4 f73a 974c ce3d
00000270: b7e7 02bc 1271 a23d 821f bd3d d13f d33d
00000280: 345b 033e 0757 2a3e 3ce0 49bc a7a4 a23c
00000290: 705d 6ebd 37c4 943d 29a4 2a3e 8ed0 ac3b
000002a0: 9f78 d03d 3038 e23d 2e75 c83d 56cb 0c3d
000002b0: 8a01 1a3e 102b f23d 904e 55bd 2f56 233d
000002c0: dc7b de3c 1d99 cfbc 40d5 183e f723 88bd
000002d0: b273 a3bc 95a5 0a3e 2834 e03d c4ae b33d
000002e0: 3602 953d 3ff2 183d 6032 193d 698d 1e3d
000002f0: da26 9e3d c572 ff3c b3d7 e1bc 5da5 de3d
00000300: 44c4 aa3c 2e08 8f3d 0ba6 5f3d 691b e93d
00000310: b447 2a3e e8da 58bc 46d5 853d 49ff 6c3d
00000320: 1994 7d3d 6713 1f3d fb69 0f3e b7f5 c53d
00000330: 5156 8a3c 0089 233d 64e8 b23d 3464 8a3d
00000340: 209e 273d f584 eb3d fb4e e13d 2aac 5d3b
00000350: 3c3d e43d 8898 023d 9ab1 043e 245d a63d
00000360: 2252 0bbd 9ce9 d03b 0b11 783d 7653 ddbc
00000370: 3d2e ad3c 1029 c43b 9d27 ff3d f5a0 2e3c
00000380: 8317 7b3c f1da b03d 3a63 b93d 35a1 b33d
00000390: bee8 ebbc 1a2d 843d 96a3 e33d 0813 7f3d
000003a0: 2545 3fbd af29 d73d 1ee4 ba3d 2886 103c
000003b0: 68de a73d 7ea1 c33c ce39 213e b918 39bd
000003c0: 7151 46bd 51fa 7b3d 5e49 c93d 7bce 1b3d
000003d0: 3939 583e cad4 d6bc 2d6b 053d 63a1 b03d
000003e0: 6e6d 883d 0edd 263c 06fd 693d 8377 793d
000003f0: d1a4 0f3c bf5d 483c d19e e13d aab8 b53d
0.24357183 0.13147707 0.051765457 0.028751085 0.04688854 0.09962038 0.09975546 -0.06264428
0.12760295 -0.027560016 0.021202536 0.07784532 0.1462825 0.118173435 0.045946594 -0.025305944
0.10073742 0.058424506 0.040736284 0.03372379 0.04369101 0.12203022 -0.005671908 0.19042893
0.09470348 0.09372621 0.013042189 -0.009394117 0.0694877 -0.060711388 -0.02883699 0.076020144
0.081861146 0.11027349 0.0013980347 0.018549794 0.13066277 0.07503425 -0.045235984 0.09689867
0.04189343 0.04378817 0.12964706 0.030235024 -0.090044804 0.16711797 0.16141465 0.03390425
0.04580351 0.08101699 0.14846678 -0.04527293 0.028014429 -0.017022522 0.024283862 0.05255632
0.12821071 0.09134065 0.1035108 0.021289706 0.016732061 0.080155924 0.029143201 0.037300505
0.064270884 0.11741795 0.08994052 0.10086829 0.0072401487 0.15814099 0.039424315 0.107945316
-0.0117487945 0.06157689 -0.071245484 0.08923602 0.0987628 0.19653407 0.07143347 0.015466473
0.06432399 0.06610783 -0.03292561 0.04030565 0.14236474 0.0823805 -0.0052173887 0.074909426
0.014753349 -0.052127 -0.06786196 0.13533774 -0.0026170244 0.08240173 0.08859599 0.0768481
0.042116843 0.04649447 -0.008364981 0.06656097 0.11060873 0.08305103 0.04823544 0.024767492
0.063787684 0.0583724 0.0040584905 0.048131566 0.08001382 -0.011520559 0.092302054 0.0005860482
0.15003753 0.004086096 -0.07236006 0.06516176 0.05743028 0.038488902 0.1528056 0.17217177
0.06960948 0.086884744 0.06480284 0.05733472 0.16087964 -0.0002530451 0.020565119 0.12244456
0.0022064922 0.05298924 -0.030618407 0.06277755 0.052476775 0.01146499 0.102528274 0.056539543
0.11936038 0.15875389 0.10770818 0.041045 0.058895916 0.10533189 -0.026235327 0.015928278
0.032466922 0.03674607 0.016692193 0.08401087 0.12647007 0.10038809 0.14738849 -0.0029350203
0.05907157 -0.06299498 0.0018917567 0.10073202 -0.007989815 0.07931723 0.09234525 0.103149064
0.1282776 0.16634761 -0.012321528 0.019853903 -0.058194578 0.072639875 0.16664185 0.005273885
0.10179257 0.11045873 0.09787975 0.034373604 0.1503965 0.1182462 -0.052076876 0.039877113
0.02715867 -0.025341565 0.14925098 -0.06647485 -0.019952629 0.13539727 0.10947448 0.08773568
0.07275812 0.0373404 0.037401557 0.038709078 0.07722254 0.031182656 -0.027568674 0.10871384
0.02084554 0.06983982 0.05460171 0.11382181 0.16628915 -0.013235785 0.06534819 0.057860646
0.061908815 0.038836863 0.14005272 0.09666007 0.016886862 0.039925575 0.08735731 0.067573935
0.040922284 0.11499969 0.110013925 0.0033824542 0.11144492 0.031883746 0.12958375 0.08123234
-0.034013875 0.0063755047 0.06056313 -0.027017336 0.021140212 0.0059863403 0.124587275 0.010658492
0.01532543 0.0863551 0.09052129 0.08770982 -0.028797504 0.06453915 0.11115186 0.06227401
-0.0466968 0.105059974 0.09125541 0.008821048 0.081967175 0.023880716 0.15744707 -0.045189593
-0.048417512 0.061518017 0.09828447 0.038038712 0.21115579 -0.026224513 0.032572914 0.08624532
0.06661497 0.0101845395 0.057126068 0.06090499 0.008767323 0.012229382 0.1101662 0.088731125

fc3.weight f4 [2, 256]
00000000: e10b 2fbe bfa9 853e 12a7 47bd 45bb f63d
00000010: 8337 85be e43d 00be 409c b23e a4a6 693e
00000020: ad3d 06be f455 4fbe 8868 c2bb 79fa 6c3e
00000030: 1c1d 8abe e5d5 963d 2b74 1d3d a6b1 853d
00000040: 1350 4abe e189 5dbe 8696 aa3e a0ae e33d
00000050: d8e7 a93e 56f8 10be c755 c93d 79fb 4dbe
00000060: 9643 b43e e2d2 e8bd f354 82be c6a5 863d
00000070: 908d 863e 2573 813e cefd 4c3e f2b8 37be
00000080: 3bcf d63d 1f85 cebd bd6b aa3d ce20 ea3e
00000090: 3250 1d3d b22a 6d3e e908 493e 7b90 60bd
000000a0: 3318 7e3e d13f e2bd 2a06 ccbd 546b 4ebe
000000b0: d5a1 313e 4c20 1bbc 08a5 47be ad64 213e
000000c0: c44a c83e de2d 4f3d dd05 983d 54f7 453e
000000d0: bad8 873e 9a4f 5f3e 5722 5d3e abc1 693e
000000e0: 9c43 953d 1c78 9dbd d786 87be feb5 59be
000000f0: a927 413e afa9 21be 12a5 5dbe 3300 61be
00000100: a934 053e 06b3 1e3e 48d6 46be 3eae 71be
00000110: f6be 763e 5669 59be 6953 533d 005c 2ebe
00000120: 610e 573e c8c2 773d 0814 5e3e 6996 4e3e
00000130: 001a e03e b106 973d 5db7 333e 6768 1b3e
00000140: f99d df3d 51b5 da3e 8325 293e 504d d13d
00000150: 2528 72be 8987 813e 66fd 593e f313 98bd
00000160: 4d5f 6e3e 7efb 123e bd66 1b3e bd93 1bbe
00000170: 959b 5c3d 3272 2c3d 6d26 ff3d 67cf d5bd
00000180: 8afa b33e 2378 77be 6930 813e c270 cc3b
00000190: 24e3 4ebd f578 303e d47e 91be 480b 623e
000001a0: e435 33be cc94 67be 5b3a f23e eec0 ec3e
000001b0: 3207 9e3e af00 b93e 01be 5ebe 8b13 0c3e
000001c0: 50c7 743e 8b50 923e f962 0e3e cac1 0a3e
000001d0: 553e 6b3e 1ac0 49be e0b1 18be 66f1 18be
000001e0: d1ee 813e 0be5 723e f927 f53e 4e9a 543e
000001f0: 8f54 d53d 1272 a03e 5510 d1bd de1e 87be
00000200: 50e0 573e d8c4 85be 7413 c73d fa33 b23e
00000210: 2a92 433e eb9b 1e3e 488d 3abc 4363 803e
00000220: 81d7 61be 14aa 5dbe 9c03 c43e 24c3 ac3e
00000230: 9dd3 103e 1e87 61be 7d8a 363e 48f1 593e
00000240: a8fe ab3e 9fb3 323e 80da 0b3e 9ab2 88be
00000250: 7c1a 8d3c 8e89 ab3e 557a 5fbd 44f8 2f3e
00000260: 9016 d03d 9617 073e 1db3 c93e 122f 7abe
00000270: 96b2 8b3e 2a6d 5c3e 487b 31be 5ef9 dabd
00000280: c867 b33d a51f 11be 2e49 573d 8249 133e
00000290: f62c 7c3d 2469 7e3d ee5a 41be e8b9 a93d
000002a0: ab30 85be 56c0 cc3d f3bc 5dbe 94e5 3c3e
000002b0: 42a9 1dbe 8840 15be e384 343e 0e6a 163e
000002c0: ca15 6c3e 4990 5c3e c1f9 e7bd 8799 f03d
000002d0: b1c4 6b3e fb4e 533e 98fd e73d fa13 283e
000002e0: 8f7f b43e 8ab7 a73e 80f4 6abe 6839 2d3e
000002f0: 3484 bc3e 9c3b c93e 4205 0a3e a623 a13e
00000300: 1150 e73d 02bb 36be 65c4 733e ea4d 08be
00000310: c6d6 46be 3f81 003e 7c92 0abe 269c 963e
00000320: 55ee 87be a910 36be 3fee 75be 28e7 8b3d
00000330: 3724 333e aaa3 dd3d 23c5 56be 81ed 8abe
00000340: c955 bb3e 55fe 70be 22ae d73c 0cb5 843e
00000350: ee4f ed3d 10cb 71be d65c 163d b0e2 0fbe
00000360: c01d 1d3e ad47 993e ab11 0d3e ac16 663e
00000370: a41e 933e 6aa9 56be 8bf7 8dbe 0a95 503e
00000380: 62ad 413e 9b28 57be 149f 8b3e 7753 8f3d
00000390: 6520 643d a94c 9abe cdf7 963d 901a 223e
000003a0: 7465 683d 0b61 94be a5df 373e 707e 133e
000003b0: 4d68 87be fa09 df3e ed0d 65be 3b3d 073e
000003c0: 6002 6a3e 1bbd dc3d e2a2 803e 637d 8b3e
000003d0: 3edf 903c ae0a fe3d dd7f 833d f21f c33c
000003e0: 0a1c 663e 17bd be3d c533 153c 7d43 dc3d
000003f0: 8574 b83e 211b ac3d ac1e 073e 05ca 963d
-0.17094375 0.26106068 -0.048743315 0.120474376 -0.26018915 -0.1252361 0.34884834 0.22817475
-0.13109465 -0.20247632 -0.0059328713 0.23142423 -0.26975334 0.07365016 0.038440865 0.065280244
-0.19757108 -0.21634628 0.33317965 0.111172915 0.33184695 -0.14157233 0.09830814 -0.2011546
0.35207814 -0.11368348 -0.25455436 0.065745875 0.2627988 0.2528316 0.20018694 -0.17941645
0.10488745 -0.100839846 0.08321331 0.45728153 0.03840656 0.23160818 0.19632305 -0.054825287
0.24813919 -0.11047328 -0.09962113 -0.2015813 0.1734689 -0.009468149 -0.19496548 0.15761061
0.39119542 0.05058085 0.07422993 0.1933263 0.26532537 0.2180771 0.21595131 0.22827785
0.07288286 -0.07688925 -0.26470062 -0.21260831 0.18862785 -0.15787385 -0.21645 -0.21972732
0.1300837 0.1549798 -0.1941768 -0.23601624 0.24096283 -0.21231589 0.051593218 -0.17027283
0.21001579 0.060488492 0.21687329 0.20174564 0.43769836 0.07374323 0.17550416 0.15176545
0.10918803 0.42716458 0.16518216 0.10219824 -0.23648126 0.25298718 0.2128807 -0.0742568
0.23278542 0.14353749 0.1517591 -0.15193076 0.053859312 0.042101093 0.12458501 -0.104399495
0.35152084 -0.24166922 0.25232247 0.0062390277 -0.050509587 0.17233641 -0.28417075 0.22074616
-0.17501026 -0.22615355 0.47310147 0.46240944 0.30864865 0.36133334 -0.21752168 0.1367933
0.23904157 0.28577074 0.13904943 0.13550487 0.22972997 -0.19702187 -0.14911604 -0.14935836
0.25377515 0.23720185 0.4788206 0.20761988 0.10416519 0.3133703 -0.10208193 -0.26390737
0.21081662 -0.26126742 0.09720507 0.3480528 0.19098726 0.15489165 -0.011386223 0.2507573
-0.22054864 -0.21646911 0.38284004 0.3374263 0.14143224 -0.220242 0.17826267 0.21283448
0.33592725 0.17451333 0.1365757 -0.26698762 0.017224543 0.33503383 -0.054560024 0.1718455
0.101605535 0.13192591 0.39394465 -0.24432018 0.27284688 0.21526018 -0.17332184 -0.10692094
0.08760029 -0.14172228 0.052560024 0.1438351 0.061566316 0.06211199 -0.18882343 0.08287412
-0.26013693 0.09997623 -0.2165411 0.18446952 -0.15396598 -0.14575398 0.17628817 0.14688894
0.23055187 0.21539415 -0.11326934 0.11748033 0.2302425 0.20635597 0.11327666 0.1641387
0.3525357 0.32757217 -0.22944832 0.1691643 0.36819613 0.3930329 0.13478568 0.3147251
0.11294568 -0.17844775 0.23805387 -0.13310972 -0.19417867 0.12549303 -0.13532442 0.29416007
-0.2654902 -0.17779793 -0.24016665 0.06831199 0.17494284 0.10822232 -0.20973639 -0.27134326
0.36588886 -0.2353452 0.02632815 0.25919378 0.11587511 -0.23612618 0.03670963 -0.14051318
0.1534338 0.29937497 0.13776271 0.22469586 0.28734314 -0.20963064 -0.27727923 0.20369354
0.18913797 -0.21011584 0.27269804 0.069983415 0.055694956 -0.30136612 0.07371483 0.15830445
0.05673738 -0.28980288 0.17956407 0.14403701 -0.26446763 0.435623 -0.22368594 0.13206951
0.22852468 0.107782565 0.2512427 0.272441 0.017684575 0.12404381 0.06420872 0.023818944
0.22471634 0.0931341 0.009106581 0.1075506 0.36026397 0.08403612 0.13195294 0.07362751

fc3.bias f4 [2]
00000000: 9017 aebc 30fa fbbb
-0.02125147 -0.007689737

bn.weight f4 [256]
00000000: 6e9f 903f 7fd5 153f 0360 343f a72d 843f
00000010: 6cee 3e3f 40b7 a33e 00b1 883f 6ad5 4e3e
00000020: a874 2b3f 229d 8c3f 9f71 be3e 24a9 1f3f
00000030: 83ad 9a3e 1f03 c83e a744 1a3f 1a88 833e
00000040: e14a 113f b0aa 2c3f 463b 953e 6715 ea3e
00000050: 689d 073f f136 1f3f 551f a43e 542a 653f
00000060: f0aa 5c3f e866 df3e 2592 793f b587 743f
00000070: 38e2 423f 529a b33e 9ce8 613f b2db ac3e
00000080: 2741 1c3f 6106 a53d 6a78 5d3f 1886 963f
00000090: 6157 8d3f 6254 4e3f 0612 0b3f 8e0e db3e
000000a0: ff84 d93e 5c31 bc3e a547 873f c2e8 883e
000000b0: 0f7b 7f3f 6a17 5c3f 42a7 093f 6f01 753e
000000c0: 44f7 ea3e 83fa 6b3f 2167 e63e 2bd2 1c3f
000000d0: 478b 6b3f ad58 7c3f a919 5d3f 25e9 ff3e
000000e0: a648 0f3f 0018 853f 8368 863f 397e cd3e
000000f0: 47c3 313f bbd5 013f e16e 853e a7b3 933e
00000100: aebd 5f3f 14e2 dc3e 4660 b73e df65 1f3f
00000110: ae2a 233f f97c a03d 759f 6f3f 0a0c e53e
00000120: 1a1d 5d3f 7f15 7a3f 12b4 c33e 096a f13e
00000130: 1d89 513f f770 fc3e 5603 423f eeee f33e
00000140: fed5 943e 69b8 d63e 7ca8 8c3e 3967 ec3e
00000150: 5636 653f 8400 2d3f 698b 4a3f a372 b53e
00000160: 226a 9b3e 6984 3f3f 8701 fb3e c1fe 663f
00000170: 266e 363e e8b9 eb3e 7ef4 8e3e e9f8 2e3f
00000180: c711 b13e bb02 643f 5f90 793f 1ad5 893e
00000190: 2bcb 893f 9ce2 7b3f b8b2 fa3e 6a56 013f
000001a0: 84f4 1b3f 1b1d df3e 8be2 203f ff01 823f
000001b0: d3a9 7a3f 339c 823f 854b fd3e 48a9 853f
000001c0: aa85 af3e 6c92 e53e d734 843f c30f d03e
000001d0: 4246 9b3e 004f db3e 742b 7d3f 207a 903f
000001e0: 2484 733f cfbc 573f c717 7a3f 2a46 703f
000001f0: 807b dc3e 8795 523f 42a6 893f 4c96 4a3f
00000200: 0a8f f73e 005c fe3e 1147 693e cc48 193f
00000210: ff0c 8b3f 6158 613f 0d82 433f b0ad 463f
00000220: b9d9 7e3f ac51 8b3f 786e 5d3e 5b11 583f
00000230: 75c6 503f bf4e 393f e481 a63e e27a f13e
00000240: aceb 9e3e b8e3 e63e 0232 c63e 4b99 413f
00000250: 77ab 8f3f e53e 163f 15c9 363e 0276 3f3e
00000260: 4b2f 903e d0d0 613e 9909 ec3e d260 973e
00000270: 0d60 623f 5e2f 543f c093 273f 7f01 0f3f
00000280: 5043 0c3f 1c93 2c3f 29e5 bf3e 714d 473f
00000290: 2f5c d93e 053f 1d3f 7b65 3b3f b1ce 9f3e
000002a0: e0d2 443f bfad 6c3e ef45 3e3f 5d5f 843f
000002b0: 11be 003f 6d20 553f 3f8a 493f c3fe 863f
000002c0: be20 3c3f 5e72 963f ed07 843f 635b 723f
000002d0: 0226 9e3e cd95 de3e 08ef ec3e 18dd 5b3f
000002e0: e8c6 793e a3d6 733f 42a3 a63e 0565 c03e
000002f0: b930 873e 0318 a73e dfb7 763f 6ff3 893e
00000300: 3aed 7a3f e357 3a3f 5a59 8b3f c315 593f
00000310: 1d93 483f 71de 4f3e 31ea 8d3f b835 6d3f
00000320: 5077 bcbd 16dd ff3e d056 183f c80e 263f
00000330: ef55 873f f74b 713f 6bd8 6f3f c5d2 0d3f
00000340: 8e16 5f3f 48e3 9e3e cbae 263f 8a33 203f
00000350: a012 8b3f c367 783f 7c0c 5b3f 0cb1 0e3f
00000360: 7909 753f 8c45 dc3e dcbe e03e 3025 143f
00000370: 7962 1b3f 5e53 5d3f 48a6 a63e be0e 553f
00000380: 4d15 773f 12db 583f 6f07 943f 7434 123f
00000390: 9d5c 423f 8afe 873f 3bf3 4e3f d5c3 883f
000003a0: af6f 113f a054 853f e3b1 103f 5ecf 373f
000003b0: 1ccf 233f 6153 9c3e b792 f93e 4ea9 283f
000003c0: 36ab 843e c626 103f 8563 813f 04e7 273f
000003d0: 9d53 d63e 7cd4 113f ed8c ac3e e496 853f
000003e0: 5ea6 753e 2b48 6c3f b60c ee3e 45d7 093f
000003f0: da1f 293d 6348 713f b2ea 533e 135d ba3e
1.1298654 0.58528894 0.70459 1.0326432 0.7458255 0.31975746 1.0679016 0.20198599
0.6697488 1.0985453 0.3719606 0.62367463 0.30210504 0.3906488 0.60261005 0.25689775
0.5675488 0.6744795 0.29146785 0.45719454 0.5297456 0.6219321 0.32055154 0.8951771
0.8619833 0.436332 0.97488624 0.9551957 0.7612643 0.35078675 0.8824556 0.33761364
0.61036915 0.08057857 0.8651186 1.1759672 1.1042291 0.8059751 0.54324377 0.42784542
0.4248428 0.36756408 1.0568739 0.2674008 0.9979715 0.8597323 0.5377084 0.23926328
0.45891774 0.92179126 0.45000556 0.6125819 0.92009395 0.9857281 0.8636728 0.49982563
0.5597023 1.0397949 1.0500644 0.40135363 0.69438595 0.5071675 0.26061156 0.28848
0.87398803 0.43141234 0.35815638 0.6226482 0.63737 0.07836337 0.9360269 0.44735748
0.8637253 0.9768905 0.3822332 0.4715121 0.81849843 0.49304935 0.7578634 0.47643226
0.29069513 0.4193757 0.27472293 0.46172503 0.89536035 0.6757891 0.79118973 0.35439023
0.3035441 0.74811417 0.49024603 0.90232474 0.17815456 0.46040273 0.27920908 0.68348557
0.34583876 0.89066666 0.9748592 0.26920396 1.0765127 0.98392653 0.48964477 0.5052248
0.60919976 0.43576893 0.6284568 1.0156859 0.9791538 1.0203918 0.4947168 1.0442286
0.34281665 0.44838274 1.0328625 0.40637025 0.3032704 0.4283371 0.9889443 1.128727
0.95123506 0.84272474 0.9769253 0.9385706 0.43062973 0.8225941 1.0753863 0.79135585
0.48351318 0.49679565 0.22781016 0.59876704 1.0863341 0.8802548 0.76370317 0.77608776
0.9955097 1.0884299 0.21624172 0.8440148 0.8155282 0.7238578 0.32520974 0.47164065
0.31039178 0.4509561 0.38710028 0.7562453 1.1224202 0.5868972 0.17850144 0.1869736
0.28161082 0.22052312 0.46101072 0.29566056 0.8842781 0.82884777 0.65459824 0.5586166
0.5479021 0.6741197 0.37479523 0.7785254 0.42453143 0.61424285 0.7320172 0.3121238
0.7688427 0.23113154 0.7432546 1.0341603 0.5029002 0.832526 0.7872657 1.0546497
0.7348746 1.1753652 1.0314919 0.94670695 0.30888373 0.43473664 0.46276116 0.8588424
0.24392283 0.95249385 0.3254643 0.37577072 0.2640436 0.32635507 0.96374315 0.26943538
0.9801823 0.72790354 1.0886643 0.8479883 0.7834948 0.20299698 1.1087095 0.92660093
-0.092024446 0.49973363 0.59507465 0.64866304 1.05731 0.9425654 0.936896 0.55399734
0.8714379 0.31032777 0.6511046 0.6257864 1.0865059 0.9703333 0.85565925 0.557389
0.9571758 0.4302181 0.43895614 0.57869244 0.6069713 0.86455333 0.32548738 0.8322562
0.9651688 0.84709275 1.1564769 0.5711129 0.75922567 1.0624554 0.8083989 1.0684763
0.5681104 1.041645 0.56521434 0.7180079 0.639879 0.30532363 0.48744747 0.6588334
0.25911874 0.56309164 1.0108496 0.65586877 0.41860667 0.5696485 0.33701268 1.0436673
0.23989245 0.9229762 0.46494073 0.538441 0.04129014 0.9425108 0.20694998 0.36399135

bn.bias f4 [256]
00000000: eb03 8d3b cdcd ef3c ae2d b43c dbc0 1dbd
00000010: 6d21 163d 49f5 0b3d 07dc fabc 0fe0 913d
00000020: 7098 f6bb 2a27 2b3a 3bf9 edbc 7af6 53bc
00000030: dced 74bc c2cf 873d 8917 3cbb 8d09 9d3d
00000040: 4898 25bd 6663 93bd 0012 fbbd f244 81bd
00000050: 0c76 ccbc 4076 2ebd 906d 07be 1032 8ebc
00000060: d9e5 83bc 3eac 48bc 6ca0 833c fb40 eb3c
00000070: 8e78 c8bd ad46 4a3d 50b5 493d 00b7 42bd
00000080: 0949 54bc c835 17be fe2e aebd 95b0 6a3d
00000090: 8a27 c1bb c606 21bc 5040 35ba 7adc 99bd
000000a0: 8cb6 2e3d 8282 aebb 71a5 353d 0ca7 013e
000000b0: f2d4 a63c fd38 bfbc bb24 f43a 559e 633c
000000c0: b4b0 1cbe 1d05 363c 735e 16bd 6624 003d
000000d0: a837 b03c 44ff ad3a 307e 4ebc 1d85 613d
000000e0: 8974 32bd f5c7 07bd fc68 d1bc 0c4d 03bd
000000f0: fe0d 883d 1ec4 2dbd ba73 3bbd f8bf 0f3d
00000100: d1cf ddbc 5336 68bd 6341 00bb 1486 9fbb
00000110: 7024 49bd e8ef 16be d45a 8c3c 5019 7abb
00000120: 7446 a6bc 0d42 78bc fa79 043d bd1c c6bd
00000130: af50 173c 4824 eebd 161f 9cbc 5faf c2bb
00000140: 9650 393e e117 70bc 9cdc 0d3c 79ed 97bd
00000150: c088 8abd 83d5 633d 9fb7 01bd a8a2 ed3d
00000160: 2992 c63b b14e 9abd 7ddb 46bc 674b 1e3c
00000170: 2990 023e 1913 2fbe af4f e3bc 194b ce3d
00000180: c7f0 9dbb 5346 eebd 7b35 e0bb c647 50bd
00000190: 7677 623c 66e2 e3bd f4ee 53bc 21a7 423d
000001a0: 664c ae3b e69b bbbc 62a7 4cbb 5251 13bc
000001b0: 9f62 7dbc 367b 2cbd a49c 683b 2b9f 0dbc
000001c0: 5db5 0e3d 002f 423d 35c6 ab3c 6724 c23d
000001d0: 93e0 09bc c51f 98bd 9275 193c 5ef7 84bc
000001e0: 179a d43a 4bad 30bc c4f1 4fbd 4311 97bc
000001f0: 825d a1bc 6dc1 1f3c ff83 693d 7925 643d
00000200: 4525 463e 10ef 15bd 561a c93d 9f42 aabd
00000210: 6b9f 35bd 5768 0e3c 9a8e a3bc 6f72 3c3c
00000220: 485b 303d 5e1c 1abc fb34 9cbd 361a 533c
00000230: a748 21bd a1bb 6fbc aad8 2b3d 36b1 26bd
00000240: 6429 8ebd 9f25 eebb 25ab 043c bba1 84bd
00000250: 5976 dbbb ea49 9bbd 75b5 a3bb a764 41be
00000260: 4b5e 10bd 525a bc3b 7b30 47bd a099 323d
00000270: 9c61 0f3d cc1b a43c 3ec8 d9bc 1aa4 58b8
00000280: bd72 903b 2a5d dcbc 1938 07be 178a bbbc
00000290: 9b05 ebbc 2587 d53c bbfb 3bbd 13b2 aabd
000002a0: b025 113d be42 ddbb 742e 1dbb 41ab 58bd
000002b0: 163a e5bc 86ed 613b 12ec 163d 6f25 c03c
000002c0: 40f9 c43c ddcc 43bd 3308 5bbd 9aea e5bb
000002d0: 1f69 51be c910 98ba fb28 59bd e8d6 abbc
000002e0: ecda 2c3d bba2 2dbb 2cef 2dbd 3cde 913b
000002f0: af43 82bd 94ff e8bd a755 1dbd d0dd d23d
00000300: 2a07 c7ba 1430 b83a 1116 f8bc 990c f7bd
00000310: 228d 933d de68 aabc 7cc2 8ebd 29e6 e1bc
00000320: 18bd 443e bc7e 8339 e3a4 ecbc 527a 193d
00000330: a760 30bd 605d 35bd 46ad bc3b a7b8 2b3b
00000340: 5460 453c 8536 57bc aa4f a43c bd17 0ebd
00000350: c46e 35bd efe4 be3d b271 c1bb 1bfd 7dbd
00000360: e21a 133c 2b1b 9bbd b1b2 3abd a6a3 67bc
00000370: 1288 70bd 319c 933d ea52 8d3c 3394 b8bc
00000380: d6b9 40bd e590 943c bb98 3c3b ae63 823b
00000390: d170 bf3c 5e45 a3bd 7a5e dcbc ae95 343d
000003a0: c2b1 f7bb 3b17 353d 24fc 2ebd 17d3 91bd
000003b0: adce 043d c236 8b3d 209f e9bc d633 9fbd
000003c0: 2de3 13bd 8d75 53bd 468a 003d f6d0 423d
000003d0: f1c9 85bc 7b98 b23c 3baf 7f3c 3823 32bd
000003e0: a191 8fbd 628a 3cbc e954 83bc d1cd 7dbc
000003f0: 8f2d 91bc 123b fabc 7eb4 c33d a48b 263e
0.0043034456 0.029272938 0.021994438 -0.038514 0.03665297 0.03416947 -0.030622495 0.07122814
-0.007525496 0.0006528968 -0.029049506 -0.012937183 -0.014949288 0.066314235 -0.0028700551 0.07667837
-0.04042843 -0.07196693 -0.122592926 -0.063119784 -0.024958633 -0.04259324 -0.13225389 -0.017357856
-0.01610081 -0.012248097 0.016067706 0.028717509 -0.09788619 0.049383808 0.04924518 -0.047537804
-0.012956866 -0.1476661 -0.08505057 0.057297308 -0.005894606 -0.009828275 -0.00069141854 -0.07512756
0.04265456 -0.0053256163 0.04434723 0.1266138 0.020365212 -0.023342604 0.0018626669 0.01389273
-0.15301782 0.011109618 -0.036711168 0.031284712 0.021510914 0.0013274928 -0.012603328 0.055058587
-0.043568168 -0.03314968 -0.025562756 -0.0320559 0.06643294 -0.04242336 -0.045764662 0.035095185
-0.027076634 -0.056692433 -0.0019570224 -0.0048682783 -0.049107015 -0.14739954 0.017133154 -0.003816206
-0.020297267 -0.0151524665 0.03234289 -0.0967345 0.009235545 -0.11628014 -0.019057792 -0.005941316
0.18097147 -0.014654131 0.008658554 -0.07418341 -0.06764364 0.055623543 -0.031669255 0.1160329
0.006059904 -0.075345404 -0.012137291 0.009661532 0.12750305 -0.17097129 -0.027747957 0.100729175
-0.0048199627 -0.11634507 -0.006842313 -0.0508497 0.013822427 -0.111271665 -0.012935389 0.047522668
0.005319166 -0.022901487 -0.0031227698 -0.008991556 -0.015465408 -0.04210969 0.0035493756 -0.008643906
0.03484093 0.047408104 0.020968536 0.094795994 -0.008415359 -0.074279346 0.00936641 -0.016231235
0.0016220239 -0.010783504 -0.050767675 -0.018440848 -0.019697908 0.009750706 0.057010647 0.0556998
0.19350155 -0.03660494 0.09819476 -0.08313488 -0.044341486 0.008691869 -0.019965459 0.0115018925
0.043055803 -0.009406177 -0.07627293 0.012884667 -0.039375927 -0.014632137 0.041954674 -0.040696345
-0.069414884 -0.0072676684 0.008097445 -0.0647616 -0.0066974577 -0.07582457 -0.0049959966 -0.18886052
-0.035246175 0.0057480717 -0.04863022 0.04360354 0.035005197 0.020032786 -0.02658474 -5.1651245e-05
0.004408209 -0.026899893 -0.13204993 -0.022892995 -0.028689196 0.026065418 -0.045894366 -0.08334746
0.035436332 -0.006752341 -0.0023983987 -0.052897695 -0.0279818 0.003447385 0.036846228 0.02345535
0.024044633 -0.047802795 -0.053474616 -0.007016492 -0.20450257 -0.0011601682 -0.053017598 -0.020976499
0.042200968 -0.00264947 -0.04246442 0.004451541 -0.06360566 -0.11376873 -0.038411763 0.102962136
-0.001518463 0.0014052414 -0.03028396 -0.1206295 0.07204653 -0.020801958 -0.06970689 -0.02757557
0.19212759 0.00025080692 -0.028887218 0.03747017 -0.043060925 -0.044278502 0.0057579605 0.002620259
0.012046892 -0.013135557 0.020057518 -0.034690607 -0.044295087 0.09321009 -0.005903446 -0.06200896
0.008978577 -0.07573541 -0.04558057 -0.014138138 -0.058723517 0.072075255 0.01725145 -0.022531604
-0.047052227 0.018135497 0.0028777558 0.003979168 0.023369225 -0.07972215 -0.026900519 0.04408806
-0.007559032 0.044211607 -0.04272093 -0.0712034 0.032423664 0.067975536 -0.02851826 -0.07773559
-0.036105324 -0.051625777 0.031381868 0.047562562 -0.016331645 0.021801224 0.015605743 -0.04349062
-0.070101984 -0.011507602 -0.0160317 -0.015490965 -0.01772192 -0.030545745 0.095559105 0.16264206

bn.running_mean f4 [256]
00000000: 0400 0000 b07e 423d ca9d 1b3f 5795 0e40
00000010: 162c 7f3e 29f3 1340 51be 9e3f e201 8f3c
00000020: 006d 3b3b e55f 7d3e d416 d03e 6a11 e339
00000030: 39bc 713f bd12 803f aa53 393f 7942 0940
00000040: cdda 1740 a185 533f 4301 573c 0e88 623d
00000050: 3793 133d 7582 483f 8a89 3c3f 02b0 663f
00000060: b6ca b83d 6e10 b73f e067 d13e c657 9a3d
00000070: 9b5a ac3c b9b6 093f 0c80 e83f 1e8b ce3b
00000080: e38e 3e3e ea5d 8d3f 7031 0e40 3359 cd3f
00000090: 069e d83f 6a6f c73f 1eaa de3f 2e31 c33e
000000a0: 6607 f63f ec28 c03f ea70 0e3e 88e1 0b39
000000b0: 9fa2 e73e 5bd4 5b3f 2941 0340 0400 0000
000000c0: 2101 193e dd8e e73e afa3 a53f f488 6c3f
000000d0: 4292 693f ec0c 8c3e 466c ac3e c9bb da3e
000000e0: df86 013e 7766 583d 5abc c43d 9500 f43f
000000f0: 1602 5f3f 9886 c53f 8902 883f 29bc f43e
00000100: d9e6 873e 2270 ca3d 5265 1e3f 7edd cd3e
00000110: ae11 2340 456f 7c3f 0e9b e53e ed62 dd3f
00000120: 5e40 c33e e6df f93c a3be 433e 4c0f 5614
00000130: 0bf4 633f 0551 d63f 8961 ec3f 55d9 3f3a
00000140: aafa 0a3d b242 043e 0400 0000 bb8d 153b
00000150: 1aab 9a3f 7ec1 d53f 40aa 2f3f 0217 763a
00000160: 6376 ea3b 68ac 213d 4824 923f f104 b53d
00000170: 5d21 e63f 1642 c03e da2a 163d 56db bf3e
00000180: c84c ca3f 79d4 0f3a 80a1 e43e 58b6 b63c
00000190: 741f 5a3e c0b0 3e3e ad2d a83f 2bdb 413f
000001a0: 98a2 113c ddd8 613c 0400 0000 0d43 c83d
000001b0: 4137 743e 3e45 b13e 0400 0000 9bbb 223f
000001c0: f6d4 5f3f 0375 a43e 95cf d73b f885 443f
000001d0: 19b5 2740 2c87 0540 03f6 b03e 860d 4b3e
000001e0: 8f6e 0f3f ef0c c13e 62c1 913f c33e 9e3e
000001f0: 0400 0000 6ddf 0b40 1902 9a3e 0f88 573f
00000200: 32e3 4640 adf3 133f 60dd a33f 2f07 333f
00000210: 0400 0000 f37d 963f 6648 0d3e 2d89 c23f
00000220: 3d8c 893c 3a02 8b3d 30e8 eb3e 35b6 7c3f
00000230: 6ece 2240 45f8 073f 6f97 0a3e 8556 e43e
00000240: 3a4b af3e ec65 e83e 2e31 a23e 049f 7d3f
00000250: b376 0b3e dd57 363f 2028 0c40 24c9 a43f
00000260: 9930 563f 0b7d 123d 6337 0c3f bcd6 9b3f
00000270: ba28 cd3e e535 8f3f a478 183e 5bee 5d3f
00000280: e4b7 023f 10a9 1b3f b158 1b3e 5bb0 403f
00000290: d944 d23d e4da cc3f 779d a03e ead1 9e3f
000002a0: 683c c03e 2031 933e 9d0f ce3f 1781 e63f
000002b0: fcde 8b37 4112 0b3e 4904 503f e459 c93e
000002c0: 0baa 5e3f 86ad b43d 238d fe3c 781d 263f
000002d0: 0400 0000 5efa a43f fd62 0540 d9a1 b03f
000002e0: 0421 423f 1dfc 683e 6aef 393e ed60 143e
000002f0: fdbb c13f fceb c13e 735e d73f b137 943f
00000300: 304b 223f 5b1b 493f 4d12 883f 3ccb 9b3f
00000310: 68e0 db3f f219 1d3f 95a1 6e3f ea1e ae3f
00000320: 026c 9f3e eac6 313e a554 dd3e 7f45 863e
00000330: 8005 b33f 991f c23f 3a5c 483e 1c63 7e3f
00000340: dd97 f33e b47b 873f d46a 533e 7d6f 9f3f
00000350: 0ebc 533e afad c63f 0bfd b43f 342d 3f3f
00000360: 291c 3a3e eb2d e83f 150d 0a40 18cc 1f3d
00000370: 0400 0000 9f09 703f d064 153f c4cf 613b
00000380: 1c0a 4d3f 0839 a13e 2dce de3f a958 143e
00000390: cb0b a83f a71a 983f 0f9e 8e3f c6cf 7c3f
000003a0: 3dac 153d 0400 0000 2408 2f40 86eb c439
000003b0: de8c 1340 81c7 3c3d b0c7 f63c 6374 2240
000003c0: 6ed0 9e3f 3ca3 b03e ec7b 053f 3094 5c3f
000003d0: 9079 133d 3d1a c73f 19fc ed3e b963 b33f
000003e0: 384a be3f 0400 0000 740b 983f c0e0 043f
000003f0: c061 1740 771c 333f f6a7 903f e5ab 0a3b
6e-45 0.0474841 0.6078764 2.227865 0.24919161 2.3117163 1.240183 0.017456952
0.0028598905 0.24743612 0.40642416 0.00043309788 0.9442783 1.0005718 0.72393286 2.1446822
2.3727295 0.82625777 0.013122859 0.055305533 0.036029067 0.7832406 0.7364737 0.90112317
0.09023039 1.4301889 0.40899563 0.07536273 0.021039298 0.5379444 1.8164077 0.006303205
0.18609194 1.1044285 2.2217674 1.6042846 1.6923225 1.5580876 1.7395666 0.3812346
1.9221008 1.5012488 0.13910261 0.0001334009 0.45241258 0.85870904 2.050852 6e-45
0.14941837 0.45226184 1.2940577 0.92396474 0.91238797 0.2735361 0.33676356 0.42721394
0.12649105 0.052832093 0.09606238 1.9062678 0.8711256 1.54317 1.0625774 0.47799805
0.2654331 0.09884669 0.6187335 0.40208048 2.547954 0.98607284 0.4484486 1.7295815
0.38135046 0.03050227 0.19115691 1.0807256e-26 0.89044255 1.6743475 1.8467265 0.0007318457
0.033930458 0.12916067 6e-45 0.0022820074 1.2083466 1.6699674 0.68619156 0.00093875837
0.007155226 0.03947106 1.1417322 0.08838833 1.7978932 0.3755042 0.03666196 0.37472028
1.5804682 0.0005486678 0.44654465 0.022303745 0.21301061 0.18622112 1.3138939 0.7572505
0.008888863 0.013784614 6e-45 0.09778414 0.23849203 0.3462314 6e-45 0.63567513
0.8743433 0.32120523 0.006586025 0.7676692 2.6204283 2.0863752 0.34562692 0.19829378
0.56028074 0.3770518 1.1387141 0.30907258 6e-45 2.1855118 0.30079725 0.84191984
3.107617 0.57793695 1.2801933 0.69932836 6e-45 1.1757187 0.13797149 1.5198113
0.016790504 0.06787534 0.46075583 0.98715526 2.5438495 0.53113204 0.1353433 0.4459726
0.3423708 0.4539026 0.31678146 0.99070764 0.13619499 0.7122782 2.189949 1.2873883
0.83667904 0.03576378 0.54772013 1.2174907 0.40070134 1.1188322 0.14889771 0.86691827
0.51061845 0.60804844 0.15170552 0.752691 0.10267038 1.60043 0.31370136 1.2407811
0.37546086 0.28748417 1.6098515 1.8008145 1.6673926e-05 0.13581182 0.8125654 0.39326394
0.86978215 0.088221595 0.031073159 0.64888716 6e-45 1.2888906 2.0841668 1.3799392
0.7583163 0.22752424 0.18157735 0.14490099 1.5135494 0.37875354 1.6825699 1.1579496
0.6339598 0.78557366 1.0630585 1.2171397 1.7177858 0.61367714 0.93215305 1.3603184
0.3113709 0.17361036 0.4322864 0.26224896 1.3986053 1.5165893 0.19566432 0.9936998
0.475768 1.0584626 0.2064622 1.2455899 0.20677206 1.5521754 1.4139723 0.7467835
0.18174805 1.8139013 2.1570485 0.039013 6e-45 0.9376468 0.5835695 0.0034456113
0.8009355 0.31488824 1.740667 0.14486946 1.3128599 1.1883134 1.1141986 0.9875454
0.036541212 6e-45 2.7348719 0.00037559512 2.3054729 0.0460887 0.030124515 2.5383537
1.2407358 0.34499538 0.52142215 0.86163616 0.036004603 1.5554882 0.46481398 1.4014808
1.48664 6e-45 1.1878495 0.5190544 2.3653412 0.6996531 1.1301258 0.0021159586
