checkpoint_critic_agent_1.pth (torch_old, 324044 bytes, 9 tensors)

fc1.weight f4 [256, 52]
0	0x3e00763a	0.125451
1	0x3e12f5d8	0.14351594
2	0x3c992974	0.018696524
3	0x3a8356d2	0.0010020381
4	0xbe04a86c	-0.12954873
5	0x3e32f120	0.17474794
6	0x3bb78846	0.005600962
7	0x3c0211a6	0.007938778
8	0x3df2236b	0.11823162
9	0x3e8a78d3	0.27045307
10	0xbe4a82c4	-0.19776446
11	0x3df60cc6	0.12014155
12	0xbd18f135	-0.037339408
13	0x3e214c78	0.15751827
14	0xbe8554a2	-0.26041132
15	0x3e1a85e9	0.15090145
16	0x3e1d3188	0.15350926
17	0x3e9ae78b	0.30254778
18	0xbd6bff22	-0.05761636
19	0x3ea43f1d	0.32079402
20	0x3da78f70	0.081816554
21	0x3e78563e	0.24251649
22	0xbddfbeb4	-0.109250456
23	0x3e57e733	0.21084289
24	0x3e0a660c	0.1351549
25	0x3f06c5b1	0.52645403
26	0xbe0b5829	-0.13607849
27	0xbd53fd3e	-0.051755182
28	0x3e539519	0.20662345
29	0x3e3c6cfb	0.18400948
30	0xbdc89a28	-0.09795028
31	0xbd8099e7	-0.062793545
32	0x3e01d4ee	0.12678882
33	0x3f0df0fd	0.55445844
34	0xbd8034d9	-0.0626008
35	0xbe86d0ea	-0.26331264
36	0x3d5fafb4	0.054610923
37	0x3e051ad8	0.12998521
38	0xbdfdb363	-0.12387731
39	0xbe954b44	-0.29158986
40	0x3e095046	0.13409528
41	0x3efb8e13	0.49131832
42	0x3d952be4	0.07283762
43	0x3d864964	0.06556967
44	0x3c89140c	0.016733192
45	0x3e61ab06	0.22037897
46	0x3d9cdd1e	0.07659362
47	0x3e0b319d	0.13593145
48	0x3e9ea3f6	0.30984467
49	0x3edd5c2c	0.43234384
50	0xbeb5eaf3	-0.35530815
51	0x3c8fda29	0.017560082
52	0x3d6fb9b6	0.058526717
53	0x3f2dc185	0.6787341
54	0x3c187cdf	0.009307115
55	0xbe8bf56f	-0.27335688
56	0xbdc92f0e	-0.09823428
57	0x3efba1cf	0.49146888
58	0xbc71ecd3	-0.014765936
59	0xbe8dfe29	-0.2773297
60	0x3e758394	0.23975974
61	0x3eeee573	0.4665943
62	0xbd8286c6	-0.06373362
63	0xbcc6656b	-0.024218282
64	0x3e090268	0.13379824
65	0x3ee5e751	0.44903043
66	0xbd49ef76	-0.049300633
67	0x3bc3e2db	0.005977971
68	0x3e9dc90b	0.30817446
69	0x3f1bdc98	0.60883474
70	0xbcdf6f5d	-0.027274782
71	0xbc0dd127	-0.008655823
72	0x3ec83278	0.39101005
73	0x3e8908ae	0.26764435
74	0xbcd7df97	-0.026351733
75	0xbd34b3fc	-0.04411696
76	0x3def2395	0.116767086
77	0xbfcc51f2	-1.5962508
78	0xbc4c6143	-0.012474361
79	0x3ea704da	0.3262089
80	0x3dc50c7a	0.0962152
81	0x3edd99f9	0.43281534
82	0xbca6912e	-0.020332899
83	0x3ea0f108	0.31433892
84	0x3ea8165d	0.32829562
85	0xbfc0646b	-1.5030645
86	0xbd1268fb	-0.03574465
87	0x3db82198	0.089907825
88	0xbe1e328a	-0.15448967
89	0x3efcd2bd	0.4937953
90	0xbda1df78	-0.079039514
91	0x3d7e41b2	0.06207437
92	0x3e9c8ea7	0.30577585
93	0xbfbceeb7	-1.476035
94	0xbd2b564c	-0.041830346
95	0x3ea8c664	0.3296386
96	0xbec6f80c	-0.3886112
97	0x3eb0fb52	0.34566742
98	0xbccf4e0b	-0.025305768
99	0x3e98db64	0.29854882
100	0xbff85251	-1.9400121
101	0xbf43f61d	-0.76547414
102	0xc038b9c1	-2.8863375
103	0x3d7e90cb	0.062149804
104	0xbeb4c322	-0.35305125
105	0xbe7084e8	-0.234882
106	0xbc24887b	-0.010042305
107	0xbd4a837c	-0.0494418
108	0xbf45c94b	-0.77260274
109	0xbd0d0a68	-0.034433752
110	0x3cbe9e2a	0.023268778
111	0xbd0920ea	-0.033478655
112	0x3e9c0136	0.30469674
113	0xbe30aaa1	-0.1725259
114	0x3e45a3cb	0.19300763
115	0xbd610067	-0.054932024
116	0xbf7c88d2	-0.9864627
117	0xbd9f182d	-0.07768283
118	0x3e393cd1	0.18089606
119	0xbcd85b65	-0.026410768
120	0x3f311b0a	0.69181883
121	0xbdb7582e	-0.08952366
122	0xbc8899af	-0.016674845
123	0xbda85bb7	-0.08220618
124	0xbfc68b94	-1.5511346
125	0x3cc46a7b	0.023976555
126	0x3ada8ff0	0.0016674977
127	0xbdd4571b	-0.103681765
128	0x3ca32e48	0.01991953
129	0x3ea77e6a	0.32713634
130	0xbcdc9daf	-0.026930658
131	0x3d1642bf	0.036684748
132	0x3f48d0d5	0.7844365
133	0xbd62eabc	-0.05539964
134	0x3bf44647	0.007454667
135	0x3e05f902	0.1308327
136	0x3d4da89a	0.05020962
137	0x3f1ffb92	0.6249324
138	0x3d09c346	0.033633493
139	0x3c1b88c9	0.009493061
140	0x3f83b7a3	1.0290416
141	0xbd8d51a7	-0.069003396
142	0xbd05e2e0	-0.032687068
143	0xbd5969d4	-0.05307944
144	0x3da9dbe8	0.08293897
145	0x3f0bac21	0.5455952
146	0x3ce1e322	0.027574126
147	0xbdfe80cc	-0.1242691
148	0x3fc7c0d0	1.5605717
149	0xbc7675de	-0.01504275
150	0xbd1161c6	-0.035493635
151	0xbd50c051	-0.050964657
152	0x3eefc4bf	0.46829793
153	0xbd90bfe2	-0.07067849
154	0xbe4f2d4e	-0.20232126
155	0xbf23fac3	-0.64054507
156	0xbd9c76fa	-0.076398805
157	0xbe108157	-0.14111839
158	0x3b649158	0.003487667
159	0x3e09c849	0.13455309
160	0xbdf77238	-0.120823324
161	0x3ea0b42f	0.3138747
162	0xbd182a51	-0.03714973
163	0x3e1c4a4d	0.15262718
164	0xbc1eab93	-0.009684461
165	0xbd081ecf	-0.033232506
166	0x3d017f5a	0.031615593
167	0xbd0966ef	-0.03354543
168	0xbf273fcd	-0.6533173
169	0x3e2493c4	0.16071993
170	0xbd89fa9c	-0.06737253
171	0x3d0d3247	0.034471776
172	0x3e5c2189	0.21497168
173	0x3d802da4	0.06258705
174	0x3c90107f	0.017585991
175	0x3d03e8e6	0.03220453
176	0xc03bf862	-2.937035
177	0x3e29c669	0.16579594
178	0xbb53cac6	-0.0032316907
179	0xbd46849d	-0.048466314
180	0x3e5f942a	0.21833864
181	0x3f1536d2	0.58286774
182	0x3cf7d8d1	0.030254753
183	0x3e810985	0.25202575
184	0x3e0b5960	0.13608313
185	0x3e81a579	0.25321558
186	0xbd1cd95f	-0.03829324
187	0x3e2d420f	0.1691973
188	0xbcd30b15	-0.02576212
189	0x3f6e415a	0.9306847
190	0x3ca232f6	0.01979969
191	0x3d5723a4	0.052524224
192	0x3f3f4223	0.7471029
193	0x3e5b6e46	0.21428785
194	0xbca3792e	-0.019955244
195	0x3e19774d	0.14986916
196	0xbd27e174	-0.040986493
197	0x3f53d491	0.82746226
198	0xba658df8	-0.0008756812
199	0xbd136dfe	-0.03599357
200	0x403e4688	2.973055
201	0x3dd5c319	0.104376025
202	0x3bb723b1	0.0055889715
203	0x3d141829	0.036155853
204	0xbe616476	-0.22010979
205	0xbd5a0cf3	-0.053235006
206	0xbe2a5408	-0.16633618
207	0x3ca4b723	0.020106858
208	0x3f075b9e	0.5287417
209	0x3e7fe0f3	0.24988155
210	0xbabc8078	-0.0014381548
211	0xbe56e7d9	-0.2098688
212	0xbf196d50	-0.5993242
213	0xbe1f70c2	-0.15570357
214	0xbd5c68cc	-0.05381088
215	0xbe8d2613	-0.2756811
216	0x3ea8be59	0.32957724
217	0x3f32b752	0.69810975
218	0xbe8c30b9	-0.27380922
219	0x3da21699	0.079144664
220	0xbebb9cc7	-0.3664305
221	0xbe8f9d47	-0.2804968
222	0xbe940ea0	-0.28917408
223	0x3e288a78	0.16459072
224	0x3ec8aa9b	0.39192662
225	0x3f778326	0.9668449
226	0x3e3d27b9	0.18472184
227	0x3e6f90db	0.23395102
228	0x3d901f85	0.07037262
229	0xbe8142a2	-0.2524615
230	0x3de219ec	0.110401005
231	0x3e8df317	0.27724525
232	0x3e82f443	0.25576982
233	0x3ce75391	0.02823809
234	0x3d03a34a	0.032138146
235	0x3e5c5ae4	0.21519047
236	0x3f1a2876	0.6021799
237	0xbe3ca906	-0.18423852
238	0xbb9b77d6	-0.00474451
239	0x3e994253	0.29933414
240	0x3e85515e	0.2603864
241	0x3db85500	0.090005875
242	0xbd63933d	-0.05556034
243	0xbe508f1b	-0.2036709
244	0x3eaed603	0.34147653
245	0xbe5e28bf	-0.21695231
246	0xbd5ae14f	-0.053437527
247	0xbe4f96d7	-0.20272385
248	0x3e9539d4	0.29145682
249	0x3e0b0e1d	0.13579603
250	0xbe07da7b	-0.13266937
251	0xbcc72b55	-0.024312655
252	0xbdcaeaab	-0.099080406
253	0xbe48448b	-0.19557397
254	0xbe30abdf	-0.17253064
255	0xbc338f47	-0.010959453

fc1.bias f4 [256]
0	0xbe91f2cc	-0.28505552
1	0xbef15ba6	-0.47140235
2	0xbeae603f	-0.34057805
3	0x3dcc4474	0.09973994
4	0xbeaab159	-0.3333843
5	0xbebfa972	-0.37433964
6	0xbe8ecfed	-0.2789301
7	0xbf40ea00	-0.75357056
8	0xbebb7fce	-0.36620945
9	0xbf1edf20	-0.6205921
10	0xbe23f5d8	-0.1601175
11	0xbda8a308	-0.08234221
12	0xbed8733c	-0.42275417
13	0xbf067dcc	-0.525357
14	0xbdd45453	-0.10367646
15	0xbf18559a	-0.5950562
16	0xbded657d	-0.11591623
17	0xbd79f1e3	-0.061021697
18	0xbf0e70e6	-0.5564102
19	0xbf004cab	-0.50116986
20	0x3c86c300	0.016450405
21	0x3d36310f	0.04448038
22	0xbe63f4b4	-0.22261316
23	0xbd2ca0be	-0.042145483
24	0xbf36bde3	-0.71383494
25	0xbeff3bc5	-0.49850288
26	0xbdf468ea	-0.11934073
27	0xbf40a016	-0.7524427
28	0xbe1ba65f	-0.15200184
29	0x3c545ec6	0.012962049
30	0xbf1b5157	-0.6067099
31	0xbd8d2d0b	-0.06893357
32	0xbf75ccc9	-0.960156
33	0xbc923eca	-0.017852206
34	0xbebb34b6	-0.36563653
35	0x3da8bd44	0.082392246
36	0xbf49969d	-0.7874544
37	0xbf3f17f2	-0.7464591
38	0xbf37f3d0	-0.71856403
39	0xbe9de783	-0.30840692
40	0xbe6b7676	-0.22994408
41	0xbfaf635e	-1.37022
42	0x3d989b40	0.074514866
43	0xbf79c218	-0.9756179
44	0xbe510d5a	-0.2041525
45	0xbdd604e7	-0.10450154
46	0x3e38ca85	0.18046005
47	0xbdc10afe	-0.09425925
48	0xbdae12ae	-0.084996566
49	0xbe3f2b75	-0.18668921
50	0x3da4ff9b	0.080565654
51	0xbbdb222a	-0.0066874223
52	0xbf11311c	-0.5671556
53	0xbf13d709	-0.5774999
54	0xbe6b4890	-0.22976899
55	0x3d072728	0.032996327
56	0x3c788b11	0.015169875
57	0xbf988e6e	-1.1918466
58	0xbe7059f5	-0.23471816
59	0xbea6a32a	-0.3254636
60	0xbe863852	-0.26214844
61	0xbeea10a0	-0.4571581
62	0xbf0bd85b	-0.5462701
63	0x3e76869b	0.24074785
64	0xbf07bcb1	-0.53022295
65	0xbf1e0e05	-0.6174014
66	0xbf0dbc47	-0.55365413
67	0xbefb329d	-0.49062052
68	0xbeb14a38	-0.34626937
69	0xbe1467e8	-0.14492762
70	0xbf1f8017	-0.62304825
71	0xbf313c9d	-0.69233114
72	0xbe9d69ec	-0.30744874
73	0xbcd853f5	-0.026407221
74	0xbe944b10	-0.28963518
75	0xbe679bcd	-0.22618027
76	0xbea26959	-0.31721
77	0xbdcde4c9	-0.10053403
78	0xbe346dfa	-0.17620078
79	0xbe714510	-0.23561502
80	0xbe7e25b5	-0.24819072
81	0xbdb72f88	-0.08944613
82	0xbe2aedd2	-0.16692284
83	0xbf028df5	-0.5099786
84	0xbf065ffd	-0.52490216
85	0xbe1ba3cb	-0.15199201
86	0xbe54f642	-0.20797065
87	0xbef0e70e	-0.4705128
88	0xbd8e0156	-0.069338486
89	0xbf0320a9	-0.5122171
90	0xbe98aa83	-0.2981759
91	0xbf0e7274	-0.5564339
92	0xbef3e098	-0.4763229
93	0xbe93e383	-0.28884515
94	0xbf050717	-0.51963943
95	0xbf0e5968	-0.55605173
96	0xbefee75f	-0.49785897
97	0x3a7a275a	0.0009542607
98	0xbf0b72f0	-0.54472256
99	0xbe15d7e3	-0.14633135
100	0xbf5f2b0d	-0.87175065
101	0xbf08122f	-0.53152746
102	0xbf5232af	-0.8210859
103	0xbebb883a	-0.3662737
104	0xbf210703	-0.62901324
105	0xbf42fa3e	-0.7616309
106	0xbe07b832	-0.13253859
107	0xbe1c8d79	-0.15288343
108	0xbf494702	-0.78623974
109	0xbf62ce35	-0.88595897
110	0xbea2a105	-0.31763473
111	0xbea508bb	-0.32233223
112	0xbeaba40c	-0.33523595
113	0xbed9c3c0	-0.42532158
114	0xbe6f96b2	-0.2339733
115	0xbee9a686	-0.4563486
116	0xbf306c95	-0.68915683
117	0xbe59ab24	-0.21256691
118	0x3cf0cfd9	0.029395984
119	0xbea88be9	-0.32919243
120	0xbeebac67	-0.4602997
121	0xbd5cde58	-0.05392298
122	0xbedfb3a5	-0.43691745
123	0xbe355ef8	-0.17712009
124	0xbf1ef32e	-0.6208981
125	0xbee59798	-0.4484222
126	0xbf034868	-0.5128236
127	0xbed2c0fe	-0.41162866
128	0xbe8dd465	-0.27701107
129	0xbebdd246	-0.37074488
130	0xbefc926a	-0.49330455
131	0xbeb6bc9a	-0.35690767
132	0xbcfac81f	-0.030613003
133	0xbf3a214c	-0.72707057
134	0xbf536c5a	-0.82587206
135	0xbeffd534	-0.4996735
136	0xbe7576ff	-0.23971175
137	0xbed1f329	-0.4100583
138	0xbdf6687d	-0.12031648
139	0xbf428642	-0.7598611
140	0xbf27b455	-0.6550954
141	0xbf1f96b0	-0.62339306
142	0xbe875612	-0.26432854
143	0xbf0356ea	-0.51304495
144	0xbf16d93e	-0.58925235
145	0xbe938bc9	-0.28817585
146	0xbe5f36b4	-0.21798211
147	0xbe9861df	-0.2976217
148	0xbd1ae14d	-0.03781252
149	0xbec3ef0a	-0.3826831
150	0xbee8af90	-0.45446444
151	0xbf1e08ef	-0.6173238
152	0xbc5a5053	-0.013324815
153	0xbda004ba	-0.078134015
154	0xbda762a7	-0.08173113
155	0xbeb0f6dd	-0.34563342
156	0xbea3c8b9	-0.31989077
157	0xbf887ef8	-1.0663748
158	0xbe8e8232	-0.27833706
159	0xbeae2f54	-0.34020483
160	0xbee78c74	-0.45224345
161	0x3d2904fa	0.04126451
162	0xbee2f713	-0.44329128
163	0xbf14c03b	-0.5810582
164	0xbea672d6	-0.32509488
165	0xbeebac65	-0.46029964
166	0xbf8573fb	-1.042602
167	0xbee05230	-0.43812704
168	0xbdcf9552	-0.101359025
169	0xbd62ee31	-0.05540294
170	0xbf850286	-1.0391395
171	0xbf1bec5f	-0.6090755
172	0xbec7754c	-0.38956678
173	0xbea93fc1	-0.33056453
174	0xbe10e325	-0.14149149
175	0x3d9fbe8a	0.07800014
176	0xbf2def9f	-0.6794376
177	0xbf527e90	-0.8222437
178	0x3e5f102f	0.21783517
179	0xbf208764	-0.6270659
180	0xbdd455ca	-0.103679255
181	0xbf7cc32f	-0.98735327
182	0xbe955532	-0.2916656
183	0xbf7b1449	-0.9807783
184	0xbf3b7320	-0.7322254
185	0xbe6977f5	-0.22799666
186	0x3d1d2514	0.03836544
187	0xbdbc90b1	-0.09207285
188	0x3dc6b547	0.09702545
189	0xbeeb4900	-0.45954132
190	0x3ee936d8	0.45549655
191	0xbec8ed67	-0.39243624
192	0xbf2c777e	-0.6736983
193	0xbf243142	-0.6413766
194	0xbe8063ba	-0.25076085
195	0xbe0404e0	-0.12892485
196	0xbef5dc2d	-0.48019543
197	0xbd94e193	-0.07269587
198	0xbe06fc70	-0.13182235
199	0xbe29a53f	-0.16566943
200	0xbef4764d	-0.47746506
201	0xbea1740d	-0.31533852
202	0xbf030040	-0.51172256
203	0xbe80ac97	-0.25131676
204	0xbed11019	-0.40832594
205	0xbcccb68b	-0.024989387
206	0xbefe4c47	-0.4966757
207	0xbe93e126	-0.28882712
208	0xbc8f73ff	-0.017511366
209	0xbf6a32d2	-0.91483796
210	0xbea46345	-0.32106987
211	0x3c6bd97c	0.014395114
212	0xbe1b7d69	-0.15184559
213	0xbe8f103a	-0.27942067
214	0xbf42f46c	-0.7615421
215	0xbe70374c	-0.23458594
216	0xbf34910f	-0.7053384
217	0xbf06b2bc	-0.52616477
218	0xbe7c7650	-0.24654508
219	0xbe3985d4	-0.18117458
220	0xbe7898a0	-0.24276972
221	0xbf05cd6e	-0.52266586
222	0xbf0f4d7c	-0.55977607
223	0x3dc2b67e	0.09507464
224	0xbee02edd	-0.43785754
225	0x3e6af242	0.22943977
226	0xbcf408e0	-0.029789388
227	0xbe139c00	-0.14414978
228	0xbdca8026	-0.098877236
229	0x3ba54239	0.0050432947
230	0xbe5f4446	-0.21803388
231	0xbef92359	-0.4865978
232	0xbe1ebec2	-0.15502456
233	0xbe80056a	-0.2500413
234	0x3c7cb169	0.015423157
235	0xbede7ea0	-0.43455982
236	0xbeb44e1c	-0.35215843
237	0xbf47cb06	-0.78044164
238	0xbec05993	-0.3756834
239	0xbce86b94	-0.02837161
240	0xbf262455	-0.6489919
241	0xbf81e643	-1.0148395
242	0xbf687c07	-0.9081425
243	0xbed5f448	-0.41787934
244	0xbf31b8df	-0.69422716
245	0xbf3f4d28	-0.74727106
246	0xbe962476	-0.29324692
247	0xbfb0f74d	-1.382547
248	0xbc0652a3	-0.008198413
249	0xbe97ddc2	-0.29661375
250	0x3db5e135	0.088808455
251	0xbeba4d61	-0.3638716
252	0xbf398a2b	-0.7247645
253	0xbea11b53	-0.3146616
254	0xbe03e82f	-0.1288154
255	0x3e93c307	0.28859732

fc2.weight f4 [256, 256]
0	0x3d165059	0.03669772
1	0x3ca0d123	0.019630974
2	0x3bd2f3fd	0.006437777
3	0xbd9e2242	-0.07721378
4	0xbe8585bb	-0.2607859
5	0xbd7052c6	-0.05867269
6	0xbe29c34f	-0.1657841
7	0x3c86d2a4	0.016457863
8	0x3d4080ba	0.046997763
9	0xbcb0d52a	-0.02158602
10	0xbd422c12	-0.04740531
11	0xbd6651fd	-0.056230534
12	0xbb89f20e	-0.0042097634
13	0xbd106045	-0.03524806
14	0x3c620d78	0.0137971565
15	0xbdaa5141	-0.08316279
16	0xbc259a19	-0.0101075405
17	0xbd868282	-0.06567861
18	0xbcceec82	-0.02525926
19	0xbd2dc3e8	-0.04242316
20	0xbdc2b42c	-0.09507021
21	0x3d808062	0.06274487
22	0xbd8343d7	-0.06409424
23	0x3c899613	0.016795194
24	0xbc8a419c	-0.016876988
25	0xbd4ef19c	-0.050523385
26	0xbda7be66	-0.081906125
27	0xbb4060ee	-0.002935465
28	0x3d5d99de	0.054101817
29	0xbd8354e6	-0.064126775
30	0x3cb178a8	0.021663979
31	0xbdb68789	-0.0891257
32	0xbc05e70f	-0.008172764
33	0xbc69c0ef	-0.01426719
34	0xbe3a95c4	-0.18221194
35	0xbe3eed86	-0.18645296
36	0xbb92a956	-0.004475753
37	0x3d1af483	0.03783084
38	0x3d01ba73	0.031671952
39	0xbd68259e	-0.0566765
40	0x3c60e8dd	0.013727394
41	0xbd585463	-0.052814852
42	0xbd8926ea	-0.066968754
43	0x3dbac171	0.09118927
44	0x3c88520a	0.016640682
45	0xbd3a4e09	-0.045484576
46	0xbd473657	-0.048635807
47	0x3de651f8	0.11246103
48	0x3df9a9f9	0.12190623
49	0x3cc5b19a	0.024132539
50	0x3e14096c	0.14456719
51	0xbe20fe2f	-0.15721963
52	0xbda93f14	-0.08263984
53	0x3d00ebf8	0.031475037
54	0x3cd9ab31	0.026570888
55	0xbd8a813f	-0.06762933
56	0xbe0d94f3	-0.13826351
57	0x3d2f0355	0.042727787
58	0x3d621ae2	0.05520142
59	0x3b46864c	0.003029245
60	0xbccf1c10	-0.025281936
61	0xbce8ff71	-0.028442116
62	0xbdb35f01	-0.08758355
63	0xbe2dcfe9	-0.16973843
64	0x3e1216f0	0.14266562
65	0x3dcc704b	0.09982356
66	0x3db3e297	0.08783453
67	0xbe0fe922	-0.14053777
68	0x3df22f74	0.11825457
69	0xbd552537	-0.052037444
70	0x3d54eeb2	0.05198545
71	0x3b1f6207	0.0024319903
72	0xbce42e39	-0.027854072
73	0x3dc67987	0.09691148
74	0xbd27af6d	-0.040938783
75	0x3cd14fdf	0.02555078
76	0x3d41edfe	0.047346108
77	0x3da7c3eb	0.08191665
78	0x3c77343b	0.015088136
79	0xbd5aa250	-0.05337745
80	0x3b5850cd	0.0033007145
81	0xbcd92686	-0.026507627
82	0xbca568e4	-0.020191617
83	0xbe0b486c	-0.13601846
84	0xbe1dd93d	-0.15414901
85	0xbd52c5de	-0.051458232
86	0x3d0d855a	0.034551002
87	0xbc396c68	-0.01131735
88	0xbd9af31a	-0.07565899
89	0xbd2fe408	-0.042942077
90	0xbe25c308	-0.1618768
91	0x3cb8d856	0.022564095
92	0xbca4532a	-0.020059187
93	0xbd855cf0	-0.06511867
94	0xbd9eda26	-0.07756452
95	0xbd348d7b	-0.04408024
96	0x3da00810	0.07814038
97	0xbc95c2a0	-0.018281281
98	0x3b1fc9cf	0.0024381762
99	0x3d107813	0.03527076
100	0x3e070437	0.13185202
101	0xbc9895c1	-0.018626096
102	0x3b063754	0.0020479755
103	0xbdd709ce	-0.10499917
104	0xbca546e0	-0.020175397
105	0x3d0e3865	0.03472175
106	0x3a1f14dd	0.00060684775
107	0xbe5482c4	-0.20753008
108	0x3d57db2f	0.052699264
109	0x3e016252	0.12635162
110	0xbe00ac6d	-0.12565775
111	0x3d32c1cb	0.043641847
112	0x3e2b619b	0.16736452
113	0xbd89c74b	-0.06727465
114	0x3d0fd21e	0.035112493
115	0xbc9f0f58	-0.019416496
116	0xbd2c51fc	-0.042070374
117	0xbd6ac05e	-0.057312362
118	0xbb1cfe39	-0.002395524
119	0xbdfd766d	-0.123761036
120	0xbd5d1f00	-0.053984642
121	0x3c3139fe	0.010817049
122	0x3db02673	0.086010836
123	0xbd841b1d	-0.06450484
124	0x3bdd27fc	0.0067491513
125	0xbbabd18e	-0.0052434867
126	0xbd0ae36c	-0.033908293
127	0xbdc7f3a8	-0.097632706
128	0xbba5d4ca	-0.005060767
129	0x3c440c5a	0.0119658355
130	0xbd9d9c00	-0.0769577
131	0x3d8498f3	0.06474485
132	0xbe540cd3	-0.20708017
133	0xbc970a86	-0.018437635
134	0x3d299026	0.041397236
135	0xbe29c74c	-0.16579932
136	0x3c95f43b	0.018304935
137	0xbd4b9ed2	-0.04971201
138	0xbd92ea3e	-0.071735844
139	0xbd66f03f	-0.05638146
140	0xbd5edce2	-0.05440987
141	0xbbcac0df	-0.006187543
142	0x3d029493	0.031879973
143	0x3e5845d3	0.21120386
144	0xbc3b8157	-0.011444411
145	0xbdaa8e52	-0.08327927
146	0x3aa4d1f5	0.0012574779
147	0x3cd2486a	0.025669295
148	0xbd225253	-0.03962929
149	0xbe45dfeb	-0.19323699
150	0x3b32339e	0.002719141
151	0xbd4e6154	-0.050385788
152	0x3dc31de4	0.095271856
153	0xbe163bdf	-0.14671277
154	0x3dc73ff5	0.09728996
155	0xbd0a896d	-0.033822466
156	0xbdb762dd	-0.089544035
157	0xbbae8078	-0.0053253733
158	0xbd2f5b0e	-0.042811446
159	0x3e186646	0.14882764
160	0x3d4ba82e	0.049720936
161	0x3c9d1729	0.019176083
162	0x3c8e82f4	0.017396428
163	0xbc0f2149	-0.008735963
164	0xbd409ed0	-0.047026455
165	0xbdbb669a	-0.09150429
166	0xbd4437c7	-0.047904756
167	0xbdde1b61	-0.10845066
168	0x3d32bd78	0.043637723
169	0xbcc20c8b	-0.023687622
170	0x3d842ae1	0.06453491
171	0xbbbb6f95	-0.0057200887
172	0xbe159094	-0.14605933
173	0xbd8ce58e	-0.068797216
174	0xbd884833	-0.06654396
175	0x3d54eec4	0.051985517
176	0xbd29ecfc	-0.04148577
177	0xbd85bd29	-0.0653022
178	0x3cc48e62	0.023993675
179	0x3d5a1aba	0.053248145
180	0xbdaffbf5	-0.08592979
181	0xbdb1873a	-0.086683705
182	0xbd218c9e	-0.039440744
183	0x3d18ccb4	0.037304595
184	0xbd0659cc	-0.03280048
185	0xbd28bc40	-0.041195154
186	0xbd301009	-0.042984042
187	0xbdbcab90	-0.092124104
188	0x3d0732d1	0.033007447
189	0xbcf25c6d	-0.029585088
190	0xbdd27788	-0.10276705
191	0xbd9bedf0	-0.07613742
192	0x3b7b8418	0.0038378295
193	0x3b540665	0.0032352444
194	0x3d967860	0.073471785
195	0x3d8ce5ba	0.06879754
196	0xbd82930a	-0.06375702
197	0xbbcb2795	-0.006199787
198	0x3da753c5	0.08170275
199	0xbc2e45d1	-0.010636763
200	0x3d3464c5	0.044041414
201	0xbcf46900	-0.029835224
202	0xbce8d385	-0.028421173
203	0x3d59fc3b	0.05321906
204	0xbdd5e150	-0.104433656
205	0xbe30d581	-0.17268945
206	0x3c893e92	0.016753469
207	0xbd9a954f	-0.075480096
208	0xbe881c43	-0.26584062
209	0xbccf38c4	-0.025295623
210	0x3d393fdc	0.045226917
211	0xbe04bcd6	-0.1296266
212	0xbd5e931e	-0.05433952
213	0xbbfe1b15	-0.0077546933
214	0x3cffb814	0.031215705
215	0x3d4f1d72	0.05056519
216	0xbda8b38f	-0.08237373
217	0xbc89d73d	-0.016826266
218	0x3b8b7aac	0.004256567
219	0xbdd1a784	-0.10237029
220	0xbdf03ef4	-0.11730757
221	0xbdf2b4ca	-0.11850889
222	0xbd7a443a	-0.061100222
223	0xbd327884	-0.043571964
224	0xbc73d4e0	-0.014882296
225	0xbced2e03	-0.028952604
226	0xbd2033bf	-0.03911185
227	0xbd1f6c53	-0.038921665
228	0xbdac7de8	-0.08422452
229	0x3dd7d7da	0.10539217
230	0xbc6cb4eb	-0.014447431
231	0x3d7dfc93	0.06200845
232	0xbe10e6ff	-0.14150618
233	0x3c95d88b	0.018291732
234	0xbc15e4bb	-0.009148772
235	0xbd5b5cf9	-0.053555463
236	0x3d8641b5	0.06555501
237	0x3d0fb46f	0.035084184
238	0x3da16eec	0.07882485
239	0x3b67f2de	0.0035392563
240	0x3c7d2cc0	0.015452564
241	0x3cb71abd	0.022351617
242	0x3dc3a8e8	0.09553701
243	0xbcc75d07	-0.024336351
244	0x3d1db76a	0.038504995
245	0x3db270f9	0.08712954
246	0xbc6731c8	-0.01411099
247	0xbb99a54f	-0.004688896
248	0xbe06d3de	-0.13166758
249	0xbd1ba218	-0.03799638
250	0xbd3e42c8	-0.046450406
251	0x3e0fe89c	0.14053577
252	0x3d1e226c	0.038607046
253	0xbc9de925	-0.019276211
254	0x3deed2b0	0.11661279
255	0x3d63c085	0.055603523

fc2.bias f4 [256]
0	0xbe050c03	-0.12992863
1	0xbdd7d55b	-0.10538741
2	0xbe5bea9b	-0.21476214
3	0xbe4d9eb4	-0.20080072
4	0xbe450876	-0.19241509
5	0xbded421f	-0.11584877
6	0xbe02491f	-0.12723206
7	0xbe6cd392	-0.23127583
8	0xbe1007f8	-0.1406554
9	0xbe2eb69a	-0.17061844
10	0xbe83dc70	-0.25754118
11	0xbe2463f6	-0.16053757
12	0xbe2f2e53	-0.17107515
13	0xbe113c71	-0.14183213
14	0xbe262e34	-0.16228563
15	0xbe47d25c	-0.1951384
16	0xbe3c267c	-0.18374056
17	0xbde19749	-0.110151835
18	0xbe136c61	-0.14396812
19	0xbe0441e0	-0.12915754
20	0xbdcc7a78	-0.099842966
21	0xbe8ed83b	-0.27899346
22	0xbe617a79	-0.22019376
23	0xbe4078b3	-0.18796043
24	0xbe7d200d	-0.24719258
25	0xbe2b0784	-0.16702086
26	0xbec707be	-0.38873094
27	0xbe53ae58	-0.20671976
28	0xbe3ae194	-0.18250114
29	0xbe58cd4f	-0.21172069
30	0xbe309bde	-0.17246959
31	0xbe1dda71	-0.1541536
32	0xbcea0062	-0.028564636
33	0xbe066ed4	-0.13128215
34	0xbe28d023	-0.16485648
35	0xbd7a9e0a	-0.061185874
36	0xbe515cee	-0.20445606
37	0x3c0fb604	0.008771423
38	0xbe5133e7	-0.20429955
39	0xbe23f9da	-0.1601328
40	0xbe04ffb0	-0.12988162
41	0xbe95fa13	-0.29292354
42	0xbe31611d	-0.17322202
43	0xbe19d1a0	-0.15021372
44	0xbddafeb3	-0.10693111
45	0xbcf460d2	-0.029831324
46	0xbdd7bbb9	-0.10533852
47	0xbdd2c7a1	-0.102919824
48	0xbe15a9f9	-0.1461562
49	0xbe356326	-0.17713603
50	0xbe27b9ff	-0.16379546
51	0xbdafa277	-0.085759096
52	0xbe2a0191	-0.1660216
53	0xbe0091b1	-0.12555577
54	0xbe05de18	-0.13073003
55	0xbe150611	-0.14553095
56	0xbdf91091	-0.12161363
57	0xbdb3fd46	-0.087885424
58	0xbd6896fa	-0.056784607
59	0xbe4f97c2	-0.20272735
60	0xbe6532d4	-0.2238267
61	0xbe152dd6	-0.14568266
62	0xbdb3f343	-0.08786633
63	0xbe380c7b	-0.17973511
64	0xbe82b7d9	-0.2553089
65	0xbde865b7	-0.113475256
66	0xbd93e33b	-0.07221075
67	0xbdd92ca1	-0.106042154
68	0xbe1a615b	-0.150762
69	0xbe18a5ae	-0.14906952
70	0xbe36e21c	-0.17859691
71	0xbe00aa12	-0.12564877
72	0xbe36efe7	-0.17864953
73	0xbdf49de1	-0.119441755
74	0xbe2d2146	-0.16907224
75	0xbdc75125	-0.09732274
76	0xbe5197de	-0.20468089
77	0xbe189ddc	-0.14903969
78	0xbe336d3e	-0.17522141
79	0xbe0d222e	-0.1378257
80	0xbdf77d90	-0.12084496
81	0xbe157556	-0.14595541
82	0xbe55fbb5	-0.208968
83	0xbdeb0d8f	-0.114771955
84	0xbe1c2eab	-0.15252177
85	0xbe11316d	-0.1417901
86	0xbe694950	-0.22781873
87	0xbe1b5a02	-0.15171054
88	0xbdd7aa89	-0.10530574
89	0xbdb4f5cf	-0.08835947
90	0xbe2b6d08	-0.16740811
91	0xbe110e5c	-0.14165634
92	0xbe40f51c	-0.18843502
93	0xbdb26333	-0.08710327
94	0xbe820ebf	-0.25401875
95	0xbdf31266	-0.118687436
96	0xbe2807de	-0.16409251
97	0xbe204b62	-0.15653756
98	0xbe814262	-0.2524596
99	0xbe34746b	-0.17622535
100	0xbdf75c4e	-0.120781526
101	0xbdfc8291	-0.12329591
102	0xbdb3edfd	-0.08785627
103	0xbe5cd814	-0.21566802
104	0xbebb108a	-0.36536056
105	0xbe2c0b3d	-0.16801162
106	0xbe540bb8	-0.20707595
107	0xbe11e9de	-0.1424937
108	0xbe02d5c9	-0.12776865
109	0xbe343d95	-0.17601617
110	0xbe028ecd	-0.12749787
111	0xbe409a14	-0.18808776
112	0xbe1a6d43	-0.15080743
113	0xbe0cb8d3	-0.1374238
114	0xbe1268d6	-0.14297804
115	0xbe1f68fd	-0.15567394
116	0xbe1806de	-0.1484637
117	0xbe828ceb	-0.25498137
118	0xbe37f8d8	-0.1796602
119	0xbe0aae55	-0.13543065
120	0xbe14443b	-0.14479153
121	0xbddbef10	-0.10738957
122	0xbe2c23d8	-0.16810548
123	0xbe09ea86	-0.1346837
124	0xbdb10732	-0.086439505
125	0xbebedfe3	-0.37280187
126	0xbe3aa980	-0.18228722
127	0xbe922c65	-0.28549495
128	0xbdf4e3d3	-0.119575165
129	0xbd6f1836	-0.0583727
130	0xbe265bad	-0.16245909
131	0xbdbcc4a4	-0.09217194
132	0xbdf4551e	-0.11930297
133	0xbe8e9a58	-0.2785213
134	0xbda2c891	-0.07948411
135	0xbe44766f	-0.19185804
136	0xbe8936eb	-0.26799712
137	0xbe8ee5aa	-0.27909595
138	0xbda355b7	-0.07975333
139	0xbd92b837	-0.071640424
140	0xbd3f1fd3	-0.04666121
141	0xbe59b8a3	-0.2126184
142	0xbe4bbadc	-0.198955
143	0xbe3904ff	-0.18068312
144	0xbe561730	-0.20907283
145	0xbdf6768e	-0.12034331
146	0xbe9be8f1	-0.30451158
147	0xbe3d8f94	-0.18511802
148	0xbe325536	-0.17415318
149	0xbe89d692	-0.26921517
150	0xbe1dc0f6	-0.1540564
151	0xbe51c3b1	-0.20484807
152	0xbe8ad493	-0.27115306
153	0xbe2c9336	-0.16853032
154	0xbdec0a21	-0.115253694
155	0xbe8bbe39	-0.27293566
156	0xbdb35bad	-0.0875772
157	0xbe265b6d	-0.16245814
158	0xbe826072	-0.25464207
159	0xbdf387f3	-0.11891165
160	0xbe560657	-0.20900856
161	0xbd9e21b2	-0.077212706
162	0xbe31c3d4	-0.17359859
163	0xbde3a66d	-0.111157276
164	0xbe3749b5	-0.17899211
165	0xbda02919	-0.07820339
166	0xbdf219f1	-0.11821354
167	0xbe8efc29	-0.27926758
168	0xbe2d7ed5	-0.16942914
169	0xbe8aba5d	-0.2709531
170	0xbed0c35e	-0.40774053
171	0xbe05e278	-0.13074672
172	0xbdbb7961	-0.091540106
173	0xbe1849eb	-0.14871947
174	0xbe37b12a	-0.17938676
175	0xbe9313b8	-0.28725982
176	0xbe1e20e6	-0.15442237
177	0xbe1283d6	-0.14308104
178	0xbee1a1ac	-0.44068658
179	0xbe1267fc	-0.1429748
180	0xbdd5871c	-0.10426161
181	0xbe5eb050	-0.21746945
182	0xbe3cbb5c	-0.18430847
183	0xbc7341f7	-0.01484727
184	0xbe6bcfb8	-0.23028457
185	0xbddaa4df	-0.10675978
186	0xbe7674ac	-0.24067944
187	0x3e3a1266	0.18171081
188	0xbdb9bd24	-0.09069279
189	0xbdd4250f	-0.10358631
190	0xbe5dc9f9	-0.21659078
191	0xbe8b4749	-0.27202824
192	0xbde30d2c	-0.11086497
193	0xbe237ad1	-0.1596482
194	0xbe162c23	-0.14665274
195	0xbd6dd345	-0.05806281
196	0xbe6d04f2	-0.23146418
197	0xbe21ba6b	-0.15793769
198	0xbc87ae2c	-0.016562544
199	0xbe3990c1	-0.18121625
200	0xbeb7097d	-0.35749426
201	0xbe8eda17	-0.27900764
202	0xbd9b4475	-0.075814165
203	0xbdfbcbef	-0.122947566
204	0xbe6b4866	-0.22976837
205	0xbe0b6333	-0.1361206
206	0xbe58ee3d	-0.2118463
207	0xbdf5a6c9	-0.11994702
208	0xbe60c50e	-0.2195017
209	0xbdad6ab2	-0.08467616
210	0xbde111af	-0.10989701
211	0xbe8132e4	-0.2523414
212	0xbdbe9020	-0.093048334
213	0xbe69750f	-0.2279856
214	0xbe592d89	-0.21208777
215	0xbe523ca7	-0.2053095
216	0xbe0c8bc2	-0.13725188
217	0xbdf024db	-0.117257796
218	0xbdf16312	-0.11786474
219	0x3dcc0bb0	0.09963167
220	0xbe0a8e3c	-0.1353082
221	0xbe0b76c0	-0.13619518
222	0xbe33df70	-0.17565703
223	0xbeccef33	-0.40026245
224	0xbde8e360	-0.11371493
225	0xbdedd8fb	-0.11613651
226	0xbddfdc84	-0.10930732
227	0xbe8af575	-0.27140394
228	0xbe66fd5f	-0.22557591
229	0xbe172bc7	-0.14762793
230	0xbdebaafb	-0.11507221
231	0xbe5b68ff	-0.21426772
232	0xbdeead5d	-0.1165416
233	0xbe5c08c1	-0.21487714
234	0xbe1ef36d	-0.15522547
235	0xbe450c8e	-0.1924307
236	0xbe5c5d00	-0.21519852
237	0xbe182deb	-0.14861266
238	0xbeac7962	-0.33686358
239	0xbdca4728	-0.09876853
240	0xbd88b26e	-0.06674658
241	0xbe35a77d	-0.17739673
242	0xbe8f0958	-0.27936816
243	0xbe32b05b	-0.17450087
244	0xbe12da80	-0.14341164
245	0xbe9d8f02	-0.3077317
246	0xbea5951a	-0.32340318
247	0xbe67c539	-0.22633828
248	0xbe0df886	-0.13864335
249	0xbe3280af	-0.17431901
250	0xbe3bc578	-0.18337047
251	0xbdcec7f4	-0.10096732
252	0xbd70d549	-0.058797155
253	0xbde00989	-0.10939319
254	0xbe2334f4	-0.15938169
255	0xbe043ba2	-0.12913373

fc3.weight f4 [1, 256]
0	0x3c0fc0bc	0.008773979
1	0x3b24b334	0.0025131227
2	0x3c536c39	0.01290422
3	0x3caefb71	0.021360131
4	0xbc06ccac	-0.0082275085
5	0x3c633250	0.013866976
6	0x3b7b27ea	0.0038323351
7	0xbc85927c	-0.0163052
8	0x3a9d72f8	0.0012012413
9	0xbcc7631f	-0.024339257
10	0xbca1f650	-0.019770771
11	0x3c04b802	0.0081005115
12	0xbc14bb28	-0.009077825
13	0x3c930443	0.017946368
14	0xbc10f12d	-0.008846563
15	0xbc72456b	-0.014787058
16	0xbc835549	-0.016031878
17	0xbcc16dbc	-0.023611896
18	0x3c6d9edb	0.014503206
19	0x3ba82c40	0.005132228
20	0x3cb5a041	0.022171142
21	0xbc085ed1	-0.008323387
22	0xbbea1c3f	-0.0071444805
23	0x3be3a720	0.006947413
24	0xbc443472	-0.011975395
25	0x3c116764	0.008874748
26	0xbc32f103	-0.0109217195
27	0x3c05debc	0.00817078
28	0x3c42589d	0.011861947
29	0x3c35b313	0.011090058
30	0xbc867b50	-0.016416222
31	0x3b52782d	0.0032115087
32	0xbd630784	-0.05542709
33	0xbd4954aa	-0.049153008
34	0x3cdf5141	0.027260425
35	0x3cab293f	0.020893691
36	0xbbc838e4	-0.0061102975
37	0x3cff4769	0.03116198
38	0xbc8a08a2	-0.01684982
39	0xbcd9859d	-0.02655297
40	0xbb90b024	-0.004415529
41	0x3c4c6d8d	0.012477291
42	0x3c3c89ce	0.011507465
43	0xbc68a530	-0.01419954
44	0xbc286a81	-0.010279299
45	0xbcf0d336	-0.029397588
46	0x3c0c1b3d	0.008551416
47	0xbc339395	-0.010960479
48	0xbc607919	-0.013700747
49	0xbb6b5f0b	-0.0035914804
50	0x3bf0eb63	0.007352279
51	0xbc8cb407	-0.017175687
52	0x3bdc8a0d	0.006730324
53	0xbc1cd8ef	-0.009573205
54	0xbc81c501	-0.01584101
55	0xbc6dfd22	-0.014525684
56	0x3ceeafb7	0.029136522
57	0x3cbc59ea	0.022992093
58	0xbd0ec097	-0.034851637
59	0xba01a6e8	-0.00049458304
60	0x3bedc16e	0.0072557246
61	0xbe1349e5	-0.14383657
62	0x3cf57466	0.02996273
63	0xbb64c041	-0.0034904631
64	0xb8caa31f	-9.662494e-05
65	0x3c241120	0.010013849
66	0x3d30abe9	0.043132696
67	0xbbc50d94	-0.0060135815
68	0xbc0c806c	-0.00857554
69	0xbc5df974	-0.013548244
70	0x3c03ac2d	0.008036655
71	0x3c4ab271	0.012371645
72	0xbc5d0618	-0.013490222
73	0x3c54b824	0.012983356
74	0x3c8e8da7	0.01740153
75	0x3b387f26	0.0028151958
76	0xbc9c0d69	-0.019049363
77	0x3cebeb1a	0.028798629
78	0x3cac2cfa	0.02101754
79	0x3b586dde	0.003302447
80	0xbc746428	-0.014916457
81	0xbc7a1333	-0.0152633665
82	0x3a73003b	0.00092697487
83	0x3c23f50e	0.010007156
84	0xbb75e65c	-0.0037521338
85	0xba3e7457	-0.0007265261
86	0xbc158c94	-0.009127755
87	0xbcb88c09	-0.022527711
88	0xbc898569	-0.016787248
89	0x3bd7ae8f	0.0065820883
90	0x3c53c7fe	0.0129261
91	0x3c992152	0.018692646
92	0x3c425f1a	0.011863494
93	0x3d1114cd	0.035420228
94	0xbc803fbb	-0.015655389
95	0x3c2c2d5e	0.010508863
96	0xbae0cacd	-0.0017150283
97	0x3b2071c1	0.0024481865
98	0xbd0e53f1	-0.03474802
99	0x3cd65827	0.026165081
100	0xbc9e43f7	-0.019319518
101	0xbbc6dbc0	-0.0060686767
102	0xbbc3b4ff	-0.005972504
103	0xbab19c1d	-0.0013550554
104	0x3cd89000	0.026435852
105	0xbcb26263	-0.02177543
106	0xbb2c2d77	-0.0026272216
107	0x3c2b667d	0.010461447
108	0x3a299e05	0.0006470385
109	0x3b958ed1	0.004564144
110	0x3c6235eb	0.0138068
111	0x3b6be43a	0.0035994188
112	0xbccb9cb7	-0.024855
113	0x3d84e5bf	0.06489133
114	0xbe130e06	-0.14360818
115	0x3b48a046	0.0030613109
116	0x3cc648de	0.024204668
117	0xbbe7039d	-0.0070499913
118	0xbb7b531e	-0.0038349102
119	0xbbfa7450	-0.00764326
120	0x3c942428	0.018083647
121	0xbbba01a9	-0.0056764674
122	0xbdd9d4ca	-0.106362894
123	0xbc1a2b1e	-0.009409694
124	0x3c9bd1b3	0.01902089
125	0xbbca4852	-0.006173172
126	0x3e9d9f11	0.3078542
127	0xbd1809ad	-0.037118603
128	0xbb24ddeb	-0.0025156687
129	0x3a593dea	0.0008287119
130	0x3cefcd3e	0.029272672
131	0xbc49526d	-0.012287718
132	0xbbd73bcc	-0.0065684076
133	0xbc3ebfa8	-0.011642374
134	0x3bc21054	0.0059223566
135	0x3b57415e	0.0032845358
136	0xb9db71fa	-0.00041855854
137	0x3c9fb60f	0.019495992
138	0x3cd55529	0.026041584
139	0x3c98bfc8	0.018646136
140	0x3d64181e	0.055687062
141	0xbc28068f	-0.01025547
142	0xbc029336	-0.007969668
143	0x3b7c783a	0.003852381
144	0xba4ccfc0	-0.00078129396
145	0x3b957ef8	0.004562255
146	0xbdbd0b36	-0.09230654
147	0xbacfb17a	-0.0015845739
148	0xbcccba85	-0.024991283
149	0xbc552020	-0.0130081475
150	0xbccaf8d7	-0.02477686
151	0xbc826ef2	-0.015922043
152	0xbce6bad6	-0.028165262
153	0x3cdea100	0.02717638
154	0xbd7866b7	-0.06064483
155	0x3aab89d0	0.0013087336
156	0x3c8526bb	0.01625382
157	0x3a27eb34	0.00064055924
158	0x3c565b4b	0.013083289
159	0xbc37dcaf	-0.011222049
160	0x3b1d0892	0.0023961407
161	0x3c4a79b1	0.012358115
162	0xbd105118	-0.035233587
163	0xbc2a32ec	-0.010388117
164	0x3b835038	0.0040073656
165	0xbafa7e33	-0.0019111097
166	0x3c80e576	0.015734416
167	0x3ca188ff	0.019718645
168	0xbb9c11c6	-0.004762861
169	0xbcd89c4b	-0.026441714
170	0x3c08ae5d	0.008342353
171	0xbc74fc3d	-0.014952716
172	0xbbf10c7a	-0.0073562237
173	0xbc5a576b	-0.013326506
174	0x3cab6798	0.02092342
175	0x3aaf8cd4	0.001339341
176	0x3c4bdd62	0.0124429185
177	0xbc99cff3	-0.018775916
178	0x3cb43ee8	0.022002652
179	0x3c8c7239	0.01714431
180	0xbc6ed9e2	-0.0145783145
181	0x3c6dff96	0.0145262685
182	0xbce3290d	-0.027729535
183	0x3d576688	0.052588016
184	0x3cbdc3e0	0.02316469
185	0x3c5a6f56	0.013332209
186	0x3ba6cc32	0.00509026
187	0xbd0b2451	-0.03397018
188	0xbb598fa9	-0.00331972
189	0xbc94fcea	-0.018187005
190	0x3cc718a4	0.024303742
191	0xbc1b16d8	-0.009465896
192	0x3bc2bcc8	0.0059429146
193	0x3c444954	0.011980373
194	0xbc8e11a6	-0.0173424
195	0x3ba15a6d	0.0049241097
196	0xbab355d3	-0.0013682194
197	0x3c165f5e	0.009178011
198	0xbd4234c9	-0.04741362
199	0xbc65abf3	-0.014018047
200	0x3cd98bc5	0.026555905
201	0xb92443ac	-0.00015665469
202	0x3b5658b5	0.0032706682
203	0x3c509dcb	0.012732933
204	0xbb228bb0	-0.0024802499
205	0xbc5d2c39	-0.013499313
206	0x3bef025f	0.007293984
207	0x3b5a2a6d	0.0033289448
208	0x3cd0ec0c	0.02550318
209	0x3c707cb7	0.014678172
210	0xbc67ea82	-0.014155032
211	0x3b488b87	0.0030600743
212	0xbb8387aa	-0.004013975
213	0xbca06738	-0.019580469
214	0x3b4dc17d	0.0031395846
215	0xbc54bfc8	-0.012985177
216	0xbcdb66e7	-0.026782466
217	0xbc8db713	-0.01729921
218	0x3cf1a4c1	0.029497506
219	0xbcf39745	-0.029735217
220	0x3ad8cfc4	0.0016541411
221	0xbcd926e1	-0.026507797
222	0x3c751183	0.014957788
223	0x3cd00049	0.025390761
224	0xbc50fa83	-0.012755039
225	0xbc639080	-0.013889432
226	0xbc972663	-0.018450921
227	0x3c5b5124	0.013386045
228	0xbcd33ff6	-0.025787335
229	0xbc3f0497	-0.011658809
230	0xba9179f4	-0.0011098967
231	0x3add1e66	0.0016870021
232	0xbb5068e7	-0.0031800808
233	0xbb4508ee	-0.0030065137
234	0xbcab0c5f	-0.020879922
235	0x3cce37f8	0.025173172
236	0x3cc9709c	0.02458983
237	0xbc28b97c	-0.010298129
238	0xbb49eb3a	-0.0030810372
239	0x3c2a50cf	0.010395243
240	0x3b1acb4c	0.002361971
241	0x3cfeb3e1	0.031091632
242	0x3bf066a0	0.0073364526
243	0x3c9ec6ae	0.019381847
244	0x3c2e2fd7	0.010631523
245	0xbcc878e3	-0.024471706
246	0x3cc4940f	0.023996381
247	0xbb452cef	-0.0030086597
248	0x3ccd5c29	0.02506836
249	0xbb46049b	-0.0030215147
250	0x3bac72e6	0.0052627204
251	0xbc665da0	-0.014060408
252	0xbc0b84d8	-0.008515559
253	0x3b9a9c16	0.004718314
254	0x3c131e40	0.00897938
255	0xbb44cd9a	-0.0030029775

bn1.weight f4 [256]
0	0x3a5af9d1	0.00083532656
1	0x3ea4644e	0.32107776
2	0x3f0ada00	0.5423889
3	0x3f54168f	0.8284692
4	0x3e57483a	0.21023646
5	0x3df93dfe	0.12170027
6	0x3e3a1a0e	0.18174002
7	0x3e495f1e	0.1966519
8	0x3e50bb9d	0.20384069
9	0x3e007233	0.12543564
10	0x3e82e950	0.25568628
11	0x3e78ae7c	0.2428531
12	0x3dfd9542	0.12381984
13	0x3e30b26c	0.17255563
14	0x3cf9b350	0.03048101
15	0x3e7ff4dd	0.24995752
16	0x3e15493d	0.1457872
17	0x3e1fdcdb	0.15611593
18	0x3e07d445	0.13264568
19	0x3e6dd54f	0.23225902
20	0x3e158499	0.14601363
21	0x3f0e5935	0.5560487
22	0x3e7f8b5c	0.24955505
23	0x3f305e60	0.68894005
24	0x3e7eac1b	0.2487034
25	0x3dcd12d6	0.10013358
26	0x3f9382a8	1.1524248
27	0x3e173617	0.14766727
28	0xbda7e7d3	-0.08198514
29	0x3dc4d8ee	0.096116886
30	0x3e33642c	0.17518681
31	0x3f19fd94	0.60152555
32	0x3d7fe9ee	0.062478952
33	0x3dd0102b	0.10159334
34	0x3ea07fbf	0.31347463
35	0xba838274	-0.0010033385
36	0x3db64995	0.089007534
37	0x3e08daa4	0.13364655
38	0xbc165361	-0.0091751525
39	0x3e3c03d4	0.18360835
40	0x3eba810a	0.36426574
41	0x3f20e2e0	0.62846184
42	0x3da41019	0.08010883
43	0x3ea543b2	0.3227821
44	0x3df5cd5a	0.12002058
45	0x3e5331d7	0.20624481
46	0x3e3a3cc6	0.18187246
47	0x3e956fcc	0.29186857
48	0x3e0390ae	0.1284816
49	0x3e91f5cd	0.28507844
50	0x3ccebe1d	0.025237137
51	0xbade2b12	-0.0016950092
52	0x3e19ca0d	0.15018483
53	0x3d7720cb	0.06033401
54	0x3ea78051	0.32715085
55	0xbb027bc1	-0.001991019
56	0x3e4583d0	0.19288564
57	0x3e0c4769	0.13699116
58	0x3e3860f3	0.18005733
59	0xbe1f7d05	-0.15575035
60	0x3e902d9f	0.28159806
61	0x3e5ec6fe	0.21755597
62	0x3e0afcca	0.13572994
63	0xbd35ec01	-0.044414524
64	0xbdabf8d1	-0.08397067
65	0x3d9737d4	0.07383695
66	0x3e3259c2	0.17417052
67	0x3e8e0e57	0.27745315
68	0xbdd1ec84	-0.1025019
69	0x3da62067	0.08111649
70	0x3e0188fc	0.12649912
71	0x3e258e97	0.16167675
72	0x3deef8a5	0.11668519
73	0x3df3e99a	0.1190979
74	0x3e7657fb	0.24057
75	0x3d583190	0.05278164
76	0x3e63b316	0.22236285
77	0x3dd6cc75	0.10488216
78	0x3e128f7b	0.14312546
79	0x3f0be888	0.5465169
80	0x3db3ed84	0.08785537
81	0x3e3dcfad	0.18536253
82	0x3dec24bf	0.11530446
83	0x3dc13b1c	0.09435102
84	0xbddbd25f	-0.107334845
85	0x3e9b8bfd	0.3038024
86	0x3e0bfc29	0.1367041
87	0xbd8c1623	-0.0684016
88	0x3e0910d2	0.13385323
89	0x3d47cbf0	0.048778474
90	0x3d4cdc21	0.05001462
91	0x3dcb06e7	0.09913426
92	0x3df171f9	0.11789317
93	0x3ddf1522	0.10892703
94	0x3ecf5753	0.4049631
95	0x3d43d1fb	0.047807675
96	0x3dcc1602	0.09965135
97	0x3e81f59d	0.253827
98	0x3f03abf9	0.51434284
99	0x3d550fa0	0.052016854
100	0x3ebd632e	0.3698973
101	0x3e0ef416	0.13960299
102	0x3ed09bd0	0.40743876
103	0x3d8d4a06	0.068988845
104	0x3ea495af	0.3214545
105	0xbda9c4ff	-0.08289527
106	0x3e1dcff4	0.15411359
107	0x3f3e9839	0.74451023
108	0x3f196acc	0.59928584
109	0x3e35801b	0.1772465
110	0xbe135a6c	-0.14389962
111	0x3e215613	0.15755491
112	0x3d171b94	0.036891535
113	0x3f324165	0.69631034
114	0x3e5f19e9	0.21787228
115	0x3d913d91	0.07091821
116	0x3ebffded	0.37498417
117	0x3f2bf0c6	0.67164266
118	0x3eab4532	0.3345123
119	0x3e9d0c3e	0.30673403
120	0x3dc23042	0.09481861
121	0x3adaf155	0.0016704003
122	0x3e8fd491	0.28091863
123	0x3e136a0a	0.1439592
124	0x3e1193e7	0.14216577
125	0x3e1da5d0	0.15395284
126	0x3d500ac4	0.050791517
127	0x3d13951f	0.036030885
128	0x3da18491	0.07886613
129	0x3d6899d9	0.056787346
130	0xbd52ef9e	-0.051498048
131	0x3d82f045	0.06393484
132	0x3e7c12be	0.24616525
133	0x3edbb3d3	0.42910632
134	0x3dffb399	0.124854274
135	0x3dc08882	0.09401037
136	0x3e62e887	0.22159015
137	0x3ef590d7	0.47962067
138	0x3e35a538	0.17738807
139	0x3df4f37e	0.11960505
140	0x3e39729a	0.18110123
141	0x3d03f6e5	0.03221788
142	0x3de909da	0.11378832
143	0x3d7f4538	0.06232187
144	0x3e2ca0af	0.16858171
145	0x3e428294	0.18995124
146	0x3e1f8763	0.1557899
147	0x3e17bb2c	0.14817494
148	0x3e0bfcfb	0.13670723
149	0x3e68c22c	0.2273032
150	0xbe039c29	-0.12852539
151	0x3dce115b	0.10061904
152	0x3eab4725	0.33452716
153	0x3c1fc440	0.0097513795
154	0xbe05fa6f	-0.13083814
155	0x3ecbc270	0.39796782
156	0x3f0b2fec	0.5437
157	0x3e5fb4e1	0.21846344
158	0x3dd0236d	0.10163007
159	0x3c0322d7	0.008003912
160	0x3e9187fc	0.2842406
161	0x3e913c14	0.28366148
162	0x3e3da225	0.18518884
163	0x3f04d89f	0.5189304
164	0x3d92e08e	0.07171737
165	0x3db9317b	0.09042641
166	0x3eaedd91	0.34153417
167	0x3f35706e	0.7087468
168	0x3e40158e	0.18758222
169	0x3eaeac27	0.34115717
170	0x3e109f3c	0.14123243
171	0x3dddf76b	0.10838207
172	0xbd63387c	-0.05547379
173	0x3e031421	0.12800647
174	0x3f4218d0	0.7581911
175	0x3d6102a0	0.054934144
176	0x3e6acd03	0.22929768
177	0x3f1dcbc7	0.61639065
178	0x3ea1b40b	0.31582674
179	0x3dee8647	0.11646705
180	0x3e1274ab	0.14302318
181	0x3f19dd16	0.60102975
182	0x3e44ef27	0.19231854
183	0x3f0b79b3	0.54482573
184	0x3ef2bd6f	0.4741015
185	0x3e2634d2	0.16231087
186	0x3e2182f8	0.15772617
187	0x3e10c63f	0.14138125
188	0x3e27c751	0.16384627
189	0x3d526775	0.051368196
190	0x3eae4e7d	0.34044257
191	0x3f137dda	0.5761391
192	0x3e675ea4	0.22594696
193	0x3e3736e8	0.17892039
194	0x3f200c44	0.62518716
195	0x3e82f25a	0.25575525
196	0x3e9e4b8f	0.30917022
197	0x3e169121	0.147038
198	0x3e4608e3	0.19339328
199	0xbd4c5c84	-0.049892917
200	0x3e88ff26	0.26757163
201	0x3e03ae99	0.12859572
202	0x3ec46242	0.38356215
203	0x3d6a53d4	0.05720885
204	0x3e488ebe	0.19585702
205	0x3be4f0e3	0.0069867237
206	0x3e776807	0.24160777
207	0x3dce6afc	0.100789994
208	0x3d88fc69	0.066887684
209	0x3e9100cb	0.28320917
210	0x3e9cd1a4	0.30628693
211	0x3e2ab59c	0.16670841
212	0x3e74121a	0.2383503
213	0x3e0a23d3	0.13490228
214	0x3df13173	0.1177701
215	0x3d95a8a0	0.07307553
216	0x3e0d1bc9	0.1378013
217	0x3e1d74f4	0.15376645
218	0x3d9b24cb	0.07575377
219	0x3db04a13	0.086078785
220	0x3dd6adc7	0.10482364
221	0x3e5e262b	0.21694247
222	0x3e0b39e3	0.13596301
223	0x3e473a59	0.19455852
224	0x3ea0f96c	0.31440294
225	0x3e7104bc	0.23536962
226	0x3e18a144	0.14905268
227	0x3dcfd750	0.101484895
228	0x3d9fe3cd	0.078071214
229	0x3ecfb4b4	0.40567553
230	0x3e4ff321	0.2030759
231	0x3dfcd1b6	0.12344687
232	0x3e2c4af2	0.16825464
233	0x3e350753	0.17678575
234	0x3f41f175	0.7575906
235	0x3ead613a	0.3386324
236	0xbd974ffd	-0.073883034
237	0x3e93205c	0.28735626
238	0x3a905202	0.0011010768
239	0x3e7476f8	0.23873508
240	0x3e23ea72	0.16007403
241	0xbd8f077e	-0.06983851
242	0x3e9f8d73	0.31162605
243	0x3d92e1ed	0.07171998
244	0x3e8a078b	0.2695888
245	0x3d8bab20	0.06819749
246	0x3e8d474e	0.27593464
247	0x3f35ab28	0.7096429
248	0x3e0eca0f	0.13944267
249	0x3df17530	0.1178993
250	0x3e100cb3	0.14067344
251	0xbdc600ca	-0.09668119
252	0x3e1ba7be	0.15200707
253	0x3e8e359c	0.27775276
254	0x3e5a58df	0.21322964
255	0x3e0c3013	0.13690214

bn1.bias f4 [256]
0	0xba843d18	-0.0010089008
1	0x3e1dea0a	0.1542131
2	0x3e701484	0.23445326
3	0x3eb49d6b	0.3527635
4	0x3dafe5e6	0.085887715
5	0x3d0c62aa	0.03427378
6	0x3deea48f	0.11652481
7	0x3d870c7e	0.065941796
8	0x3d5a5eac	0.053312942
9	0xbbc3b347	-0.0059722993
10	0x3e11fb7b	0.14256088
11	0x3d5d1dec	0.053983614
12	0x3cb3a31b	0.02192836
13	0x3ccddd0f	0.025129823
14	0xbca21c29	-0.019788818
15	0x3d7e3bc2	0.06206871
16	0x3bc7c0e3	0.006095992
17	0x3d3cf337	0.046130385
18	0x3d1502dc	0.03637968
19	0x3e07e06e	0.13269207
20	0x3c987918	0.01861243
21	0x3e6067f8	0.21914661
22	0x3d4aa730	0.04947585
23	0x3e9aa44d	0.30203477
24	0x3daf3720	0.08555436
25	0x3ce6046c	0.02807828
26	0x3ef34aef	0.47518107
27	0x3cd14dde	0.025549825
28	0xbce7e989	-0.0283096
29	0x3d186240	0.037203074
30	0x3dd514ae	0.10404335
31	0x3e80ca8a	0.25154525
32	0x3c8177fa	0.01580428
33	0x3c87aafb	0.016561022
34	0x3dd44e95	0.10366551
35	0x3ea26670	0.3171878
36	0x3dbbd06e	0.09170614
37	0xbaba1bc0	-0.0014198944
38	0x3d861511	0.06546987
39	0x3c8bed39	0.01708089
40	0x3e12c2aa	0.14332071
41	0x3e196036	0.14978108
42	0x3b973af7	0.0046151835
43	0x3da8fee7	0.08251744
44	0x3cc35b7d	0.023847336
45	0x3d0050f5	0.031327207
46	0x3df12d5b	0.11776229
47	0x3e0f8de0	0.14018965
48	0xbe5c171d	-0.21493192
49	0x3d3e31af	0.0464341
50	0xbdd44691	-0.10365022
51	0x3e5a7054	0.21331912
52	0x3cd74e91	0.02628258
53	0x3c954aa4	0.018224068
54	0x3d5ca0fb	0.05386446
55	0xba90dfa6	-0.001105298
56	0x3e169a3e	0.14707276
57	0x3d209eed	0.039214063
58	0x3de1a3f0	0.11017597
59	0xbcaf4c57	-0.021398706
60	0x3ddd8167	0.10815697
61	0x3d0f8e00	0.03504753
62	0x3d85d9be	0.06535672
63	0x3d80bdbc	0.06286189
64	0xb9e7e11e	-0.0004422748
65	0x3cabf479	0.020990597
66	0x3dc63329	0.09677727
67	0x3db3fbb1	0.08788241
68	0x3abeaa50	0.0014546607
69	0x3c62f0c3	0.013851347
70	0x3cc7f24d	0.02440753
71	0x3d0d5be3	0.034511458
72	0x3903cf72	0.00012570413
73	0xbc01b385	-0.007916336
74	0x3e0ddb9e	0.13853309
75	0x3b400b2f	0.002930354
76	0x3e06b002	0.13153079
77	0x3c841698	0.016124055
78	0x3d5dac38	0.05411932
79	0x3dc4739a	0.09592362
80	0x3d741f00	0.059599876
81	0x3bcf6df7	0.0063302475
82	0x3cb22816	0.02174763
83	0xbcaa8812	-0.020816837
84	0xbbe6f8a0	-0.0070486814
85	0x3e4b7626	0.19869289
86	0x3c84c18a	0.016205568
87	0xbac8e359	-0.0015326544
88	0x3dd791af	0.10525834
89	0x3c8b9a9a	0.017041493
90	0x3c82e235	0.015977005
91	0x3d19a4ed	0.0375108
92	0x3d071a09	0.032983813
93	0x3c077eab	0.008269946
94	0x3df7a1a0	0.120913744
95	0x3c91c927	0.017796112
96	0x3b943463	0.0045228465
97	0x3d72bbfa	0.0592613
98	0x3e447f04	0.19189078
99	0x3b0dea9f	0.0021654738
100	0x3dc86341	0.09784556
101	0x3d0dab48	0.034587175
102	0x3e1f6818	0.15567052
103	0x3ce0f3c9	0.027459996
104	0x3e0da866	0.1383377
105	0xbc454c40	-0.012042105
106	0x3d0567c7	0.032569673
107	0x3e4228a4	0.18960816
108	0x3e2a6f5b	0.16644041
109	0xba0a425f	-0.0005274172
110	0xbd17d446	-0.037067674
111	0x3cb277ad	0.021785581
112	0xbcdd4b46	-0.027013432
113	0xbc2cf8c5	-0.010557358
114	0x3d209cf4	0.039212182
115	0x3bf976de	0.007613047
116	0x3e354b45	0.17704494
117	0x3eabcf4d	0.33556595
118	0x3e1b5436	0.15168843
119	0x3df6aa2c	0.120441765
120	0xbbd2fa77	-0.006438549
121	0x3a86ef53	0.0010294713
122	0x3e665f0c	0.22497195
123	0x3d1b2e57	0.03788599
124	0x3c84715b	0.016167333
125	0x3d7d0f6e	0.061782293
126	0x3b793afa	0.0038029538
127	0x3d0de601	0.034643177
128	0x3a888bed	0.0010417678
129	0x3be77cc2	0.007064433
130	0x3cbdc40b	0.02316477
131	0x3c653380	0.013989329
132	0x3e65d239	0.22443475
133	0x3dc9b1da	0.098483756
134	0x3be462c3	0.006969781
135	0x3c9c6931	0.019093128
136	0x3d97d18e	0.07413016
137	0x3df840a0	0.12121701
138	0x3d8770dd	0.06613324
139	0x3daa6243	0.08319523
140	0x3d365144	0.044511095
141	0x3bc51e53	0.006015578
142	0x3c76c79a	0.015062237
143	0xbdeda740	-0.11604166
144	0x3d0aee89	0.03391889
145	0x3dccb470	0.09995353
146	0x3d0f598a	0.0349975
147	0x3ce9b9ae	0.028530922
148	0x3cfd5f02	0.030929092
149	0x3e185e15	0.1487964
150	0xbd2316dd	-0.039816726
151	0x3c7c87c9	0.015413233
152	0x3d4549ca	0.048166074
153	0x3e5463c4	0.20741183
154	0xbda53cc2	-0.08068229
155	0x3e201081	0.15631296
156	0x3e9aa019	0.3020027
157	0x3d27f4ed	0.041005064
158	0x3d15758c	0.036489055
159	0xbb94d1de	-0.0045416197
160	0x3d582173	0.052766275
161	0x3cfc2303	0.030778414
162	0x3d44557a	0.04793308
163	0x3e92bafe	0.2865829
164	0x3cc11013	0.023567235
165	0x3d5dad6d	0.05412047
166	0x3debbdcb	0.115108095
167	0x3e406f70	0.1879251
168	0x3db169f1	0.08662785
169	0x3e10c804	0.141388
170	0xbd526bd0	-0.05137235
171	0xb9c118ad	-0.00036830214
172	0x3d11adfe	0.035566323
173	0x3c753479	0.014966124
174	0x3e16d725	0.14730509
175	0x3ca02f77	0.019553883
176	0x3dffe022	0.12493922
177	0x3e745bdd	0.23863168
178	0x3e76b69a	0.24093094
179	0x3ccf46b8	0.025302276
180	0x3d12709d	0.035751928
181	0x3e1547e8	0.14578211
182	0x3d0fff75	0.035155732
183	0xbd342f23	-0.043990266
184	0x3d2e0262	0.04248274
185	0x3d8abb98	0.06774062
186	0x3cc1af89	0.023643272
187	0x3d8e9862	0.069626585
188	0x3d2f4984	0.04279472
189	0x3cdc2f95	0.026878158
190	0x3e07b304	0.13251883
191	0x3e94b0af	0.2904105
192	0x3d9328b8	0.07185501
193	0x3d40c739	0.047064994
194	0x3e70427d	0.23462863
195	0x3d9b1187	0.075717025
196	0x3db58764	0.08863714
197	0x3cf0f102	0.029411796
198	0x3d541663	0.051779162
199	0xbc8ccb75	-0.01718686
200	0x3e1edaef	0.15513204
201	0x3d09722b	0.033556145
202	0x3db55905	0.0885487
203	0x3cd3d3a9	0.025857763
204	0x3d466c2f	0.048443016
205	0xbb068db9	-0.002053125
206	0x3d239ac2	0.03994251
207	0x3cfdcf90	0.030982763
208	0x3d1e5590	0.038655818
209	0x3d18c592	0.037297793
210	0x3de456ec	0.111493915
211	0x3da295da	0.07938738
212	0x3cc96266	0.024583053
213	0x3c91a066	0.01777668
214	0x3d855824	0.06510952
215	0x3c9e5bba	0.019330848
216	0x3d04bab3	0.032404613
217	0x3d6dd2eb	0.058062475
218	0x3d000c72	0.03126187
219	0x3c08b0b6	0.008342912
220	0x3d7c1131	0.061539833
221	0x3e10bf15	0.14135392
222	0x3d168956	0.036752068
223	0x3df2431d	0.11829207
224	0x3d9e4ae7	0.0772913
225	0x3da04c80	0.07827091
226	0x3cf50c76	0.029913168
227	0x3d59942c	0.053119823
228	0xbca74a0d	-0.020421052
229	0x3e99d369	0.30044106
230	0xba62e781	-0.00086557126
231	0x3c8a46f7	0.016879542
232	0x3d07740d	0.03306966
233	0x3d08ba48	0.033380777
234	0x3e299acc	0.16562957
235	0x3e4be151	0.1991017
236	0xbc7790d1	-0.0151102105
237	0x3d7fd866	0.062462233
238	0x3a4ab0c0	0.0007732026
239	0x3e110616	0.14162478
240	0x3d2c44bc	0.042057738
241	0x3c1df95e	0.009641973
242	0xbd25e796	-0.04050406
243	0x3ba5bb56	0.0050577326
244	0x3d5c127f	0.053728577
245	0x3c089b6b	0.008337836
246	0x3e1b25c3	0.15151124
247	0x3e0c0e4f	0.13677333
248	0x3e136ef0	0.14397788
249	0x3c87cf12	0.016578231
250	0x3cabc44e	0.020967629
251	0xbd1faea8	-0.038984925
252	0x3d234090	0.039856493
253	0x3d838f56	0.064238235
254	0x3d565109	0.052323375
255	0x3c111f8a	0.008857617
